test/model.onnx (onnx, 41081 bytes, 70 tensors)

conv1.depthwise_separable_conv.depthwise.weight f4 [3, 1, 9, 9]
00000000: 4bfd 013d b53a c9bd bfa7 5abd ccde 1ebe
00000010: a303 80bc ffe3 86bd 7ee8 d1bd 78ae 83bb
00000020: ee66 0ebd a291 8cbd 095b b23b d710 a0bc
00000030: e518 c4bd 7d42 283e 3f47 ce3d 73a7 ff3c
00000040: cfd6 093d f832 31be a769 8bbd 4884 6abd
00000050: 1e79 433c 7063 a73c 23cc d93e 6613 d73e
00000060: faf8 643e bb0d 1c3d 25e8 85be 6bba a1bd
00000070: 8fef 06bd 5fec 49bd 7f2f b43d 20e3 833e
00000080: 1b36 db3e b284 d93e 055e 693e 9303 c3bd
00000090: 9342 b23c 8de7 eabc c061 12be fb65 d2be
000000a0: bfe8 58bd 88a4 ab3d d7fb eb3e 2013 0c3f
000000b0: 06f2 28bc dadd 943d e18c 843d 2ed5 e8bd
000000c0: 590c 95be d105 fbbd e497 6d3d a58e a33e
000000d0: 6944 843e 068b 6bbc e6a1 fcbd 35cc 533d
000000e0: 837a e03d 19db 99bd 3228 0a3e 65f5 16be
000000f0: 4a05 a5bd 07eb 4bbe 97c0 27be 6f0c f9bd
00000100: eaba 8d3d f249 ad3d b8a5 e23d 2d87 233e
00000110: 585d b7bd da6f 85be 0de7 55be 4617 81be
00000120: ee78 e33d 4936 f6bd 2169 7cbd dc42 09be
00000130: 996d 0f3e df5e b4bc 044b 0bbe 5f21 edbd
00000140: 9ee7 48bd 73fc 8d3d 6c25 3e3d 5c29 1e3d
00000150: af31 523d 1034 9dbd 84db 043d 934b 3dbd
00000160: 3c78 d9bc 9df9 253e 9ba6 183e e7a0 cd3b
00000170: 5177 3a3d 4ac0 45bd 2b93 58be e9e4 03be
00000180: 5930 0e3e aa6b cd3d d7a8 013c e477 9a3d
00000190: 8f58 923d 6a1b b13d 186f d3bd 4867 a2be
000001a0: 0e93 6abe 6954 bbbd c82f c03b a77e bcbc
000001b0: cacd d83c b285 f43d 9e35 373e 577f 2cbe
000001c0: e676 0cbf a4f2 27bf ce96 9cbe 8fd1 8abd
000001d0: 5162 b13d b891 aa3d b50a 903e 7d92 233e
000001e0: 4712 1bbe c487 22bf 8656 03bf 4f66 3fbe
000001f0: 3348 10ba 18a2 213e 5dc9 e0bc b029 613d
00000200: be82 0a3e ef95 25be 909f 5dbe 9650 89bd
00000210: bef1 a83c 98c6 a83d 4721 33bd 81ea 8ebd
00000220: 30c3 04bd 8bd5 a83c ae39 363e 479e 2b3e
00000230: f4f8 b63e 748b 283e b7b5 be3d beb3 67bd
00000240: 3c05 61bc 77ba 09bd 5028 1f3d 3dce 883d
00000250: 74f6 283e 062f 0e3e 0b61 473e 2b76 2cba
00000260: 2d74 373e 8620 103e fce4 fc3c 7a18 a7bd
00000270: 0e63 323d a17a 153d afd7 873d fa32 b0bd
00000280: 5ba7 9bbd 5d04 413e 5bd3 913e fbb8 753d
00000290: 9bbe f53c 5418 0cbe 0b76 4ebe d561 14bd
000002a0: b0ab a3bd 2b90 fe3b 41a2 b33e 3929 f03d
000002b0: 0240 fe3d 4264 3dbc 8b73 f6bd c80e f4bd
000002c0: 8ea0 8bbe a0a9 9bbe 4b51 4fbe c261 f03d
000002d0: 95e6 083e aee7 103e 4ffe 803d c6a8 01be
000002e0: 39ba 21bd 709e 28be 7890 cdbe c5d3 a6be
000002f0: 6a87 443e 833f 4e3d 79d5 9dbc 5f7d 213c
00000300: 9ab5 abbd acf5 80bd 62c7 9bbe 4be4 f6be
00000310: 5547 89be 92fd ca3d e509 853e 15ce d03d
00000320: 8ef6 31bd 86ee 16be 3b95 c13c 2a9d 3bbd
00000330: 46d5 2abe 6b13 3dbc 5050 143e d684 d7bb
00000340: 5ab6 f8bb 1079 843d 6971 b6bd 30f8 d1bd
00000350: b7e4 80be b371 90be 1a68 8fbd 0e90 0c3e
00000360: 0cc0 3938 ab3b ec3d 94ad 723e 17b9 6abc
00000370: 4b02 f3bd 715e 0b3b 2fab acbd 53e2 0c3e
00000380: ff76 4a3e 6a81 f8bd e724 a73c 0e42 783d
00000390: 1b1d 36bd f7d6 5f3b e72a d7ba 722e a93d
000003a0: e930 923d 863c 2e3e 8f8e 433d 4685 7c3c
000003b0: a26f 30bc 7cc9 85bc 8158 3d3e db6b 843e
000003c0: 08fe 3b3e bef5 a23d c1a4 133e
0.0317357 -0.098256506 -0.05338263 -0.15514678 -0.015626734 -0.065864556 -0.102494225 -0.004018601
-0.03476613 -0.06863715 0.005442981 -0.01953928 -0.09575061 0.16431613 0.10072183 0.031207776
0.033652123 -0.173046 -0.06807261 -0.05725506 0.011930732 0.020433158 0.42538556 0.42006987
0.22360602 0.038099032 -0.26153675 -0.078968845 -0.032943305 -0.049297687 0.08798122 0.2575922
0.42814717 0.4248405 0.22789772 -0.09522166 0.02176026 -0.028674865 -0.14295101 -0.4109343
-0.05295634 0.08380991 0.46090576 0.5471668 -0.010311609 0.07268877 0.06472183 -0.11368786
-0.29110983 -0.12256969 0.058006182 0.31944767 0.25833443 -0.0143764075 -0.12335567 0.05170842
0.10960867 -0.07512493 0.13491896 -0.14742048 -0.080576494 -0.19913875 -0.16382061 -0.12160575
0.06920417 0.084613696 0.110667646 0.15969534 -0.08953351 -0.26061898 -0.2088892 -0.2521307
0.1110705 -0.12022073 -0.061623696 -0.13404411 0.14006652 -0.022017894 -0.13602835 -0.11578631
-0.049049012 0.069329165 0.046422407 0.038613662 0.051316913 -0.07675946 0.03243591 -0.04621465
-0.02654659 0.16208501 0.14907305 0.0062752846 0.045523945 -0.048279084 -0.2114989 -0.12880291
0.1388563 0.10030301 0.00791379 0.075423986 0.071457975 0.08647807 -0.10323924 -0.31719422
-0.2290766 -0.09146959 0.005865071 -0.023009611 0.026465315 0.11939563 0.17891547 -0.16845451
-0.54868925 -0.65604615 -0.30583805 -0.067782514 0.086613305 0.08328575 0.2813317 0.1597385
-0.15143691 -0.6348841 -0.513039 -0.18691371 -0.00055039226 0.1578449 -0.027439767 0.054971397
0.13526437 -0.16170476 -0.216429 -0.06704824 0.020623084 0.08241004 -0.043732908 -0.06978322
-0.032412708 0.020609638 0.1779544 0.16759597 0.3573681 0.16459447 0.09312003 -0.0565679
-0.013734158 -0.033625092 0.038856804 0.06679962 0.16500264 0.13885126 0.19470613 -0.00065788877
0.17915411 0.14074907 0.030870907 -0.081589654 0.043551497 0.0364939 0.06632935 -0.08603473
-0.0760028 0.1884932 0.28481564 0.059990864 0.029998114 -0.13681155 -0.20162217 -0.036226112
-0.07991731 0.007768651 0.35084727 0.117266126 0.12414552 -0.011559548 -0.12033757 -0.11916882
-0.2727093 -0.3040285 -0.20245855 0.11737396 0.1336921 0.14150879 0.062985055 -0.12662038
-0.039484236 -0.16466689 -0.40149283 -0.32583442 0.19192281 0.05035354 -0.01926683 0.009856551
-0.08384247 -0.06296858 -0.30425555 -0.4822105 -0.26812235 0.09911646 0.2598411 0.10195557
-0.043448023 -0.14739427 0.023630729 -0.04580418 -0.1668292 -0.011540274 0.14483762 -0.0065771146
-0.0075900974 0.06468403 -0.0890835 -0.10252416 -0.25174496 -0.28211746 -0.07002278 0.13726828
4.4286295e-05 0.11534818 0.23699027 -0.014326355 -0.11865672 0.0021266008 -0.08431088 0.13758211
0.19771956 -0.12134059 0.020403339 0.06060987 -0.04446135 0.0034155229 -0.0016415984 0.08260812
0.07138235 0.17015275 0.047743376 0.015412634 -0.010768803 -0.016331427 0.18490793 0.25863537
0.18358624 0.07957028 0.14418317

conv1.depthwise_separable_conv.depthwise.bias f4 [3]
00000000: b230 13be b404 ebbd 0e1b 59be
-0.14374045 -0.114755064 -0.21201727

conv1.depthwise_separable_conv.pointwise.weight f4 [9, 3, 1, 1]
00000000: 9c3a 81bd eb87 183f 7dac 4bbe 5c63 d53e
00000010: 2e35 e73e 68d8 4cbd 2759 d53d 3735 c9be
00000020: 6316 4a3e e870 92be 0aa2 263f 971f af3e
00000030: dc85 f43e 81d5 943e be82 c9bd 3756 74be
00000040: 2351 c83e 1530 ee3e 0e68 26be 0d5e 0e3f
00000050: f8ba 9bbe 9794 98be 4e2d 9cbe c996 e7bd
00000060: 565e 7a3e aabb 4abf 3526 b33e
-0.06310007 0.59582394 -0.19890018 0.41677368 0.4515776 -0.05001107 0.10417395 -0.39298412
0.19735102 -0.28601766 0.65091 0.3420379 0.47758377 0.2906914 -0.0983939 -0.23861013
0.39124402 0.4652106 -0.16250631 0.5561226 -0.30416083 -0.29800865 -0.30503315 -0.11308057
0.24450049 -0.791926 0.34990087

conv1.depthwise_separable_conv.pointwise.bias f4 [9]
00000000: 3231 073f bbd3 ac3e b376 aebe 4310 39bf
00000010: f371 713e 78a5 933e b582 3bbf d934 833d
00000020: 3fed bdbe
0.5280944 0.33755288 -0.34074935 -0.7229044 0.23578624 0.2883718 -0.7324632 0.06406564
-0.37095067

in1.weight f4 [9]
00000000: 4c3f 223f 6ea7 013f 1d3c 413f 9847 5d3f
00000010: 4383 a43e d237 b93e 0ad9 403f 6635 a63e
00000020: 105e 0d3f
0.63377833 0.506461 0.7548235 0.8643737 0.32131395 0.361754 0.75331175 0.32462615
0.55221653

in1.bias f4 [9]
00000000: cdcc b63f bd0c 913f 5cd3 103f c7f5 a7be
00000010: 2965 1640 fb3e ec3f 44bd 13bf 192a 0240
00000020: 62d2 f83f
1.428125 1.1332012 0.5657251 -0.328047 2.3499243 1.845672 -0.5771067 2.0338194
1.9439204

conv2.depthwise_separable_conv.depthwise.weight f4 [9, 1, 3, 3]
00000000: 7a3a 08bf 9f43 9dbe a615 203d ff05 17be
00000010: 13c1 e0bc 11e6 9a3e 7008 a93e cbd2 2f3e
00000020: 1101 7e3e dca4 81bd 9a54 523c 4d5f 74be
00000030: 614b 9fbe eeee debb 2595 dd3d 97b2 a53e
00000040: 422e c83e bef8 b4be 3794 c63d 1788 a8bc
00000050: 0c6d 92be 656d 34bd 6c39 57be 6fe9 d93a
00000060: 76f1 b4be f5c2 1dbe ac8c 83bd 93b5 2f3e
00000070: ff46 9a3e ae75 d3bd d2ce c5be 3659 7c3c
00000080: 5a74 ad3d fe90 333d e04e 9d3e f83a d43d
00000090: 1da3 70be b5a1 dabe 74bb 00be 733b 15be
000000a0: 4858 423c 7e32 ce3e eb39 00bf 0116 babe
000000b0: 3915 2a3e b503 82be e8f3 bdbe 2be9 a2be
000000c0: 38ff fb3e cbb8 883e a990 54bd 2091 893e
000000d0: c899 093f 4340 aabd e35e 14bb 79c3 7f3c
000000e0: a6cf bfbe 113a a5bc 8b7d bfbd ad2e 35bd
000000f0: ec29 95be 0a39 50be 9270 19be 9373 ac3d
00000100: 05c9 2b3e 0338 993d 802d c3be 9d75 4a3d
00000110: be30 2f3e 11d3 0c3e 66c9 d23e 41d7 7e3e
00000120: 900e 763e b9ce a53e 8491 ac3e 7389 fbbe
00000130: db23 7ebe 9254 ff3e 05ec 03bf 5c79 6fbe
00000140: 0735 f13c
-0.5321423 -0.30715653 0.039083146 -0.14748381 -0.027435815 0.30253652 0.3301425 0.17170255
0.24805094 -0.063302726 0.012837553 -0.2386448 -0.31112197 -0.006803385 0.10819463 0.32362816
0.39097792 -0.35346025 0.096962385 -0.020572705 -0.2859882 -0.04404964 -0.21017998 0.0016625355
-0.3534047 -0.15406401 -0.064233154 0.17159109 0.3013229 -0.1032518 -0.38634354 0.015402129
0.08469458 0.043839447 0.3072424 0.1036281 -0.23499723 -0.42701498 -0.12571508 -0.1457346
0.011861868 0.40272897 -0.50088376 -0.36344913 0.16609658 -0.25393453 -0.37100148 -0.31818518
0.49218154 0.26703486 -0.05189577 0.26868534 0.53750277 -0.08313038 -0.0022639565 0.015610569
-0.3746311 -0.02016929 -0.09350117 -0.044233967 -0.29133546 -0.20334259 -0.14984348 0.084204815
0.16775902 0.074813865 -0.3812065 0.04942857 0.17108437 0.1375239 0.4116928 0.248868
0.24028993 0.3238428 0.3370477 -0.49128303 -0.24818365 0.4986921 -0.5153201 -0.23386139
0.02944423

conv2.depthwise_separable_conv.depthwise.bias f4 [9]
00000000: 169c d2bd d325 d03d 21a7 483d f256 013e
00000010: 8e47 9bbd 7153 b8be c8e3 8cbe 8390 55be
00000020: 8b1c 793d
-0.10283677 0.101634644 0.04898751 0.12630823 -0.07582007 -0.3600116 -0.27517533 -0.20855908
0.060818236

conv2.depthwise_separable_conv.pointwise.weight f4 [9, 9, 1, 1]
00000000: 3791 413f d1a3 0dbe 6f78 09be 92d0 793e
00000010: 56e7 8e3d 2505 e73d a1a7 8bbc 28a0 9b3e
00000020: 9d94 563f 60b8 4fbd f33a 973d 9521 863e
00000030: 7f2f 7ebd e3bc 7f3e 944e 97be 8d77 97be
00000040: 0b6e 2a3f cd33 d53c 59de ee3d af68 18bd
00000050: 37a2 5b3e fc28 0b3e 5b03 933e abc0 eb3e
00000060: af35 84be 57b1 02be 806c 89be cfed 23bc
00000070: b09a 57be 4003 923e dcb3 e73b 540d e4be
00000080: 0d49 71be df05 7fbe 9566 1cbe 4120 7ebd
00000090: c83b babe eb7b eebe 52a5 89be b549 a1be
000000a0: 9a1e 3ebe b68b 20be d9ba 773d cbea cb3e
000000b0: 9735 bf3d efc7 9c3e 86e5 cbbe ff94 373d
000000c0: 4fe9 51be 3a5f 933d 306c 94be 8abe e33e
000000d0: 5d67 88bd 400d 013f cfc3 d2be 65ec 733e
000000e0: 724c 94bd e483 8b3d be11 703e 5ec0 c0be
000000f0: ff21 6f3d a2d4 74be 87ff 03bf b5ac 9e3e
00000100: 98cb f0be 1349 9fbe f7bd c13d 05fd de3e
00000110: 56bd 073d f1b7 1b3e c7d2 ae3d ef6f 81be
00000120: 13f9 043f 7ab4 29be 9227 8c3c 6c98 4e3e
00000130: 99f3 383e 3d3c efbe c3c8 673d 7530 d43d
00000140: 9199 00bf
0.75612205 -0.13832022 -0.13424848 0.2439597 0.069777176 0.11280278 -0.017047705 0.30395627
0.83820516 -0.050712943 0.073842905 0.26197496 -0.062057015 0.24974398 -0.29552138 -0.29583398
0.6657416 0.026025677 0.11663503 -0.03720921 0.21448599 0.13589853 0.28713498 0.46045431
-0.25822207 -0.12762962 -0.2684059 -0.010005428 -0.21055102 0.28518105 0.0070710015 -0.4454142
-0.23563023 -0.24904583 -0.15273507 -0.06204248 -0.36373734 -0.46578917 -0.26883942 -0.31501547
-0.18566361 -0.15678295 0.060480926 0.3982757 0.09336393 0.30621287 -0.3982355 0.044819828
-0.20499156 0.071958974 -0.2898879 0.44481307 -0.0666034 0.5041084 -0.41165015 0.23820646
-0.07241143 0.068122655 0.23444268 -0.37646765 0.05838203 -0.23909238 -0.5156178 0.3099114
-0.4703033 -0.3111044 0.09460061 0.43552414 0.03313955 0.15206887 0.08536296 -0.2528071
0.5194256 -0.16572753 0.017108712 0.20175332 0.18061675 -0.46725646 0.056587946 0.10360805
-0.50234324

conv2.depthwise_separable_conv.pointwise.bias f4 [9]
00000000: 2bb7 92bc 3bde 69be accd ee3e 8ea5 be3c
00000010: 28bf d53e 813a 3bbd 68c8 e5be 4e24 3d3e
00000020: 192d 753e
-0.017909607 -0.2283868 0.4664129 0.023272302 0.41747403 -0.04571009 -0.4487946 0.1847088
0.23942985

in2.weight f4 [9]
00000000: 4e91 d93e da1a 873e 77e9 3a3e b0ef 953e
00000010: a73a 0a3f 8ae5 673f a253 da3e d353 403f
00000020: a30f a83e
0.4249367 0.26387674 0.18253122 0.2928443 0.53995746 0.90584624 0.42641932 0.75127906
0.3282443

in2.bias f4 [9]
00000000: b788 c03f dbd0 1840 e303 4640 45f3 c83f
00000010: f6fc c03f 848b 95bb c5a0 be3f 1f0d acbd
00000020: 4d9f 0640
1.5041722 2.3877475 3.0939872 1.569924 1.5077198 -0.0045637507 1.4892813 -0.0840094
2.103473

conv3.depthwise_separable_conv.depthwise.weight f4 [9, 1, 3, 3]
00000000: f240 433e 0e26 9b3d 2c8a 623c b946 d23d
00000010: 0566 b13e b41e f7bc 7f45 933e 5d12 bc3e
00000020: 36f9 db3e ece6 3e3e 9bfd cc3e 5d8b f63d
00000030: fa15 b33b c13b 3fbe 9e67 173c 8c0b b5be
00000040: bd1a 1ebf 2fe8 edbd 30d4 093e 10cb 4dbe
00000050: 428d 73be 3b82 48be cd6d 17be 374a 153f
00000060: 5a14 1fbe 14f3 d93e b574 323f 52a1 683e
00000070: 3e46 d43e 6638 863e ab8e 9a3e 4cd9 583e
00000080: 20a2 283e 104c 153c 90bb ba3c 4c90 c13d
00000090: 9dee 273d 610b 34be 2c63 90be 9c36 99be
000000a0: f7fc 823e 01c5 ab3e 56dd b33e f4bd 7e3d
000000b0: 442f adbe 479e 35be 1bea 0f3e bcda 203c
000000c0: a421 003e a0b4 15bf 2c23 573e 7ca9 193e
000000d0: 3043 083e a0d4 89be 80de 423e fff4 4abe
000000e0: c30a acbc 871f dd3e 79be a63e a06f 1e3d
000000f0: 9cdb 97be 036e 50be 5cde 4f3e 0080 893d
00000100: a589 dfbc f2be 723d 2c33 4c3c 87b9 e73c
00000110: 9021 c83c e650 df3d 493f 993e 82d5 9c3e
00000120: 50d9 c23c 2114 6c3e 8d41 eb3d 7439 9dbe
00000130: 1d76 f1bd 831d 0c3f 10b9 32be a420 37be
00000140: 1883 803e
0.19067743 0.07575618 0.013826888 0.102673955 0.34648147 -0.030166008 0.2876396 0.3673276
0.4296357 0.18642777 0.40037236 0.120383 0.0054652663 -0.18675138 0.009241013 -0.35360372
-0.6175955 -0.11616551 0.1345985 -0.20096993 -0.23784354 -0.19580929 -0.1478798 0.5831637
-0.15535107 0.42568266 0.6970933 0.22717789 0.4145984 0.26214904 0.30186972 0.21176642
0.16468096 0.009112373 0.022794515 0.094513506 0.040999044 -0.17582466 -0.28200662 -0.29924476
0.25583622 0.3354874 0.35129803 0.062192872 -0.33825123 -0.1773616 0.14054148 0.009817775
0.12512833 -0.58478737 0.21009511 0.1500606 0.1330688 -0.26920033 0.1903019 -0.19820021
-0.021001225 0.43188116 0.32567194 0.038680673 -0.29659736 -0.20354466 0.20299667 0.06713867
-0.027287314 0.05926413 0.012463372 0.028286709 0.024430066 0.10904102 0.29931095 0.30631644
0.023785263 0.23054554 0.11487112 -0.30707896 -0.117901064 0.5473253 -0.17453408 -0.17883545
0.25100017

conv3.depthwise_separable_conv.depthwise.bias f4 [9]
00000000: a841 e03e 3c0a f43e e047 763d 1fa6 863e
00000010: 6fda d93e 4044 f13e d44a f9bc 2fdc ccbe
00000020: 85da 1fbe
0.43800092 0.47664058 0.06012714 0.26298615 0.42549464 0.47122383 -0.030431189 -0.40011737
-0.15610702

conv3.depthwise_separable_conv.pointwise.weight f4 [9, 9, 1, 1]
00000000: a2d1 8bbe 9d8a d5bd 46fd 2b3e 713d d8bd
00000010: ae0a e43b b6a8 203f afa3 823e 5415 9abe
00000020: 416e a93d c51c 483e 8001 0abf 736b 073f
00000030: e1b6 4ebe b068 dabc 66a5 41bc 0900 95bc
00000040: 30af 42bd 8273 0bbf a396 0cbe a368 173d
00000050: d1d2 223f ef5b 3b3e 7b23 073e 6e35 853c
00000060: 8200 babd a947 f73d 8d95 7e3e cc43 a83e
00000070: badf 6a3d 63dd a4bc 4249 493d 263f 9f3d
00000080: 33f7 1d3d b76d 1a3f 56b9 99bd dbd7 883d
00000090: 37d6 6f3e 5f54 7b3e ade4 d33e 668e bb3e
000000a0: 6b91 cebe 04a2 cb3b 429d 903d 085e bebd
000000b0: 657e 30be 21fe 8dbe ae1b c0be e4c3 d13e
000000c0: 5efa f8bd 93e1 73be 1024 853d 2541 de3c
000000d0: 3115 82be ee49 623e d446 ddbb a170 19bf
000000e0: 55d0 96be 3f57 d63e e8d1 72bd 2a5a 9d3c
000000f0: 320b c93d f65d 09bd 1a34 853e 64a1 59bd
00000100: 4ec5 113e da7c 98be 4f7a 0ebe 3464 813f
00000110: 5765 1bbc 174f f8bd f8d1 cfbe 07a1 aabd
00000120: 1591 693e 65da a03d aae8 8bbd 5f5c 393f
00000130: f934 053e 07e7 37bc 7f32 3a3d 5690 4cbe
00000140: 3134 c0ba
-0.27308375 -0.10426829 0.16795835 -0.10558594 0.006959281 0.6275743 0.25515506 -0.30094397
0.082729824 0.19542225 -0.5390854 0.5289833 -0.2018695 -0.026661247 -0.011819219 -0.018188493
-0.047530353 -0.54473126 -0.13729338 0.036965024 0.6360293 0.18296789 0.13197128 0.016260829
-0.09082128 0.12074215 0.24861737 0.32864225 0.05734227 -0.020125097 0.04914213 0.077757165
0.038565826 0.6032366 -0.07506053 0.06681796 0.2342156 0.24543904 0.41385403 0.3663208
-0.4034532 0.006214382 0.070612445 -0.09295279 -0.17235716 -0.27732947 -0.37521118 0.40969765
-0.12157129 -0.23816518 0.06501019 0.027130673 -0.25406793 0.22098514 -0.006752828 -0.59937483
-0.2945582 0.41863438 -0.059282213 0.019208033 0.098165885 -0.033536874 0.26016313 -0.05313243
0.14235422 -0.29782754 -0.13913845 1.0108705 -0.0094846105 -0.1212446 -0.4058988 -0.08331495
0.2280925 0.078541555 -0.068314865 0.7240657 0.13008489 -0.011224515 0.045458313 -0.19976935
-0.0014663992

conv3.depthwise_separable_conv.pointwise.bias f4 [9]
00000000: 073b 803c e947 d83d eb46 cfbe ddf6 d4be
00000010: 1515 c93c fae5 10be 9d18 98bd a350 9c3e
00000020: 3566 06be
0.015653146 0.10560591 -0.40483794 -0.41594592 0.024546186 -0.14150229 -0.074265696 0.3053027
-0.13124926

in3.weight f4 [9]
00000000: 5b73 b93e 157f 043f 2f91 123f c7dd ff3e
00000010: 7020 063f a450 5f3e 46db 113f 0a41 773e
00000020: 354c 9a3e
0.36220822 0.5175641 0.5725278 0.4997389 0.52393246 0.21808106 0.5697521 0.24145904
0.30136266

in3.bias f4 [9]
00000000: 764d 84bc 8705 5640 29e4 4840 1b93 ac3f
00000010: 0afb 3a40 c541 b83e d99a 2b40 b9da e5bc
00000020: b004 d63f
-0.016150218 3.3440874 3.1389258 1.3482393 2.9215722 0.35987678 2.6813262 -0.028058397
1.672018

resblocks.0.conv1.depthwise.weight f4 [9, 1, 3, 3]
00000000: f142 ed3e 0c48 91be 8795 d1bd 7796 1cbe
00000010: 66aa c93e f7f2 603e dd32 13be 9ff0 72be
00000020: 6c0a 223f 70d7 39bd 8058 cdbc d291 373c
00000030: 6db7 973e 273f 043f 1e66 4b3e 31b6 81be
00000040: 49b8 56be 85b5 d1bd ea30 8bba 06dc 81be
00000050: eefa 61bd b296 493e a812 e63e 190e c83e
00000060: 5b5a 3bbc 6b62 31be db3e 26be ee64 463e
00000070: bd9c 033e d524 e0bd 6dd8 ff3e fec4 703c
00000080: cf6d ffbd 5ea4 383c 3236 c9be 50ff da3e
00000090: dc2f 16bd 9458 6ebe 8b32 ccbc 056d 8dbe
000000a0: 2bc1 66be 0b79 f2bd d787 a7bd 0dd0 63be
000000b0: 2510 53bc b80a 00bf 609f 74be 4601 90bd
000000c0: 1909 503e feee c93e 3145 5a3d c02d 5b3e
000000d0: 2fe4 053f 474d 8abe 6578 23be 7de9 7f3e
000000e0: 8d12 953d 3549 56be 3cef bcbe 653b 9e3e
000000f0: 6263 a5bb 7199 8d3d 466b 343d 9588 97be
00000100: 5171 a7bd f52e 02bf 9dcb 21bf ee59 663e
00000110: 4165 28bf 2478 dfbe 58b7 9a3c 345c 133e
00000120: 3c0a ac3e 2b47 2d3c 0db4 8f3e 053f b33b
00000130: e61c 18bf 9452 cd3e 102b 7a3e 86de c2bd
00000140: a1c0 a03e
0.46340135 -0.2837528 -0.10233598 -0.15291773 0.39387816 0.21967684 -0.14374872 -0.23724602
0.6329715 -0.045371473 -0.025066614 0.0112042 0.2963213 0.5165886 0.19863173 -0.25334314
-0.20968737 -0.102397 -0.0010619436 -0.25363177 -0.055170946 0.19686392 0.4493611 0.39073256
-0.011435117 -0.173227 -0.16234915 0.19374439 0.1285276 -0.10944525 0.49969807 0.014695404
-0.12472116 0.011269657 -0.3929916 0.42772913 -0.036666736 -0.23275977 -0.024926445 -0.27622238
-0.22534625 -0.11839493 -0.08180206 -0.22247334 -0.012882267 -0.50016356 -0.23888922 -0.07031493
0.2031597 0.3944015 0.053288642 0.21404171 0.52301306 -0.27012083 -0.15963896 0.24991412
0.07278929 -0.20926364 -0.3690127 0.3090469 -0.0050472477 0.06914032 0.044047616 -0.2959639
-0.0817591 -0.508529 -0.63201314 0.22495243 -0.657795 -0.43646348 0.018886253 0.14390641
0.33601558 0.01057605 0.28067055 0.005470159 -0.59419096 0.40102065 0.2443049 -0.09515099
0.31396964

resblocks.0.conv1.depthwise.bias f4 [9]
00000000: 8e0e 063d 0401 8ebe 593b 743e 98b5 a23e
00000010: c607 1cbf c05a 07bf b937 8cbe f60c cd3e
00000020: 631a aabb
0.032728724 -0.2773515 0.23850764 0.3177917 -0.6094936 -0.5287285 -0.27386263 0.4004895
-0.005191134

resblocks.0.conv1.pointwise.weight f4 [9, 9, 1, 1]
00000000: 5d52 2abe d00a e6bc 7038 e13d 8379 063d
00000010: 2ee3 27bd 162d 9abf 8172 9abd f743 4abc
00000020: ee06 92bd 23a7 58be 359c e9be 5a74 f4bb
00000030: fc37 fb3d 0ac7 fc3e 684e 3bbe 38ce 8fbe
00000040: 1622 d2bc 1e17 773e afac 3b3e 2a9f 883c
00000050: d3ba 903e 6376 5f3e 6359 913d afa3 0bbf
00000060: 1d9a aa3d d3bf 2cbe 8c83 26bf 9c5c 5a3f
00000070: 0923 0c3b 8580 b2bd dd71 89be 043d 9b3c
00000080: 226f 82be 76df 3f3d 4d15 b53e 554e c1b9
00000090: bf3c 01be 5ae4 aabc 9334 b73d 1b23 18be
000000a0: df30 d83c b2ea 583d 553c a4bd db2a 70bf
000000b0: 01c3 4e3e 7a39 a7bd 7154 41bd 6bce c8bb
000000c0: 4b35 403e c192 febd 2104 e03c 733b ab3d
000000d0: b652 59be a775 0ebf a75b 4d3d d300 25bd
000000e0: 79b6 a03e 6618 003d 884f 8abe 61ff f13c
000000f0: 0d2d 373d a639 95be 02cf 2e3f cd8d 5a3e
00000100: 7dd2 883e d41c b43d 0860 7abe af99 953e
00000110: 5013 c5be 29f1 b4bd f5ac 07bd adb4 0abf
00000120: deab a63e 8de3 9dbe f52f 643e 8a0a f73e
00000130: c50d 173e 5ee7 a33e 872d 873c a33a 313e
00000140: a9d3 b23d
-0.16632982 -0.028081328 0.10997093 0.032830726 -0.04098814 -1.2045009 -0.07541371 -0.012345306
-0.07130228 -0.21157508 -0.4562699 -0.0074601592 0.122665375 0.49370605 -0.18291628 -0.2808702
-0.025651019 0.24129912 0.18327592 0.016677458 0.28267536 0.21822505 0.07097127 -0.54546636
0.08330176 -0.1687005 -0.65044475 0.8529756 0.0021383187 -0.087159194 -0.26844683 0.018949993
-0.25475413 0.04684397 0.35367814 -0.0003687019 -0.12620829 -0.02086084 0.089455746 -0.14857142
0.026390491 0.052958198 -0.0801932 -0.9381539 0.20191576 -0.0816526 -0.04719967 -0.0061281226
0.1877033 -0.12430335 0.027345719 0.083609484 -0.21222958 -0.55648273 0.050136235 -0.04028399
0.31389216 0.03127327 -0.27013803 0.02954072 0.0447207 -0.29145545 0.6828462 0.21343155
0.2672309 0.08794561 -0.24450696 0.29218814 -0.38491297 -0.0883506 -0.03312393 -0.5418194
0.32553 -0.3083767 0.22283919 0.48250228 0.14751346 0.32012457 0.016501201 0.17307524
0.08731777

resblocks.0.conv1.pointwise.bias f4 [9]
00000000: 0587 ba3e d26f ad3e ee86 88be 11e4 793e
00000010: 7274 f23d 4347 fe3d b4b2 c73e 1b1b 123e
00000020: feed bd3e
0.36431137 0.33874375 -0.26665443 0.24403407 0.118386164 0.12415936 0.39003527 0.14268152
0.37095636

resblocks.0.in1.weight f4 [9]
00000000: 7f47 863f c85b ab3e 9498 573f 39d1 5c3f
00000010: 3a67 583f b6c7 b33e 0333 6b3f 697f 833f
00000020: 16f7 6c3f
1.0490569 0.3346846 0.8421719 0.8625675 0.8453251 0.35113305 0.9187471 1.0273257
0.92564523

resblocks.0.in1.bias f4 [9]
00000000: 0b65 633d c33d 2640 e23c c83d cd73 8e3e
00000010: 17ca b03e 2058 1340 a355 623f e4a8 98be
00000020: 5f16 3d3b
0.055516284 2.5975196 0.097772375 0.27822724 0.34529182 2.3022537 0.8841192 -0.29816353
0.0028852446

resblocks.0.conv2.depthwise.weight f4 [9, 1, 3, 3]
00000000: 009d 45bd edc2 3ebe 4760 1ebe 3842 b2be
00000010: a3ac efbe 52d5 92be 2ac7 a2bd 1721 133d
00000020: a68f 29be 7666 173e 137c f2bd 9bb9 223e
00000030: 850a 943e df4c 543f 0d5c c6bb 329e fa3d
00000040: 3bd5 80be dbbf f53e 421a abbe 915f c7bd
00000050: 15a2 27be 9639 06be 41b8 203e 3405 abbe
00000060: 39b2 c83b 302f a6bc 6a3f a7bd d0a1 c53e
00000070: 72b7 eabd dda6 1c3d 07e9 693e 4c98 0c3e
00000080: d5c1 b2bd 0e3b 4a3d 7510 8e3b 6225 043f
00000090: e072 ab3c d24c adbd 34e4 df3e 5f78 0c3f
000000a0: a2a7 403e 8e74 0e3d 0909 063d 0882 8f3d
000000b0: 39d0 26bd d27e a9bd 38ec a13e 8e12 8f3b
000000c0: 0fc8 51be 6d1c 193f 5678 8d3e a43b 1cbe
000000d0: ffd0 51be 558a 07bf 1696 c83e 7a8b 493e
000000e0: 37c8 ef3d 8102 70be 9cb7 71be 4138 b53d
000000f0: 75bc b23e 5f5a ec3e ea8b a03e d358 933e
00000100: caaa 873e 3129 833e 3a96 abbd a462 24be
00000110: 71b8 25be c1f1 a73e baf4 fc3d 02ac df3e
00000120: a24f cfbe 0624 623e 341f 0dbe 0a5e c5bd
00000130: 6c54 c1bd 86bb c1be 5e94 efbd 7e6d d33d
00000140: 6a80 52be
-0.04824543 -0.18629046 -0.15466414 -0.34816146 -0.468114 -0.28678375 -0.07948144 0.03592023
-0.16558704 0.1478518 -0.118400715 0.15891115 0.28914276 0.82929796 -0.006053454 0.122372046
-0.25162682 0.47997937 -0.3341847 -0.09735025 -0.16370423 -0.13107905 0.15695287 -0.33402407
0.0061247614 -0.020286173 -0.08166392 0.38600016 -0.11460771 0.03824507 0.22842799 0.13729972
-0.08728377 0.049372725 0.004335458 0.5161954 0.0209288 -0.08461918 0.43728793 0.5487117
0.18813947 0.034779124 0.03272346 0.07007223 -0.04072592 -0.08276142 0.31625533 0.0043662256
-0.20486473 0.59809 0.27630872 -0.15257126 -0.20489882 -0.5294545 0.39177006 0.19682112
0.1170811 -0.23438455 -0.23605198 0.0884862 0.34909406 0.46162698 0.31356746 0.28778705
0.2649749 0.25617364 -0.08378263 -0.16053253 -0.1618364 0.3280163 0.123513654 0.4368592
-0.40490443 0.22084054 -0.13781434 -0.09637077 -0.0943993 -0.37838382 -0.11698221 0.10323618
-0.20556799

resblocks.0.conv2.depthwise.bias f4 [9]
00000000: 0313 653d 2909 053e e5c2 67bd 557e 0fbd
00000010: 802c 023e 0ae9 ee3d d4b4 2abe 1a50 5cbe
00000020: 403f bc3e
0.055926334 0.12991776 -0.05658235 -0.03503259 0.12712288 0.116655424 -0.16670543 -0.21514931
0.36767006

resblocks.0.conv2.pointwise.weight f4 [9, 9, 1, 1]
00000000: 53db 9cbe 07bb 933e 38ea 833e 581d 46bd
00000010: b6b9 a13e 8cde fe3d 9e90 4bbe 88ea ef3d
00000020: 1feb eabe 2cfc 80be 85b7 f9be 189b 41be
00000030: fda5 38bc 6cd9 5d3d e521 783e cff1 903e
00000040: bc23 41be b5b0 703d 3dc8 bf3e 13c5 96be
00000050: 5929 78bd 503a e93b e6d9 dcbd 4fd4 263d
00000060: dd44 f7be 3162 263e 734b 81bc 8497 f73c
00000070: 336c a3be 0d22 0a3e abed 7a3e e17a 1a3e
00000080: 8763 d1be d001 98bc 9b71 543e 7a99 12bf
00000090: 4757 24bf a8eb c13d a129 d7bd e488 453d
000000a0: 6a94 69be 6a60 f53c 4cb9 023f 43a7 a3be
000000b0: 7d51 583d c913 aebe 6ff4 b1be 5d87 9b3e
000000c0: f9b0 04bf d099 e8bc 7c24 60be 0ddf acbb
000000d0: c083 aa3e e632 8cbd 862e 78be 69b6 203f
000000e0: 3b2f 5d3e 3da3 f2bd acdc 3f3e 74a3 ec3e
000000f0: 1c21 cabd 279f f43d b55d febc 7d1f 15be
00000100: e708 90bc 37d6 663e dc26 02be 6757 f03e
00000110: e481 2e3f 5907 06be 91c7 1f3d 608b 87bc
00000120: 5f33 a7bc 1a94 4fbe c1a1 9bbe 598f 6fbd
00000130: 8f68 e7bd e290 7dbe 76b8 91be 0193 e73e
00000140: 58f7 1a3e
-0.3063608 0.28853628 0.25764632 -0.048367828 0.31587 0.12444791 -0.19879386 0.11714655
-0.45882508 -0.25192392 -0.48772827 -0.1890682 -0.011270043 0.054162428 0.2423168 0.28309485
-0.18861288 0.05876227 0.37457457 -0.2944723 -0.060586307 0.007117547 -0.10783748 0.040729817
-0.48294726 0.16248395 -0.015783047 0.030223615 -0.31918487 0.13489552 0.24504726 0.15085937
-0.40896246 -0.018555552 0.20746462 -0.57265437 -0.64195675 0.09468776 -0.10505987 0.048226252
-0.22810522 0.0299532 0.5106399 -0.31963548 0.05281209 -0.3399947 -0.347568 0.3037671
-0.5183254 -0.028393656 -0.21888918 -0.005275613 0.33303642 -0.068456456 -0.24236497 0.62778336
0.21600048 -0.118475415 0.18736523 0.46218455 -0.09869596 0.119444184 -0.031050542 -0.14562793
-0.01758237 0.22542654 -0.12710136 0.46941683 0.6816695 -0.1308874 0.03900868 -0.016545951
-0.020410238 -0.2027134 -0.30396846 -0.058486316 -0.1129924 -0.247623 -0.28461045 0.45229343
0.15133417

resblocks.0.conv2.pointwise.bias f4 [9]
00000000: 22c8 d8be aefb 3e3e 82b3 dd3d d3b1 febd
00000010: 173d 943d 5b65 17be 1593 09bd f9c5 153e
00000020: 8c20 12be
-0.4234019 0.18650696 0.10825254 -0.12436261 0.072382145 -0.14784758 -0.033587534 0.14626302
-0.14270228

resblocks.0.in2.weight f4 [9]
00000000: 1ee5 b33e 991c 453e 19ac da3e a529 163f
00000010: a49e 803e 733b c63e 3637 de3e 26f5 273f
00000020: 6780 003f
0.3513574 0.1924919 0.42709425 0.58657295 0.25121033 0.3871723 0.43401498 0.6560844
0.50195926

resblocks.0.in2.bias f4 [9]
00000000: aea4 0e3f d410 823e 90b6 2d3f 99a8 5cbf
00000010: cfaf 0440 5906 c13e 346f 443f 4e84 8c3f
00000020: ca8a 0ebf
0.5572003 0.25403464 0.67856693 -0.8619476 2.0732305 0.37700155 0.7673218 1.0977876
-0.55680525

resblocks.1.conv1.depthwise.weight f4 [9, 1, 3, 3]
00000000: db52 9abe c7af 3bbe 1c3b 8cbd 4baa 7bbe
00000010: b604 03bf cd8a 0bbe d23e 08be 5fb9 a0be
00000020: 5dbf 84be 77a0 933d 7ffa ed3d 5202 a23d
00000030: b49a 053e bade 8d3e 6909 62bc a244 943d
00000040: 7ff7 4f3f 925b 96bd bbbb 003e 9fea 483e
00000050: 1764 c43c cf73 cfbe 591b 8cbe 9076 05be
00000060: 96d4 ccbd 4837 cfbc 77b1 94bc 4263 42be
00000070: de01 bcbd e660 c73c d5ba 9e3e 91fc 56be
00000080: b293 82bd 4cdb 5b3e 7d25 523e e9d2 2abd
00000090: b864 573d 859a f63d 786f b93c d194 05bf
000000a0: b7e3 fcbd 602d 383d 255e 80be 41a7 4ebc
000000b0: 047b d5bd 4fe3 0abe c1ad 293e 73f6 e23c
000000c0: b686 1b3f 062b 0fbe 33fb b63e b53d 15bd
000000d0: a47a 3a3f ebd7 4ebd 159e 01bd cfde a6bd
000000e0: b2e2 1a3d dbc9 4fbe b45d aa3e e388 e0bd
000000f0: 23a1 8c3e 2b94 a53e 845f 553c bc74 59bd
00000100: 927c 93bc 8ed4 793e 8975 943e 7742 fa3d
00000110: d4eb 653e 19f8 a33e b446 e13e e6bc 803c
00000120: b381 22bf f710 f6bd 14eb d0be 30f5 10bf
00000130: e808 fbbe 2c1f 32bd 5d75 b3be 7610 6ebe
00000140: 1200 a4be
-0.3014134 -0.18328772 -0.06847212 -0.2457668 -0.51179063 -0.13627167 -0.13305214 -0.31391427
-0.2592725 0.072083406 0.11620044 0.07910599 0.13047296 0.2770899 -0.013796189 0.07239653
0.81237024 -0.073416844 0.12571613 0.19620751 0.023973508 -0.40518042 -0.27364615 -0.13033509
-0.10001485 -0.025294915 -0.018151028 -0.18983176 -0.09180044 0.024338197 0.31001917 -0.20994784
-0.06375827 0.21470374 0.20522113 -0.041705046 0.052586287 0.12041191 0.02263616 -0.521802
-0.12348121 0.044965148 -0.25071827 -0.012613119 -0.10423854 -0.13563274 0.16570188 0.027705407
0.6075243 -0.13981256 0.35738525 -0.0364358 0.72843385 -0.050498884 -0.0316449 -0.08147966
0.03781385 -0.20291846 0.33274615 -0.10963609 0.27466688 0.32339606 0.013023261 -0.053089842
-0.018003736 0.2439749 0.28995922 0.122197084 0.22453243 0.3202522 0.43999255 0.015715074
-0.63479155 -0.120149545 -0.4080435 -0.56624126 -0.49030232 -0.04348676 -0.3505048 -0.23248467
-0.32031304

resblocks.1.conv1.depthwise.bias f4 [9]
00000000: 2afe 0bbf e4f7 e1bd 030f 933d 0a51 973e
00000010: 97e5 713e e0a0 01be 610b 3cbc fbbe 493e
00000020: d221 9abc
-0.546847 -0.110336095 0.07180598 0.29554015 0.23622738 -0.12659025 -0.011477322 0.1970176
-0.018814955

resblocks.1.conv1.pointwise.weight f4 [9, 9, 1, 1]
00000000: 8326 f2be 40ac debc bfcd 673e ca18 a7bd
00000010: e054 223e e61d fe3c 5b24 fa3b f345 903d
00000020: 54ad b3be 37ea 093e 611b 993d 8ced 9cbe
00000030: e8e9 62bd 59e1 ac3d 4c2e 0b3e 9fff b23e
00000040: bab8 053d 706e 183f 6e4f f13e a4dd 66be
00000050: b01c a03e 5b2d 403d 636f bd3e 0d35 46be
00000060: 92f5 fbbd 51e1 b03d ef1e aebd 3110 2ebe
00000070: c6a3 dcbd 1bb0 4b3c 6b1a 51bb d1b6 8cbe
00000080: d62f 0dbf a4b0 9eba 4951 abbe 4931 e73e
00000090: edad 013f 83bb e7bc 518a aebd 3446 1c3e
000000a0: 8a33 553b 0866 49bf c022 f53b 1dfa d3bd
000000b0: 581b 72be 4ef7 8f3e 972e 26be b456 2fbe
000000c0: e8c1 f7bd f126 f2be 0bc4 c23d 76b2 6dbe
000000d0: f54f 5c3e ade9 953e 75f9 003e 4fb0 883d
000000e0: 7d13 bd3d a06c bd3e 3561 a1bb 9def 4e3e
000000f0: 9cf4 ca3d 49b4 213f 59a2 b5bc 27fa 4ebe
00000100: cfc3 8a3f 7fd6 723e 88d9 8ebd d5a7 ffbd
00000110: 153a 90bd acb8 c73b 3c34 05bc 5e03 3b3e
00000120: 69f4 113c c185 47bc 2e7c f9be 4ecc 8e3d
00000130: 543d c3be 6b88 58bc 1674 91bc 981e 8c3d
00000140: 7d94 e0be
-0.47295007 -0.027181745 0.2263708 -0.08159025 0.1585269 0.031020116 0.0076337284 0.07044592
-0.35093176 0.13468252 0.07475925 -0.30649984 -0.05539885 0.08441419 0.1359188 0.34960648
0.032646872 0.59543514 0.47130913 -0.22545487 0.31271887 0.046918254 0.36999044 -0.19356175
-0.12302698 0.08636726 -0.08501994 -0.16998364 -0.10773425 0.012432124 -0.0031906615 -0.27483228
-0.55151117 -0.0012107086 -0.33460453 0.4515479 0.50656015 -0.028287655 -0.085224755 0.15261155
0.003253194 -0.7867131 0.007480949 -0.1035044 -0.23643243 0.28118366 -0.1622871 -0.17122918
-0.120975316 -0.47295335 0.095100485 -0.23212609 0.21514876 0.29279843 0.1259516 0.06674253
0.09232233 0.36996937 -0.004924918 0.20208593 0.09909937 0.6316572 -0.02217214 -0.20212613
1.0841006 0.23714636 -0.069750845 -0.12483183 -0.07042328 0.0060950126 -0.008130129 0.18263003
0.00890837 -0.0121778855 -0.48727554 0.06972562 -0.38132727 -0.013216118 -0.01775555 0.06841773
-0.43863288

resblocks.1.conv1.pointwise.bias f4 [9]
00000000: e7f2 fe3d aeef b03e 1dde 5f3e d2ab 0c3e
00000010: d524 0c3d 8cf2 67bc 60ac 353e 0be1 2ebe
00000020: b3a3 243e
0.12448674 0.3455786 0.21862073 0.13737419 0.034214813 -0.014156949 0.17741537 -0.17078035
0.16078071

resblocks.1.in1.weight f4 [9]
00000000: e4d7 253f bc4d 293f 6429 713f 7ddb c33e
00000010: 0960 7d3f 52e1 0a3f f380 493f 38d5 123f
00000020: 72c9 1c3f
0.6478255 0.6613424 0.9420378 0.38253394 0.98974663 0.5425006 0.78712386 0.57356596
0.6124488

resblocks.1.in1.bias f4 [9]
00000000: f525 f03f 1c7b 753f 9f73 52bf 9519 9a3f
00000010: a954 1bbf 528f af3f 59f9 2c3f 8bb0 f03f
00000020: ece0 a93f
1.8761584 0.95890975 -0.82207674 1.2039057 -0.60676056 1.3715613 0.67567974 1.8803877
1.3271766

resblocks.1.conv2.depthwise.weight f4 [9, 1, 3, 3]
00000000: df3f 36be c1f9 09be 000f 06be 0668 7cbe
00000010: c78b de3e e166 b5be 6112 c9be 74de 803e
00000020: 5cfc 6bbe a1dd fdbd 53ea 843e 7de2 063c
00000030: a204 1bbe 266c 163f 256e 803e 2195 eebc
00000040: 4c0f 603e df63 9a3e a771 473e c9a9 09bf
00000050: a822 2bbe 7f28 ee3d b7ed 1b3d 4103 d73e
00000060: 1edb 5cbe 0efb 96bd 6ee0 85be 3116 ba3e
00000070: 185e b23e 7ff9 973e 9473 b33e 8c80 38be
00000080: 4410 2a3e 68c3 91bd 7cb3 d7bc 34b4 d83c
00000090: 266c c73e dac9 e1be e4a8 f33e 794e 8dbe
000000a0: f6b0 943e f61a e0be 837e 9f3e b8f8 98be
000000b0: 8cbc cd3e 6e9b 5d3e 5dcf 183e 14d8 d33e
000000c0: 6011 bf3d 5454 2e3e 16f9 843e d4a3 5d3e
000000d0: 6e01 cb3d ae82 7e3e 5a7e 5f3d b342 fc3c
000000e0: f7b2 963d 248e f73c a357 e8bd 4f71 033f
000000f0: 9f1f 7a3e 9510 fbbd b02b 05be b2f8 92bc
00000100: e31e 34bf 4151 9a3d 23d6 a4bb 0535 34bb
00000110: 9c9d 983d 0fcd b1bd bf29 babd 9ee1 f9bd
00000120: d0ff 533e 6a53 733e dc0b 323c addd 843e
00000130: 2d85 97be 140a c8be 7d57 d83e b715 5a3e
00000140: 1e56 853e
-0.17797802 -0.1347418 -0.1309166 -0.24649057 0.43466017 -0.35430053 -0.39271834 0.25169718
-0.23045486 -0.12395788 0.25960025 0.00823271 -0.15138486 0.5875877 0.25084034 -0.029123845
0.21880835 0.3015432 0.19476949 -0.53774697 -0.16712439 0.11628818 0.0380685 0.4199467
-0.21567962 -0.07372104 -0.2614779 0.36345056 0.34837413 0.29682538 0.35049117 -0.18017787
0.16607767 -0.07117349 -0.026330702 0.026453115 0.38949698 -0.44099313 0.4758979 -0.27598932
0.2904126 -0.4377057 0.31151208 -0.29877257 0.40182912 0.21641323 0.14922853 0.41375792
0.09329486 0.17024356 0.25971287 0.21644527 0.09912382 0.24854538 0.054563858 0.030793523
0.073583536 0.030219145 -0.113448404 0.5134477 0.24426125 -0.12259022 -0.13004947 -0.017940853
-0.7035963 0.07535029 -0.00503041 -0.0027497422 0.074519366 -0.0868169 -0.09089994 -0.12201236
0.20703053 0.23762289 0.010867085 0.25950375 -0.29593793 -0.3907019 0.42254248 0.21297346
0.26042265

resblocks.1.conv2.depthwise.bias f4 [9]
00000000: d6fd 7bbe 135b ce3e 3e05 b63e d013 80be
00000010: 8846 1fbd 98da a1bc 8f17 c73c c60b f0bd
00000020: 36d3 133e
-0.2460855 0.4030386 0.35550874 -0.25015116 -0.038885623 -0.019757554 0.024303226 -0.117209956
0.1443604

resblocks.1.conv2.pointwise.weight f4 [9, 9, 1, 1]
00000000: 2e99 ee3d 259c d13e 3125 63be f5a7 a83e
00000010: aa85 00be ed92 f43e 8819 1abe 5a06 c43d
00000020: 500f 03bc 61fe 0f3e e42a 913c 5336 4ebf
00000030: 9077 30be 76d1 803e 97e7 aebd cf39 e93d
00000040: f89a 5cbf 06a2 813e 1d30 7a3d 9667 9f3e
00000050: 6609 093f 323c b4be 6a49 bc3d f8d7 6e3e
00000060: 3134 3dbd 5bf1 2cbf 345d 1cbe 1e62 6b3e
00000070: 4d3f 8cbe 74c9 a23d e357 043e c071 523e
00000080: 3699 72be 25f4 d5be f1fb 72be 6935 953c
00000090: 6326 a63e d3e9 c6be 2cf8 94be d6a7 3b3e
000000a0: fa71 863d 352e d4bd 4960 983c d906 523e
000000b0: e0a8 6abe b117 ba3e 0cff 8bbe eaaf d53e
000000c0: e0a4 d53e 79ff 8cbe 0c51 183c c415 ab3e
000000d0: 6dec 85bc 66f0 77be 6322 9f3e e4ff 97bd
000000e0: 0177 233e ea71 873e 7470 6b3d 4c82 823e
000000f0: b26e a3bd ab3b 96be 67e6 44bf 1e69 9d3e
00000100: 48f8 8dbe 6bae 803e b87d 413e 805d dfbb
00000110: 7eb2 953e 6a3b 6dbe 42f2 293d 044a a4be
00000120: 1bd1 433e 544d 0a3e dc42 4e3d 56a3 353d
00000130: 8641 79bf 1835 aabd f32a 9b3c 7e5f 06be
00000140: 61cd f63c
0.116503105 0.4093944 -0.22182156 0.3294064 -0.12550989 0.47768345 -0.15048802 0.09571524
-0.007999256 0.14061882 0.017720647 -0.8055164 -0.1723311 0.25159806 -0.08540266 0.11387979
-0.86173964 0.25318927 0.06108104 0.31133717 0.53529966 -0.35202175 0.0919369 0.23324573
-0.04619235 -0.6755578 -0.15269929 0.22986647 -0.27392045 0.079485804 0.12924151 0.20551205
-0.23691258 -0.4178783 -0.2372892 0.018213945 0.32451162 -0.3885027 -0.2909559 0.18325743
0.06564708 -0.10360376 0.0186006 0.20510425 -0.22915983 0.363462 -0.27343023 0.41735774
0.41727352 -0.2753866 0.009296667 0.33415043 -0.016348088 -0.24212798 0.31080922 -0.07421854
0.15963365 0.26454097 0.05748029 0.25490034 -0.07980098 -0.29342398 -0.76914066 0.3074426
-0.27728486 0.2513307 0.18895614 -0.006816566 0.2923774 -0.23167196 0.0414908 -0.3208772
0.19122736 0.13506061 0.05035673 0.044345222 -0.97365606 -0.08310908 0.018941378 -0.13122365
0.03012723

resblocks.1.conv2.pointwise.bias f4 [9]
00000000: 99d2 9f3c b1c4 6d3e 859c 473e f796 e7be
00000010: 4bdf 7e3e 080a 433e e54d 66be dfe8 c0be
00000020: 5b29 b33a
0.0195096 0.23219563 0.19493301 -0.45232365 0.24889867 0.19046795 -0.22490652 -0.37677667
0.0013668941

resblocks.1.in2.weight f4 [9]
00000000: 0861 933f db43 173e 0829 453f a6b4 043f
00000010: 1f13 c33e 5d0c 8c3f 570c 873f 33af 973f
00000020: 0b88 583f
1.1513987 0.14771979 0.77015734 0.5183815 0.38100526 1.0941273 1.0550641 1.1850342
0.84582585

resblocks.1.in2.bias f4 [9]
00000000: 2531 4440 3b2c 0d3d 691b f23e 7e1e 103e
00000010: d1be f23f 5d26 0240 76ae e93e e902 3540
00000020: 9dae 4cbe
3.0654995 0.03446601 0.47286537 0.14074132 1.8964483 2.0335915 0.45640916 2.8283026
-0.19988485

resblocks.2.conv1.depthwise.weight f4 [9, 1, 3, 3]
00000000: 35e8 58be bed6 293e 7a3b 603e 23b8 23be
00000010: 2949 18bf 97ec 393e 4d10 433d 19f8 c5bd
00000020: f315 b03e 2202 92be 17ac f6bd 32de 30be
00000030: e206 0bbe b8cd 2dbf 852a 63be 119b e9bd
00000040: ece2 11be 1142 abbd adab ecbc 1e3e ab3d
00000050: 497f 43bd a99f 2a3f 6b34 173f 9ac8 a03c
00000060: 5a40 fe3d 959c be3d 9633 91bc 627f 853d
00000070: d353 d33d c196 1e3e 74c9 1a3f 1467 3c3e
00000080: 21b4 ad3e a385 de3d 2b9d f03c 8a2b de3d
00000090: 60db f1bc 99e5 bfbc f5ac 22be e693 ecbe
000000a0: dfd7 cbbe 0f6f 6abe 18f0 92be d11f b23d
000000b0: 9d7e c1bd de1f 6b3e 64a2 573e 0dd9 bf3e
000000c0: df35 c13e 3a2b 18be b2b6 0d3e 137e 2abb
000000d0: 205a ce3b 1ac2 cebc bf31 6ebe 3d5c 323f
000000e0: 0528 e33c 7e8b 01bd 3359 a53d 6b46 103e
000000f0: 0e58 f0bd eced 3dbd a184 cabd 52b8 47be
00000100: f0f1 a9be 9d89 fdbe e8d3 0cbe 5db0 e3bb
00000110: 025b 4abe c51f d83d 1020 c23d 06c0 03be
00000120: a347 00bf 864b be3e 8711 9d3e d72d 03be
00000130: 7f9d f1bd 724c dbbd e3f8 5d3e 1d68 8fbd
00000140: 5539 15bf
-0.2118233 0.16585824 0.21897689 -0.15988211 -0.59486634 0.18156658 0.047622968 -0.096664615
0.34391746 -0.28517252 -0.12044542 -0.17272261 -0.13576844 -0.67892027 -0.22184189 -0.1140653
-0.1424672 -0.083622105 -0.028890455 0.08361457 -0.04772881 0.6664987 0.5906436 0.019626904
0.12414618 0.093072094 -0.017724793 0.06518437 0.103187226 0.15487196 0.60463643 0.18398696
0.3392649 0.10865333 0.029371819 0.10848148 -0.029523551 -0.02342491 -0.1588629 -0.46206588
-0.39813134 -0.22893928 -0.28698802 0.08697475 -0.09447978 0.22961375 0.21058041 0.37470284
0.37736413 -0.1486024 0.13839224 -0.0026015087 0.006297365 -0.02523904 -0.23261164 0.69671994
0.027729044 -0.03162717 0.08073654 0.14089362 -0.11735545 -0.046369478 -0.09888578 -0.19503906
-0.33192396 -0.49519053 -0.13752711 -0.0069485144 -0.19761279 0.105529346 0.09478772 -0.1286622
-0.5010931 0.37166995 0.30677435 -0.12810455 -0.11797618 -0.1070794 0.21676974 -0.0700228
-0.58290607

resblocks.2.conv1.depthwise.bias f4 [9]
00000000: 0565 80be eaa0 97be 68e4 243e 3ab8 8b3e
00000010: 86ed 073f cc11 25be 1750 92bd a00b 09be
00000020: 50c8 8dbe
-0.25077072 -0.29614955 0.16102755 0.2728899 0.53096807 -0.1612007 -0.07144182 -0.13383341
-0.2769189

resblocks.2.conv1.pointwise.weight f4 [9, 9, 1, 1]
00000000: 33cd 6abe cad6 f13e b4cc 8c3e ae33 9c3e
00000010: 948a 983d 537e 96be 47af 04be 7763 24be
00000020: 0f0f a0bd f7f5 453e 84c3 933d 5322 40bc
00000030: c700 08bf d9cb 2cbc 7727 263f c5f4 b63c
00000040: fa84 df3e f038 53be 8a24 62be 1d35 333e
00000050: 043b 253e b17c 89bd 492e 14bf 5ff8 7bbe
00000060: 597d c6be 0724 0d3e 0b0b 1f3c 35fd cdbe
00000070: 9a78 48bd cdf5 703d 8e23 a0bd 9f19 c0be
00000080: b0f7 8ebe fe2e 623f 1bd0 15be c4b6 74be
00000090: 0067 cdbd 7c69 973e 0ad6 77bd 2044 ea3d
000000a0: 5b89 fb3c 6cb5 15be adea 14be c49b d7bd
000000b0: 46ca 75bf b11e c33e 977c 0f3f 9c98 0b3f
000000c0: 4981 653e 5fa5 fdbd bd0e 443d 2754 1f3c
000000d0: fdbc ad3e 9670 4ebd e8cd 033e eb2b 5bbe
000000e0: 743c 4bbe e672 b5ba b67f 163e 04e6 0a3f
000000f0: ecbc b2bd 431e 69be 1694 433d 7a8a d4be
00000100: 8366 e73d 2577 8dbd 09f5 1f3f ebb8 d33b
00000110: 31df a5be 9343 543d fc8b 75be b6ad a63e
00000120: 18d5 763e 4f5c 08be 70d1 323e f8e8 a63e
00000130: f97d b93d 4a0e 313e f134 16be 8cee 09be
00000140: 18c8 d3be
-0.2292984 0.47234184 0.27499926 0.30508178 0.07448307 -0.29393253 -0.12957488 -0.16053568
-0.07815372 0.1933211 0.07215026 -0.0117269335 -0.53126186 -0.010546648 0.6490397 0.022333512
0.4365614 -0.20627189 -0.22084251 0.1750073 0.16135794 -0.06713236 -0.57883126 -0.24606465
-0.38767508 0.13783275 0.009707223 -0.40232244 -0.04894314 0.058828164 -0.078192815 -0.37519547
-0.27923346 0.88352954 -0.14630167 -0.23897845 -0.10029411 0.29572666 -0.060506858 0.11438775
0.030705145 -0.14619988 -0.14542647 -0.10527757 -0.9601177 0.38109353 0.56049484 0.5452974
0.224126 -0.12385058 0.047865618 0.009724653 0.3393325 -0.05040034 0.12871516 -0.21403472
-0.1984728 -0.0013843447 0.14697155 0.54257226 -0.0872744 -0.2276545 0.047748648 -0.415119
0.112988494 -0.06907491 0.6248327 0.006461253 -0.32396844 0.051822256 -0.23979181 0.32554406
0.24104726 -0.13316463 0.17462707 0.32599616 0.090572305 0.17290607 -0.14668633 -0.13469905
-0.41363597

resblocks.2.conv1.pointwise.bias f4 [9]
00000000: 2430 e13c 9082 51be c99a 10bf 1af0 1dbe
00000010: 355f 8abd 7ce3 b0be c265 8cbe b0b7 78be
00000020: 6314 f43e
0.027488776 -0.20459962 -0.56486183 -0.15423623 -0.067564406 -0.34548557 -0.27421385 -0.24288821
0.47671804

resblocks.2.in1.weight f4 [9]
00000000: a1ea 1c3f fb2d a43f 0c21 0b3f 5065 f93e
00000010: 7d96 3d3f 3c3e 063f f955 c73e 7821 403f
00000020: 1a7a 063f
0.61295515 1.2826532 0.543473 0.48710108 0.7405775 0.5243871 0.3893278 0.7505107
0.5253006

resblocks.2.in1.bias f4 [9]
00000000: 4fc8 5e3f ba8e 6dbd da33 913f 42a7 9f3f
00000010: ea9b 93bf 7114 9b3f 2f37 ab3f 0aac 093d
00000020: 4989 523f
0.87024397 -0.057997443 1.1343949 1.2472918 -1.1531956 1.2115613 1.3376216 0.033611335
0.8224073

resblocks.2.conv2.depthwise.weight f4 [9, 1, 3, 3]
00000000: e32b 9abc 586b 9c3e fc4d d43d 1b87 8d3e
00000010: 1fdf 963d 9e3c b0be 0e8c 053e d255 0b3e
00000020: 76b1 6e3e 2fbd 81be 9f36 82be 25dd c73e
00000030: 11a7 8c3e 0506 7fbe 4b5d f13e f183 023f
00000040: a1b8 61be 6140 acbd cb11 bc3d 9d1c 923e
00000050: 1b92 e03d a9dc 38bc 7b7f c7be 9f78 063d
00000060: 4689 b9be b3dd 37bd cc09 5f3d 4927 65bb
00000070: 8c96 aebd 243d 6a3d c666 66be 88d9 c1be
00000080: 5592 15be 06cf dabe 7c05 13be 3591 5abe
00000090: 97af 08bf 2237 2a3e b295 a8bb 9e9f 64be
000000a0: 65a7 8abe 75b8 01bd 2a5a 69bd 33ec 1abb
000000b0: b1c1 0fbf ed20 1c3d d655 873e abc9 2dbd
000000c0: e0c7 d3bb 691c 4abd f142 243d a990 45be
000000d0: 9c75 f23e 5fca d93e 5915 eebe 82db d2be
000000e0: 61f1 43be b28b 81be 54f1 c93e 90da 0cbe
000000f0: 8cde e5be fcde d2be 47c2 8dbd 7fce 1ebe
00000100: af97 cc3d a5a1 113d a90b 09be 168d 87be
00000110: d166 14bb f532 a1ba ab65 8e3d 986b adbe
00000120: 81c9 b73d d4f6 5ebd 930b 7a3d daf6 9e3e
00000130: c0e7 893e 0461 0b3e ca2f 673e d181 6e3d
00000140: bcf3 a43e
-0.018819755 0.30550647 0.10366437 0.2764214 0.07366776 -0.34421247 0.13041708 0.13606957
0.23309883 -0.25339648 -0.25432298 0.39035907 0.27471212 -0.2490464 0.4714149 0.50982577
-0.22043087 -0.08410717 0.09183081 0.28537455 0.109653674 -0.011283078 -0.38964447 0.032829877
-0.36237544 -0.044889163 0.054452702 -0.0034966043 -0.08524808 0.057187214 -0.22500142 -0.37861276
-0.14606602 -0.4273607 -0.14357561 -0.21344455 -0.5339293 0.16622594 -0.005144798 -0.22326514
-0.27080837 -0.031670053 -0.056970753 -0.002363932 -0.56154925 0.038117338 0.26432675 -0.042428654
-0.006463036 -0.0493435 0.040102903 -0.19293465 0.47355354 0.4253721 -0.46500662 -0.41183096
-0.19135047 -0.25301892 0.3944193 -0.1375525 -0.44896352 -0.4118575 -0.06921821 -0.1550846
0.09989869 0.035554547 -0.13383354 -0.26474828 -0.0022644291 -0.0012298512 0.069529854 -0.3387115
0.08973981 -0.054434612 0.061046194 0.31047708 0.26934624 0.13611227 0.22576824 0.05822927
0.32217205

resblocks.2.conv2.depthwise.bias f4 [9]
00000000: 1020 923e abc4 cd3e dbb4 953e 108f 05bd
00000010: 3502 c8be 3802 e5be 8b47 2cbc 0b68 513e
00000020: 50ba 86be
0.28540087 0.40189108 0.29239544 -0.03260714 -0.39064184 -0.44728255 -0.010515104 0.20449845
-0.2631402

resblocks.2.conv2.pointwise.weight f4 [9, 9, 1, 1]
00000000: a0f4 06be 9c62 13bd 7353 aabb 8f1a b03c
00000010: f769 9f3d a73a e43e a4c1 b5be fdf5 e4be
00000020: 8457 d5be 1155 8d3e ff76 913d b161 6cbe
00000030: 2c18 bf3d 0358 03bf 9d14 223f d0e3 45be
00000040: 5a9c f6bd ae70 e43d 6d28 5cbe e4b0 18bd
00000050: deb7 e5bd 1f42 153e 05e7 04be 9642 303e
00000060: 7627 a53e 5271 fb3d f697 dc3e fa4b 803d
00000070: 6987 d83c 9e63 b33c fbc6 113e 43ab 06bf
00000080: ff2d d9bd dcf6 a13d 85f3 74be 35d5 9c3e
00000090: a5ea 443e b3bb f2be 2738 abbe 5a2d a73e
000000a0: 58dc 47bd bdcf ccbe ca3c afbd 9e3b 42be
000000b0: 4fda 3e3d f5db 0fbf 4ba7 173e dc1d 833e
000000c0: 07ed 1b3e e8f5 693e d85d 283f bf4f 293d
000000d0: 5d58 223e f9b6 ae3c 05d8 b53d fa59 aeb9
000000e0: cf23 5fbf 4637 0f3f d9f9 e3bd 0aca 293e
000000f0: 3488 29be cfdf 683e ad5d 193e 7cd5 3d3e
00000100: 9604 f03e 5d5a 75be f743 e63e c7b5 373c
00000110: 3bff 8abb 83c6 61be 3956 d63d baf0 103d
00000120: 9ae2 6abe 84d8 6838 551f 213e 856d 12be
00000130: 5532 a2bd ce67 00be 01bc 1e3f 8178 abbe
00000140: 42ff 6c3d
-0.13179255 -0.035982713 -0.005197936 0.02149704 0.07783883 0.44575998 -0.354993 -0.44718924
-0.41668332 0.27603963 0.07102775 -0.23084141 0.09330782 -0.5130617 0.63312703 -0.19325185
-0.120415404 0.111543044 -0.21499796 -0.03727807 -0.112167105 0.14576004 -0.12978752 0.172129
0.3225667 0.122774735 0.43084687 0.062644914 0.026431756 0.021898087 0.14236061 -0.52605075
-0.10604476 0.07908413 -0.2392102 0.30631414 0.19230135 -0.47408828 -0.33441278 0.32651788
-0.04879412 -0.40002242 -0.085565165 -0.18968055 0.046594914 -0.56195 0.14809911 0.25608718
0.15227138 0.22847712 0.65768194 0.041335817 0.1585402 0.021327483 0.08879093 -0.00033254904
-0.87164015 0.55943716 -0.11131639 0.16580978 -0.16555864 0.22741626 0.1497714 0.18538469
0.468785 -0.23960252 0.44973728 0.011212773 -0.0042418516 -0.22048382 0.104656644 0.035385825
-0.22938004 5.5514756e-05 0.15734608 -0.14299591 -0.07919756 -0.12539598 0.6200562 -0.33490375
0.05786062

resblocks.2.conv2.pointwise.bias f4 [9]
00000000: c32f c3bb 7c34 67be eb2c b7be 3594 803e
00000010: 90fe 78be 7900 1dbe 47bf 47be c81a 0dbd
00000020: 33b0 b03d
-0.0059566214 -0.22578615 -0.35776457 0.25113073 -0.24315858 -0.15332212 -0.1950656 -0.03444937
0.08627357

resblocks.2.in2.weight f4 [9]
00000000: f117 913f 59f6 353e 7fd0 ab3e 76fb 863f
00000010: fd48 083f 547d 943f 4ba6 383f c2ae 623f
00000020: d5b4 4940
1.1335431 0.17769755 0.33557507 1.054549 0.5323637 1.1600747 0.7212874 0.8854791
3.151662

resblocks.2.in2.bias f4 [9]
00000000: 3753 3a40 52fd 8bbf d06d 3fbf 93e1 4b3f
00000010: d06e 0040 3d7e f439 c09d 833e 6d97 3f3f
00000020: 42af 543f
2.911329 -1.0936682 -0.74776936 0.79641074 2.0067635 0.00046633361 0.2570629 0.7484043
0.8307992

deconv1.depthwise_separable_conv.depthwise.weight f4 [9, 1, 3, 3]
00000000: 5e17 71be 28f3 5e3d 6c98 25be c966 53be
00000010: 9031 4a3e 9f40 bcbe a3ac 593e dbb5 e6be
00000020: 687b 6b3e ef4f 3d3f 148c 85be 286e 453e
00000030: 6a57 203f b8f3 653e b8bb a9be 7a38 723d
00000040: ce3f 9b3e d15c edbd 76cb 3abd 6a36 903e
00000050: 41c6 c63c 990e 033e 10f5 0a3f 9974 8dbe
00000060: e2e0 c23e 9fe6 4a3d 3b0e 9d3e 74cf 02bd
00000070: 80a9 f23e e44f a0be dd23 a0bd ba86 3cbe
00000080: 8a29 1b3f a0e0 963d 0c9a a7bd 84d4 aebe
00000090: 18e1 503c cba5 8c3e 0da2 c8be 88e1 0b3e
000000a0: a143 44bf 554e 4abe 1cf9 99be ad01 0c3e
000000b0: 7d3b b53d 6306 a43e 31dd 72be cc6e af3e
000000c0: a120 c63d 6b09 75be e657 6fbe 3cd8 e6bc
000000d0: 5149 be3d 66da 203e 3f08 b9bc fdde 7abe
000000e0: 18ae d2be b94a 09be 2406 94be f676 24be
000000f0: 9001 febd f09f d1be 32fa f8be ba0d f2bc
00000100: 8b50 7f3e 20db e0be b732 603d 4613 1fbf
00000110: 597d 423e 8a06 66be 00f3 303e ae06 d9bd
00000120: 8110 3c3b 6a56 c7bd 6549 503d ce8f 88be
00000130: 2f85 e93d bef9 a3be 75e4 483e 8bcb dfbd
00000140: 943e f93d
-0.2354407 0.05443111 -0.16171426 -0.20644678 0.19745469 -0.36768052 0.21257262 -0.4506062
0.22996294 0.73950094 -0.26083434 0.19280303 0.62633383 0.22456253 -0.3315103 0.05913589
0.30322117 -0.11589969 -0.04560419 0.28166515 0.024264457 0.12798537 0.54280186 -0.2762802
0.38062197 0.049536344 0.3067492 -0.031936124 0.47394943 -0.31310952 -0.078193404 -0.18410769
0.6061026 0.073670626 -0.08183679 -0.34146512 0.012748979 0.2747024 -0.39186135 0.13660252
-0.76665694 -0.19756444 -0.30072868 0.13672514 0.08849237 0.32036123 -0.2371719 0.3426422
0.09674192 -0.23929374 -0.23373374 -0.02817928 0.09291328 0.15708312 -0.02258694 -0.24499126
-0.41148448 -0.1340741 -0.28910935 -0.16061005 -0.12402642 -0.40942335 -0.48628384 -0.029547561
0.24933068 -0.4391718 0.054735865 -0.62138784 0.18993129 -0.22463432 0.17280197 -0.10596977
0.002869636 -0.09733279 0.050851244 -0.26672214 0.11402356 -0.32026476 0.196184 -0.109274946
0.12170139

deconv1.depthwise_separable_conv.depthwise.bias f4 [9]
00000000: f6fe a4be 1df9 32bf c125 153e 8881 f73c
00000010: 3a70 07bf db16 01bf 317d 27bf 357a 643e
00000020: 89a0 c1be
-0.3222577 -0.69911367 0.14565183 0.030213133 -0.5290562 -0.504255 -0.654254 0.22312243
-0.3781779

deconv1.depthwise_separable_conv.pointwise.weight f4 [9, 9, 1, 1]
00000000: be2f 7bbe ecae 4cbd 78f8 903c 5c89 6f3f
00000010: eb91 14bc 9873 0ebe 4021 083d 7721 b13d
00000020: fd03 fcbb 41d0 53be 02e8 473b c678 93bd
00000030: 8c31 07bd babd 82be bed4 90bc 01b8 10bf
00000040: 3ec9 02bf 7e0b 353b b776 5f3d f85f d7bd
00000050: 5f84 c6be 2196 ffbd dd4e f13e a63a 873e
00000060: c94d 01be 6dbb 273e b741 b33d 4e43 99be
00000070: 528c 573e 3648 25bd e301 393e 2c90 073e
00000080: 0fae 06bd a540 003f 2086 673e a974 06bc
00000090: 100f 963e 9b6e 83be da00 f63d 6a8d d9bd
000000a0: 7d8a 3c3e 0bec 7e3c e9dd 85be 55ad 983e
000000b0: 3234 f2be 47e4 ff3d 2179 2fbe 0b91 223f
000000c0: d976 503e 40ab f3be ebef 59be 6eb4 8a3e
000000d0: 4898 d0be fd9b 483d 02ca 7cbc 7afc 2c3f
000000e0: 5cbd 35be d50c 293e fbf6 863e 84cf a23e
000000f0: 5878 b03b 82cd 1c3e 4271 ea3d 460d f53d
00000100: c06b 14bf 0ef9 913e 6dd8 81bd 248b dbbd
00000110: 4fb2 cabe 07a0 b6bc fe44 443e 9cb2 d93d
00000120: d1bf 293e 283e a9bc 7054 82bd 6adc d5bc
00000130: b904 093f abe1 7b3e 1a95 fe3d 022d 06bf
00000140: 5786 c03c
-0.24529931 -0.049971506 0.017696604 0.9356897 -0.009067993 -0.13911283 0.033234835 0.08648961
-0.007690905 -0.20684911 0.0030503278 -0.0720077 -0.033006236 -0.25535375 -0.017679568 -0.5653077
-0.5108832 0.0027625258 0.054556575 -0.105163515 -0.38772866 -0.12479807 0.4713048 0.26411933
-0.12627329 0.16380091 0.087527685 -0.29934162 0.21049622 -0.04035207 0.18067126 0.13238591
-0.03288084 0.5009864 0.22609758 -0.008206525 0.29308367 -0.25670323 0.12011881 -0.10622676
0.18412204 0.015559207 -0.26145867 0.29819742 -0.47305447 0.12494712 -0.17136051 0.6350257
0.20357837 -0.4759159 -0.21282928 0.27090782 -0.4074118 0.048976887 -0.015429022 0.6757275
-0.17748016 0.16508801 0.26360306 0.31798947 0.00538544 0.1531277 0.114473835 0.11965422
-0.57976913 0.28510326 -0.06340108 -0.10719898 -0.39589164 -0.022293104 0.19166943 0.1062977
0.16577078 -0.020659521 -0.063637614 -0.026106078 0.5352283 0.24597804 0.124307826 -0.52412426
0.023501558

deconv1.depthwise_separable_conv.pointwise.bias f4 [9]
00000000: a5ab 923e ca06 ac3e c0a3 0ebe f032 5b3d
00000010: 1b87 bebd 4a86 993e e814 7dbf fd37 d73e
00000020: b21c 5cbf
0.2864658 0.3359893 -0.13929653 0.053515375 -0.09303113 0.29985267 -0.98860025 0.42034903
-0.85981286
