test/model.pth (torch, 34992 bytes, 70 tensors)

conv1.depthwise_separable_conv.depthwise.weight f4 [3, 1, 9, 9]
00000000: 3436 1f3e 3eb9 8ebd 8535 a53e a057 00bd
00000010: b3cd a6bd 38ff 32ba 7955 45be fd5f 913e
00000020: 4fa0 9e3e 8bca 3fbe abe7 08be 4928 f23d
00000030: d433 5fbd 5ccc 0a3d 2244 f63c 70d0 2dbe
00000040: f522 993d 65a2 b4bd f213 b1bb ef98 a0bd
00000050: 725a d93d 984d fbbc b7f0 023e 2dd2 2c3e
00000060: 1166 21bd ee7b 2e3e 7dbb b13d 82b9 01be
00000070: a6e4 a2bd 1cf0 8dbb daf2 f73c e0d2 0a3d
00000080: c375 0f3e 8d3c 003d 2249 f53d 36d9 98bc
00000090: f426 0fbe 6b97 39be f71c 71bc b946 51be
000000a0: 4abc 933d 40fe cc3c 6805 3fbd b192 023e
000000b0: a940 0fbe 2a99 493d bda7 5cbe ac72 87bd
000000c0: 95c5 2bbe 98e9 c7bb 0fd9 bf3d 6919 263e
000000d0: eab3 a23e 6a74 eb3e fc84 c4bb fb78 99be
000000e0: fd60 19be 6b94 00bf b7da 54be 881f 8abe
000000f0: f98e 18be cbdf 58bd 4b54 bf3d c444 063f
00000100: 3aa2 9e3e 4f4c 023f 48b7 86bc 9872 00be
00000110: 04a0 5abe 029c b2be 20d3 ef3b dc88 203d
00000120: f39d 333e e652 88bd adaa 303f cfec 043e
00000130: 864d 733e 7bcf 4d3e 7a0d 2dbe d4ad a6bd
00000140: 1ff3 9bbe 5f72 283e 10be b83d c2e1 51bd
00000150: 285f 233e 1cec 813e 5485 053f 0749 933e
00000160: 03c1 0d3f 1669 0d3f f39f 803e d1eb 983d
00000170: e7ee fe3d 585a e23c cd35 41be fb61 47be
00000180: 9e88 ebbd 96ee b0bc 117d 2fbe 9112 c93e
00000190: eccb 9f3e 3009 c33e 7de4 683e 1cd3 ee3c
000001a0: 22d2 85bb 0dce 36be 229f 173c 21d9 dcbc
000001b0: 6a3c a53d 0463 79ba f74d 173e 9279 a13d
000001c0: 0512 0f3d deb0 1fbe f49b 8ebe 7bf9 02be
000001d0: fef2 01be 3810 9dbd bdbc 2bbd 90b2 03bd
000001e0: 08f4 3a3e d29b e03d 1d3e 343e 8e92 d1bb
000001f0: a7f6 43bc 8d1d bbbd fdd3 72be 3f17 3abe
00000200: 9d08 1abd f767 80bd 3af6 9e3c ceaa e23d
00000210: ee4d eabd f91a 253d 8543 5fbe f02e 84be
00000220: ae6c 24be e426 5fbe ea98 5f3c 7b96 05be
00000230: c7f4 e23d 62af 16be a971 5a3c b7a4 51be
00000240: c828 6bbe 168d 20be 6771 60be 8ed7 0fbe
00000250: 4c8c 66be b846 febd 9ac0 b4bd 1f19 9fbd
00000260: 7a80 aa3c f0bc 1bbe 2df9 503b c27f a8be
00000270: 606f 1ebe dc03 8dbe 7592 753a b37e 87bd
00000280: c4d9 a73e 4596 ed3e 0594 3cbe ed98 bcbd
00000290: 4ded b9bc 5d79 2f3e 3bcf 953d 8019 413c
000002a0: 1447 033e 2d10 6dbc ba20 4b3c e895 6fbd
000002b0: 5f4d 373e 1f4e a1bd 60b2 ba3d 5fe4 123e
000002c0: b849 963b b0ac 553e 8a20 503e 326e 303d
000002d0: a437 abbe ffdc b0bd f79d 3fbe 5895 0cbe
000002e0: d9c6 8b3c d960 8ebc 1576 5a3d 12c1 bb3c
000002f0: 54bb 113d c8b8 e0bd 9ef0 073d e3da c4bc
00000300: e3ef 3c3e 4aba 623e 3b2f 743d d778 263e
00000310: 1eef 643e 3173 5e3e 6690 12be 256b 79bd
00000320: 21d2 88be f635 4bbe 86bc 793d 3755 3dbd
00000330: b48d 923d ce07 433d 6751 f23d ca23 9bbe
00000340: b17f 9bbe 0122 a0be 33c9 51be cbbd b43c
00000350: c35b 0abe 0ae5 3b3e 3037 2e3e c122 0a3f
00000360: 757f 683e 3775 10bd 4d75 1fbe 73c2 8cbe
00000370: 3a50 aabd 3517 63bd d26e 0c3e f2a0 bf3d
00000380: 82d6 9a3e cf49 8f3e 5fdb 7a3e 05fa 293b
00000390: f03d 11be 00a8 47bd 43ce b0be ff05 8fbd
000003a0: e896 cebe 2aba 48be 9482 4a3d 0f65 5c3e
000003b0: 6523 c33d a128 d03d 0a98 363e 38b6 14be
000003c0: 0a92 3a3d 8da4 0bbf 1f2c 12bf
0.1554802 -0.06968926 0.32267395 -0.031333566 -0.08144703 -0.00068281917 -0.19270886 0.28393546
0.3098168 -0.18729608 -0.13369624 0.1182409 -0.054492787 0.0338863 0.030061785 -0.16974044
0.07477371 -0.08820037 -0.005403989 -0.0784167 0.10612954 -0.030676648 0.12787138 0.1687705
-0.03940398 0.17039463 0.08678339 -0.12668422 -0.079537675 -0.004331602 0.030267168 0.033892512
0.14009766 0.031307746 0.119768396 -0.018658262 -0.13979703 -0.18124168 -0.014716378 -0.20437135
0.07213648 0.02502358 -0.046636015 0.12751271 -0.1398951 0.049218334 -0.21548362 -0.06613669
-0.1677459 -0.0061008446 0.093675725 0.1622063 0.3177789 0.45987254 -0.0059972983 -0.29975113
-0.14978404 -0.5022647 -0.20786558 -0.2697718 -0.1489829 -0.0529478 0.093422495 0.5244868
0.30983144 0.5089769 -0.016444817 -0.12543714 -0.21350104 -0.3488465 0.0073188692 0.03919302
0.17540722 -0.066564366 0.6901043 0.1298096 0.23760042 0.20098679 -0.16899672 -0.08138624
-0.30458924 0.16449879 0.090206265 -0.05124069 0.15954268 0.2537545 0.5215657 0.28766653
0.5537264 0.55238473 0.25122032 0.074668534 0.12447911 0.02763097 -0.1886818 -0.1947097
-0.11500667 -0.021598142 -0.17137553 0.39271978 0.31210268 0.38092947 0.22743411 0.0291534
-0.0040838877 -0.1785204 0.009254249 -0.026959004 0.08068164 -0.00095133507 0.14775835 0.07884516
0.034929294 -0.15594813 -0.27853358 -0.12790482 -0.1269035 -0.07669109 -0.04192804 -0.032152712
0.18257153 0.1096722 0.1760182 -0.0063956445 -0.011960662 -0.09136496 -0.2371368 -0.1817293
-0.03760587 -0.0626983 0.01940452 0.11067735 -0.11440645 0.040308926 -0.218031 -0.2581706
-0.16057083 -0.2179218 0.013647297 -0.13045685 0.11081844 -0.1471534 0.013332763 -0.2047299
-0.22964776 -0.1567882 -0.2191826 -0.14047071 -0.22514457 -0.12415832 -0.08825798 -0.07768463
0.020813216 -0.15208793 0.0031886802 -0.3290997 -0.15472174 -0.27542007 0.0009367832 -0.06615963
0.3278333 0.4640371 -0.1841584 -0.09208856 -0.022696162 0.1713614 0.07314917 0.011785865
0.12820083 -0.014469189 0.012397939 -0.05849257 0.17900608 -0.078762285 0.091160536 0.14344929
0.0045864247 0.20866656 0.20324913 0.04307384 -0.33440888 -0.08635902 -0.18712603 -0.13728845
0.017062591 -0.017380165 0.053335268 0.022919212 0.03557904 -0.10972744 0.033188455 -0.024030155
0.18450885 0.22141376 0.059615355 0.16257034 0.22356841 0.2172363 -0.14312896 -0.060893197
-0.26722816 -0.19844803 0.060970806 -0.046223845 0.07155934 0.047614865 0.118319325 -0.30300742
-0.30370858 -0.31275943 -0.20486908 0.022063157 -0.13511567 0.1834909 0.1701324 0.5395928
0.22704871 -0.035268035 -0.1557209 -0.27492103 -0.08316083 -0.055442054 0.1371415 0.0935687
0.3024178 0.27986 0.24497746 0.0025936377 -0.14183784 -0.0487442 -0.34532365 -0.069835655
-0.40349507 -0.19602266 0.049440935 0.21522926 0.09528235 0.10163999 0.17831436 -0.14522636
0.04554943 -0.5454796 -0.57098573

conv1.depthwise_separable_conv.depthwise.bias f4 [3]
00000000: 0871 3ebd b37f e03e 72ea 46be
-0.046494514 0.43847427 -0.19425371

conv1.depthwise_separable_conv.pointwise.weight f4 [9, 3, 1, 1]
00000000: d8af 42be a277 893e 20ce f1be 1c05 2c3f
00000010: 0cb9 03bc 2c17 7e3e 9825 98bb a0a2 62bf
00000020: b1b3 1dbd 92f1 b3be fe18 b53e 7d8f 21bf
00000030: 8806 833d b19e 633f 9f03 813e 5fa1 41bf
00000040: 8279 abbd c00d 9f3e 5fb9 663e 64e7 233f
00000050: d80d 703d 1fdf 2dbe 6321 2dbe 610b 08bf
00000060: 63a4 c03e 1718 2cbf 4ed0 de3d
-0.19012392 0.26849085 -0.47227573 0.67195296 -0.008039724 0.24813527 -0.0046431534 -0.88529396
-0.038501445 -0.3514524 0.3537063 -0.6310957 0.0639773 0.8891402 0.25198075 -0.7563686
-0.08372785 0.31065178 0.22531651 0.6402495 0.058606952 -0.16979645 -0.16907267 -0.5314236
0.37625417 -0.6722426 0.10879575

conv1.depthwise_separable_conv.pointwise.bias f4 [9]
00000000: 2f23 0e3f 9bc5 323f 3792 adbe 1189 0cbf
00000010: ebc5 b53e b902 d23d 9102 03bf 6e5a c5be
00000020: a045 17bf
0.55522436 0.6983277 -0.33900616 -0.54896647 0.35502562 0.102544256 -0.5117579 -0.38545555
-0.59090614

in1.weight f4 [9]
00000000: c5b1 833f 635b 323f 8f32 6c3f 7b0d 413f
00000010: 08dd 373f b74d 903f 1fac 2f3f 9bac 5a3f
00000020: 9adf 813f
1.0288626 0.69670695 0.92264646 0.75411195 0.7182164 1.1273717 0.6862201 0.85419625
1.0146363

in1.bias f4 [9]
00000000: cc80 e33e 12b5 643f 660c 7d3c cc9e 543f
00000010: 639e 5e3f 7a5c 15be 4910 833f 312f 67be
00000020: 02f8 3e3f
0.44434202 0.8933879 0.015444851 0.83054805 0.8696043 -0.14586058 1.0239345 -0.22576596
0.7459718

conv2.depthwise_separable_conv.depthwise.weight f4 [9, 1, 3, 3]
00000000: c750 f8bd 8a83 c0be 1953 30be 0c3c f53c
00000010: ba31 abbe 47ba 2a3e f7b8 0a3f c174 543e
00000020: dc62 883d d01f 87be 6d30 7dbe 24f2 20be
00000030: fec1 7c3d 7373 42be a2ca 1bbe 424d 983e
00000040: 2fc8 893e b079 b53e b28b 033e 44fd 8fbd
00000050: a1dc f1be ee7c ff3d 9bd0 aebd 56a6 233e
00000060: 23e3 47be 4d21 813d dd11 76be 984e ca3e
00000070: 7975 763e b50b 3fbd 0195 bf3d 4d52 66be
00000080: 964f 03bf b293 b23e 423d 54bd b5fc aebd
00000090: 80b0 f5be 42eb 823d 34d6 8ebe ead5 8bbe
000000a0: 8b3c c33e 5e05 533e d7bc e7be 53ab e4bd
000000b0: 72bd 84be 8773 11bf 3ad9 153e 35d2 97be
000000c0: 1fb0 453d ab38 d03e 23a6 023e adc0 d0be
000000d0: bbf9 a23e 6544 86be ae37 903e bcc0 a93e
000000e0: 019c 27be ab22 793e d255 abbc b144 8dbe
000000f0: 0e62 d33c c10e 95be 2992 b2be 10f6 ec3d
00000100: f0df 053f 5532 50be 9a17 0ebe 2019 da3d
00000110: 367f f6bd 027b 373e cd5c 903e c0a7 543d
00000120: a20a 0bbf b4dd 423e b33b c63e 03b6 92be
00000130: 5871 3abe c91a 1c3f ea72 6cbb 7f98 86bd
00000140: f314 f4bd
-0.12124782 -0.37600356 -0.17219199 0.02993586 -0.33436376 0.16672622 0.54188484 0.20747663
0.06659481 -0.2639146 -0.24725504 -0.1571737 0.061708443 -0.18989353 -0.15214017 0.29746443
0.2691054 0.35444403 0.12846258 -0.070307285 -0.4723864 0.12475 -0.08535882 0.15981421
-0.1952024 0.0630518 -0.24030252 0.39513087 0.2406825 -0.046642024 0.09354592 -0.22492333
-0.51293314 0.34878308 -0.051816233 -0.08544294 -0.4798622 0.06392528 -0.278978 -0.2731164
0.38132128 0.20607516 -0.4526126 -0.1116549 -0.25925785 -0.56816906 0.14633647 -0.29652563
0.048263665 0.40668234 0.12758689 -0.40772 0.31831154 -0.26224056 0.2816748 0.33154857
-0.16368105 0.24329631 -0.020914946 -0.2759147 0.025803592 -0.2911282 -0.34877136 0.1157037
0.52294827 -0.203317 -0.13876191 0.106493235 -0.12035982 0.17918018 0.281958 0.05191779
-0.543131 0.19029886 0.38717422 -0.2865449 -0.182073 0.6097837 -0.0036079236 -0.06572055
-0.11918058

conv2.depthwise_separable_conv.depthwise.bias f4 [9]
00000000: 56e3 d3bd a887 c33e 684f 193e a848 1f3e
00000010: 8c9b 34be 15af c9be 8e45 383c 8513 f23e
00000020: 3c53 283e
-0.10346095 0.38189435 0.14971697 0.1555506 -0.17637461 -0.3939139 0.011247052 0.47280517
0.16438001

conv2.depthwise_separable_conv.pointwise.weight f4 [9, 9, 1, 1]
00000000: 17d4 69be bc2a 443e 2885 85be 20bc f03e
00000010: 93c0 b139 6f4a 9b3d 16f5 353f 71b4 bdbe
00000020: 8f4c 8f3e 442c 73bf fed2 2a3f 7d58 ec3e
00000030: 6015 0f3e 1c60 7f3d 8fdf b63c 6fae 2dbc
00000040: 91ad d53d 4aa5 7fbd a711 ae3d 14ad dabd
00000050: f0c5 cebd fb38 44bc a450 2cbe fe90 3ebf
00000060: 507f 053e d749 34be 3af6 9e3d b256 b1be
00000070: 3dc9 a5bd 419c d93d 3002 83bd 126a a43c
00000080: a35b a7b8 7344 d7bd 209a 81ba 49d0 6cbf
00000090: 54f7 7dbd 5705 01be 8f5e 4ebc d8ff ffbc
000000a0: 4dfc 773f c23a 173e 01b6 6bbd de99 55be
000000b0: ea7f 203d f073 d4bd 410a 3ebe fa27 e4bc
000000c0: 1fd0 d93d 62a9 5dbc b13e 3fbf 5c14 f4bc
000000d0: b586 aebe f0b4 65be 7880 49bd 020f 5fbe
000000e0: ea6a ec3b 0731 9b3d 1997 a33e 9b8b 04bf
000000f0: 3886 39bd 34d2 f43d 921e fbbc 06c8 f2bc
00000100: 7452 8ebb 0c7c 833d e292 fbbc f6ec 3f3f
00000110: 9a74 283b 88b3 983e e4f6 c2bd d283 1c3e
00000120: 8368 133e 437f d93e 99ae efbe a49b 24be
00000130: 21b0 22be f5cb 97be a916 adbe 6d5a cfbe
00000140: ee9c 1fbe
-0.22834812 0.19156927 -0.26078153 0.47018528 0.0003390355 0.075825565 0.71077096 -0.37051728
0.27988097 -0.9498942 0.667282 0.4616126 0.13972998 0.062347516 0.022323398 -0.01060067
0.10433496 -0.06241349 0.08499461 -0.10677543 -0.10096347 -0.011976476 -0.16827637 -0.7443999
0.13036847 -0.17606293 0.07761808 -0.34636456 -0.08095024 0.10625506 -0.063969016 0.02007011
-7.980249e-05 -0.105111025 -0.0009887852 -0.9250532 -0.06200345 -0.12599693 -0.012595787 -0.031249925
0.96869355 0.14768508 -0.05754662 -0.20859477 0.03918449 -0.10373676 -0.18558599 -0.027851094
0.10635399 -0.013529154 -0.74705034 -0.029794864 -0.34087148 -0.22432303 -0.049194783 -0.21783069
0.0072148936 0.075777106 0.31951216 -0.5177552 -0.045294017 0.119541556 -0.030654225 -0.029636394
-0.0043433253 0.064201444 -0.030709688 0.7497095 0.0025704266 0.2982447 -0.09519747 0.1528466
0.14395337 0.42479905 -0.46812895 -0.16074997 -0.158875 -0.29647794 -0.3380635 -0.40498677
-0.15587208

conv2.depthwise_separable_conv.pointwise.bias f4 [9]
00000000: 573f 6fbe 3301 4b3e e3f3 243f a7ee adbe
00000010: cc61 263e 1392 e83d 1d09 f1bc 0df5 033e
00000020: f570 9abd
-0.23364006 0.19824676 0.6443464 -0.3397114 0.16248244 0.113559864 -0.02942329 0.12886448
-0.07541076

in2.weight f4 [9]
00000000: b19a 843f fdfb a73f 4217 393f 4d07 823f
00000010: 8dd7 103f 42aa 303f a149 713f c5d8 463f
00000020: 9c91 353e
1.0359708 1.3123776 0.72301114 1.0158478 0.56578904 0.6900979 0.94252974 0.77674514
0.17731327

in2.bias f4 [9]
00000000: f990 6dbe f875 8bbc f602 42bf 05b0 323e
00000010: 9420 523f a548 4c3e dfa6 8a3d 6c65 393f
00000020: 11f5 fd3f
-0.23199834 -0.017024025 -0.7578577 0.17449959 0.8208096 0.19949587 0.067701094 0.7242038
1.9840413

conv3.depthwise_separable_conv.depthwise.weight f4 [9, 1, 3, 3]
00000000: a3ac d03e 3716 2f3e 98a7 e23e dc58 113e
00000010: e890 ef3d 690c 813e d4b4 1a3f 4502 8a3d
00000020: 2df2 953e ab00 9d3f 0407 d93d 5ebb 433d
00000030: 8716 5a3d 4f70 223b dba7 523d 6092 173d
00000040: 6e80 373c 8bc2 6a3d 79db 0c3e 2a2e 89be
00000050: 2b7b 41be e64e 1f3e 4be3 8dbe 409f 4fbe
00000060: a053 e63e c24d 6cbe 3995 d23d c803 ef3e
00000070: 37c6 923d 58a0 5c3c cccf 3f3e a2a1 913e
00000080: 91a1 043e f24d 033e 7e94 04bd 1a8b 113f
00000090: 9b28 97be afbe d1bd 41df c6be 2cff fe3c
000000a0: 7756 fd3d 0fea 2fbe bed4 a93d e869 e93e
000000b0: 2655 26be 3efb f8bd b801 a8bd a78d 8bbe
000000c0: a6cc 103e 1d74 02be 4b35 683d f041 ffbd
000000d0: bcc8 26be d67c 9fbe 39c7 b13e bf66 01be
000000e0: feb5 cf3e 070a 553e adb0 623d acb0 8c3e
000000f0: 9b1a d9bd 92a2 debc 656d 6f3e b892 d9bd
00000100: 7fad a53e 6478 403e f740 acbe 4ab5 2d3e
00000110: 1d21 3d3d f3ba f4be 8028 423e 2ebc 59bd
00000120: 9be9 083f de9e 3a3f 95ff bd3e acea cbbe
00000130: 55bc cfbd 6ed3 f13e c75e 203c 60a4 2fbe
00000140: edf6 7dbe
0.4075671 0.17098318 0.4426849 0.14194053 0.116975605 0.2520478 0.6043217 0.06738714
0.29286328 1.2265829 0.10597041 0.04778611 0.05324414 0.002478618 0.05142961 0.03700483
0.011200054 0.057314437 0.13755597 -0.26793033 -0.18894641 0.15557441 -0.27712473 -0.20275593
0.44985676 -0.23076537 0.10282368 0.46682572 0.07166713 0.013465963 0.18731612 0.2844363
0.12952258 0.12822703 -0.032368176 0.5685288 -0.29523167 -0.10241448 -0.38842204 0.031127535
0.123700075 -0.1717913 0.082925305 0.45588613 -0.16243419 -0.12157296 -0.08203453 -0.2725651
0.14140567 -0.12739606 0.05669145 -0.124637485 -0.16287512 -0.3114993 0.34722307 -0.12636851
0.40568537 0.20804606 0.055344272 0.2747854 -0.10600778 -0.027177129 0.23381574 -0.106236875
0.3235893 0.18795925 -0.33643314 0.16963688 0.046174157 -0.4779888 0.18960762 -0.053157978
0.53481454 0.7289866 0.37109056 -0.39827478 -0.10143343 0.4723162 0.009788222 -0.17152548
-0.24801226

conv3.depthwise_separable_conv.depthwise.bias f4 [9]
00000000: b104 77be 2d92 bd3d c183 96be 8eab 3b3e
00000010: 234a 873e 0d66 183f 1f3b 98bd 5133 773d
00000020: ea51 a93c
-0.24122883 0.092563964 -0.29397395 0.18327162 0.2642375 0.5953072 -0.074331515 0.060351674
0.020668942

conv3.depthwise_separable_conv.pointwise.weight f4 [9, 9, 1, 1]
00000000: 0282 a6bb b3e2 42bd a9c8 903e a000 c0bd
00000010: 00e1 323f b426 27be 2120 383e f516 f93e
00000020: 543f 2a3e 992e f7bd 9c30 02bf 575e 273e
00000030: b796 bfbd 80c9 213f 1191 b03d ba1a 11be
00000040: ea56 233d aacf 32bf 6182 b8be b6a3 c43d
00000050: 961a 8cbd fcc4 2e3e c806 d03c 1c2e 503d
00000060: 7067 3abe f836 e9be 9929 c43e 56f8 ddbe
00000070: 763c 0c3e fa51 68be 1127 48be 72c4 3ebd
00000080: 6ba7 a93d dddf 9ebe 4d13 363e 2741 743e
00000090: e6c2 a9be d8fe 373d 61dd 8fbe 999f f03e
000000a0: 48c8 95be 988f 233e 8c74 f1bd 4acf 3a3d
000000b0: f539 7b3d 69a0 b3bd e418 fabb 21f1 dd3e
000000c0: 3cb5 bbbd cf3c a23e d5c5 f8be 8249 07be
000000d0: 87b1 133f 56fe cb3d e609 a0bd d08b 043e
000000e0: 9038 09bc e71a acbc d172 7dbd dce7 313e
000000f0: 13c9 c13d 9302 34be e08d 663f 6536 b33d
00000100: 7391 02bd 23c0 ba3d 6941 f5be 7dcd b93e
00000110: f756 47bd 1bcf b2be 0e4b a4be 5a7f 32be
00000120: b726 5dbd 5d5d 72bf 1e13 efbd 5319 193d
00000130: 869a ddbe 62ff dbba 8461 62bd d43c 5b3c
00000140: 3ef7 453e
-0.005081416 -0.04757948 0.28278092 -0.09375119 0.6987457 -0.16323358 0.17981006 0.48650327
0.1662572 -0.12069435 -0.5085542 0.16344582 -0.093549185 0.6319809 0.08621419 -0.14170352
0.03987781 -0.6984812 -0.3603697 0.09601538 -0.06841008 0.17067331 0.025393859 0.050825223
-0.18203521 -0.4554975 0.38312986 -0.43353528 0.13694939 -0.22687522 -0.19546153 -0.046574064
0.082838856 -0.3103017 0.177808 0.23852979 -0.33156508 0.044920772 -0.28098586 0.46996763
-0.29254365 0.15972745 -0.11789808 0.045607843 0.06133457 -0.0877083 -0.0076323617 0.4334803
-0.09165427 0.31687018 -0.48588434 -0.13211635 0.5769276 0.0996062 -0.07814388 0.12943959
-0.008375302 -0.021008922 -0.061877076 0.17373604 0.0946218 -0.17579107 0.90060234 0.08750609
-0.031876992 0.091186784 -0.47901466 0.36289588 -0.04866692 -0.34923634 -0.32088512 -0.17431393
-0.053992 -0.9467371 -0.11673568 0.037377667 -0.43281955 -0.0016784484 -0.05526878 0.013381202
0.19332597

conv3.depthwise_separable_conv.pointwise.bias f4 [9]
00000000: 3285 853e 8e09 333d 5803 61be 57ff 2dbe
00000010: 942d 943d 5dae 8fbe b64d c9bd f9a9 cfbd
00000020: 3f5d 80be
0.26078182 0.043710284 -0.21973932 -0.16991936 0.07235256 -0.28062716 -0.09829275 -0.101398416
-0.2507114

in3.weight f4 [9]
00000000: cbef e23d 867c 813e 5ffe 943d 6191 863d
00000010: ce2e 123e 8284 653e c16f 103e 419a bd3d
00000020: 0c5f d33e
0.11080893 0.25290316 0.0727508 0.065706976 0.14275667 0.22413829 0.1410513 0.09257937
0.41283453

in3.bias f4 [9]
00000000: 456b b1bd 4a2f 75be 8703 193e 538a b23d
00000010: e2a8 f43d 01f9 54be d319 26bc 4469 7f3e
00000020: fff6 a4bd
-0.08663038 -0.2394382 0.14942752 0.087177895 0.11946274 -0.20798112 -0.010137993 0.249425
-0.08054923

resblocks.0.conv1.depthwise.weight f4 [9, 1, 3, 3]
00000000: ac59 00bf a706 773d b668 893e 175f 92be
00000010: 012e af3d 4554 643d c1c9 a0be 83d7 1fbc
00000020: 5b2a 753e 188a 0f3f d790 1e3f 4af7 133e
00000030: 3f04 633e 4434 ae3e 9876 fe3d c9d7 33be
00000040: a524 0dbf cbb3 64be 80e0 f9be 346d 9abe
00000050: ab31 37bf 9e5e 8cbb 64e0 233e d103 2fbc
00000060: ce18 093e 5890 873e 31e8 953d 125f b73e
00000070: fa1c 12be 6388 db3e b8eb f03d c307 a2be
00000080: b043 303e 7917 093f f1a2 a43d 2869 923e
00000090: 70e8 ffbd 4c05 173e b382 b63c 25fe 113e
000000a0: b96e cc3c 08ac 1f3e 448a 39bd b347 3b3e
000000b0: e139 09be 361d 1b3e 186d 2fbe 1b17 b6bd
000000c0: 572b fc3d a80f 09bd 57db 07bc 721c 2a3f
000000d0: 7c4f 063e 1d10 6b3e 4fbc 1cbd 3c2d 03bf
000000e0: 356f eabd 99dd 2d3e 5abf 383f 62e6 893e
000000f0: caf5 e83d 2405 753d 56c5 393e 729d d9be
00000100: f48d 133e 24d8 8abe bd8f 10be 0868 3c3e
00000110: 0600 8bbe 99cf 5b3d c1a0 5c3e a592 f9be
00000120: 20e5 013f 12d2 b63e 7074 ee3e 4356 98bd
00000130: c6a9 abba d2b7 35be b232 51be 7e84 a6be
00000140: 18c8 74be
-0.5013683 0.06030908 0.268377 -0.28588173 0.085536964 0.05574443 -0.31403926 -0.009755972
0.23941939 0.5607009 0.6193976 0.14449802 0.22169589 0.3402425 0.12424964 -0.17562784
-0.5513404 -0.2233421 -0.48804092 -0.3016144 -0.7156016 -0.00428374 0.16003567 -0.010682062
0.13388368 0.26477313 0.073196776 0.3581472 -0.14268866 0.42877492 0.1176371 -0.31646547
0.1721332 0.5355144 0.08038891 0.28595853 -0.12495506 0.14748114 0.02227912 0.14257105
0.02495514 0.15592968 -0.045297876 0.1828907 -0.13400985 0.15147862 -0.1713146 -0.08891126
0.12312954 -0.033462197 -0.008292041 0.66449654 0.13116258 0.22955365 -0.038265523 -0.512409
-0.11446992 0.16979064 0.7216698 0.2693358 0.113750055 0.059819356 0.18141684 -0.42502934
0.1440962 -0.27118027 -0.14117332 0.1839906 -0.27148455 0.053664777 0.21545698 -0.48744693
0.5074024 0.35707146 0.4657321 -0.07438328 -0.0013096861 -0.17745903 -0.20429495 -0.3252296
-0.23904455

resblocks.0.conv1.depthwise.bias f4 [9]
00000000: 695d a03e f7e4 9ebe ab0f 6b3e e4d6 f2bd
00000010: 3a25 48be 5cb0 d1be a377 0bbf 349e c8bc
00000020: 2f48 25bf
0.31321266 -0.3103406 0.22955196 -0.118573934 -0.19545451 -0.40954864 -0.54479426 -0.0244895
-0.6456327

resblocks.0.conv1.pointwise.weight f4 [9, 9, 1, 1]
00000000: 6d9f c83e af58 a1be 3663 243e 36b6 c43e
00000010: 2729 b4bd 5214 a5be f972 463d 9db6 143f
00000020: 820a 57be ea80 693c 7392 323f 598a 2dbe
00000030: 4356 63be 641b 8bbd 7f1d df3d 3ff2 a5bc
00000040: 7b5c 253d 38e8 7dbd af20 763d 04a0 16bc
00000050: df2c ee3e 8a27 13be 69b1 67be a4b0 98bd
00000060: 1e09 1ebe 3e01 b4be d106 b6be 1b00 273f
00000070: 05d9 29bd 3d6f dc3d d6da 87bd 2945 f4bd
00000080: fa98 1abf 65b4 4fbd 60cb 933c cf21 063e
00000090: f688 583d 4217 8fbe e31b 113f 05d0 54be
000000a0: cb63 db3b 8658 f33b 8907 d3bd 7a48 a3be
000000b0: d601 d8be 89ef d13c a3a6 223d a6f7 81be
000000c0: ec04 cebd 8b17 16bc b1d5 86bc b224 9cbd
000000d0: ead0 ae3c 4acf 33bf 2c3c 7f3e 3ddc a7bd
000000e0: 6f78 60be a323 0e3f 42e6 b5be bc3e d13d
000000f0: 26a7 ab3e d47a 173e 94aa b8bd a2b8 8b3d
00000100: 69aa 0ebc 7548 073f 8d9a e63c 3693 3b3e
00000110: 43b2 d0bc a8ba 07bf 850a 073f 5bad 073f
00000120: 703a 8bbd ec41 9dbe ee05 09be a427 0c3d
00000130: 66e7 333e 8585 e9be 7ee3 133f 18a0 1ebb
00000140: e693 c4bd
0.39184132 -0.31512973 0.16053471 0.38420266 -0.08796912 -0.32242066 0.04844949 0.58091146
-0.21000102 0.014251927 0.69754714 -0.16947307 -0.22200875 -0.06792334 0.10894298 -0.020257114
0.0403714 -0.06198904 0.060089763 -0.009193424 0.4651861 -0.14370552 -0.2262627 -0.074555665
-0.15433165 -0.35157198 -0.35552076 0.65234536 -0.04146673 0.107634045 -0.066335365 -0.11927254
-0.60389674 -0.050709147 0.018041313 0.13098834 0.05286499 -0.27947432 0.56683177 -0.20782478
0.006695246 0.0074263243 -0.103041716 -0.31891233 -0.421889 0.025626915 0.0397097 -0.25384253
-0.100595325 -0.0091608865 -0.016459318 -0.076241866 0.021339852 -0.70238173 0.24925297 -0.08196304
-0.21920942 0.5552313 -0.35527235 0.10217044 0.33525962 0.14792949 -0.0901691 0.06822325
-0.008707621 0.52844936 0.028149867 0.18317875 -0.025475627 -0.5301919 0.52750427 0.52998894
-0.067982554 -0.30714357 -0.13381168 0.03421749 0.1756874 -0.4560968 0.57769 -0.002420431
-0.09598522

resblocks.0.conv1.pointwise.bias f4 [9]
00000000: af8c 073e 613e 273e 77b5 35be d7cf 493e
00000010: 8759 cb3e 535e 3ebc 9f1e aa3c b8c7 3d3e
00000020: 410d ee3e
0.1323726 0.1633239 -0.17745005 0.19708191 0.3971674 -0.011619168 0.020766554 0.18533218
0.46494487

resblocks.0.in1.weight f4 [9]
00000000: 529a 873f 4922 653f 6eef 873f a54f 393f
00000010: 2453 543f 4691 4e3f 1d94 6a3f a4a2 5a3f
00000020: a749 133f
1.059397 0.8950544 1.0619943 0.7238715 0.8293936 0.8069042 0.9163225 0.8540442
0.5753426

resblocks.0.in1.bias f4 [9]
00000000: 0d13 a83e 4775 863f 5898 01bf 747d 9d3f
00000010: 9660 333e d42d 193f dd5c c63e 7a25 7ebd
00000020: 518b 7a3f
0.32827035 1.050454 -0.50623083 1.230391 0.17517313 0.59835553 0.38742724 -0.06204746
0.9786883

resblocks.0.conv2.depthwise.weight f4 [9, 1, 3, 3]
00000000: cee0 8c3e 939f 84be d0b9 05be 5c9c abbe
00000010: a09e 913e cf0a 8ebe 2253 68bd 9c04 c6be
00000020: 9f56 0bbe d8c0 85be 47c5 0dbe e749 edbe
00000030: ea94 94be 0ab9 3e3e 7cc1 1f3d 8c7f efbe
00000040: 254e a13d d303 41be e384 b1be 4f8e ffbd
00000050: 459d 953e 64ca bcbe 3b3f 613e 2c49 a33e
00000060: 6e40 b73e 3b57 033e e453 c2be 4b71 013f
00000070: 3401 9abe 6650 e03d b3b0 d33d f458 60be
00000080: 9d7e 673e aa32 283f 642f 08be d907 673e
00000090: bb37 993e d3bf 603c 0488 083e b33c f83d
000000a0: 3c76 6e3e c606 843e ced3 323e b452 293e
000000b0: 3391 9a3e 9ca5 c83d 4a18 36bc 001e 9f3d
000000c0: 6939 acbe ec8c 123e 5b93 273e 67a3 863c
000000d0: a21f fbbd c72a d9be 2100 8e3e 8e24 333c
000000e0: 568c 473e 5daf aa3d beb5 963e 458c 113e
000000f0: 59cd 2d3e 89a2 ea3d 3ab3 f93e a311 303e
00000100: 0012 853e 38a0 d43e 26aa f53c 338f 9abd
00000110: b64f d63d f548 373d e4ba 21bd d123 283d
00000120: ec2b afbc f302 9e3c 12b5 593d 7197 933d
00000130: 1f2d 7cbe e4b8 8b3b a72b a23b 8b60 0b3d
00000140: 6f04 4a3f
0.27515262 -0.25902995 -0.13059163 -0.3351773 0.28441334 -0.2774262 -0.056719907 -0.38675392
-0.13607262 -0.2612369 -0.13844787 -0.46345446 -0.29019862 0.18625274 0.03900288 -0.46776998
0.07876233 -0.18849115 -0.34671697 -0.12478315 0.2922155 -0.36873162 0.21996777 0.31891763
0.35791343 0.12826245 -0.37954628 0.50563496 -0.30079043 0.10952835 0.10336437 -0.21908933
0.22606893 0.6570231 -0.13299328 0.22561587 0.2992533 0.013717609 0.13333136 0.121209525
0.2328729 0.25786418 0.1746361 0.16535455 0.30188903 0.097972125 -0.011114189 0.07769394
-0.3363755 0.1431157 0.16364805 0.016435338 -0.12261893 -0.4241545 0.27734473 0.010934008
0.19487128 0.08334229 0.29435533 0.14213665 0.16972865 0.11456782 0.48769552 0.17194228
0.25990295 0.41528487 0.02998836 -0.07546844 0.104644224 0.04474731 -0.039484873 0.041049782
-0.021383248 0.019288516 0.053151198 0.072066195 -0.24626587 0.004263984 0.0049490514 0.034027617
0.78913015

resblocks.0.conv2.depthwise.bias f4 [9]
00000000: 40c3 dd3b 25c9 0ebe c5de 8abe cdc5 1bbf
00000010: 7e89 2fbe 93aa b3be 10ff 01bf 949a 01bf
00000020: db8d 353f
0.0067676604 -0.13943918 -0.27123085 -0.60848695 -0.17142293 -0.35091075 -0.5077982 -0.5062649
0.7091958

resblocks.0.conv2.pointwise.weight f4 [9, 9, 1, 1]
00000000: f8e0 cc3d f95c 353e 136b c73c c0b7 3ebf
00000010: 83da ec3d aab7 aa3d 3fb8 9b3c 72e5 823d
00000020: 2853 c8be 392b 0a3e 51dd 0dbf a4cd 573b
00000030: 8c0a 98bd a7c2 943d 6099 c2be 1ec0 81bd
00000040: 83df 67bb c887 593e 2412 10be a6d2 28bf
00000050: 2fba 3a3d 2178 50be 6523 b7bd e6c9 4f3e
00000060: 2e86 c93b 1429 413e 2f69 653c 171f 6f3e
00000070: ed9b c5be 8630 acbc e9c7 853e cffd bd3c
00000080: 9acf 06bf 03bc d3bd 64f8 27be 28f3 b9be
00000090: c9de a33c bacf 2abe 6218 2fbe 8b9e 3abd
000000a0: 3f45 3a3e e5e2 693e 5f43 ddbd d336 3b3e
000000b0: 6026 5b3f d52e e9be a0ec 4f3e 5fb6 043d
000000c0: d66a 8d3d ae83 a6be b200 9bbd 4e71 b3be
000000d0: 62d5 cebd 67fa 91bc 767e 293e ddac e9bc
000000e0: 829e 543d a904 16bf ae8f 2ebe a331 74bd
000000f0: e821 34be 4f44 61be 07cd 5a3e 5fc1 8b3e
00000100: c7bc e93d 5546 503f 1ad7 a23d 948d 973d
00000110: df10 08bd ecfe 72be c3da 25be 2d25 5c3d
00000120: 8675 a9bd 030f bdbe 4bba 07be c733 c03e
00000130: 2351 c6bb 7431 e73d 4a3c 10bd 3b06 b23e
00000140: c93f 98bd
0.10003847 0.17711248 0.02434305 -0.7449913 0.11565115 0.083358124 0.019008754 0.063914195
-0.39125943 0.1349305 -0.5541583 0.0032928968 -0.07423887 0.072636895 -0.3800764 -0.063354716
-0.0035381026 0.21243203 -0.1406942 -0.65946424 0.045587715 -0.20358326 -0.08942298 0.20291862
0.0061500287 0.18863326 0.0140021285 0.23351704 -0.38595524 -0.021019232 0.26129082 0.023192314
-0.52660525 -0.10338595 -0.16403347 -0.36318326 0.020003693 -0.16680804 -0.17099145 -0.045561355
0.18190478 0.2284046 -0.10803866 0.18282633 0.8560543 -0.45543543 0.20305109 0.032400485
0.06905143 -0.3252234 -0.07568492 -0.35047382 -0.10099293 -0.017819596 0.16552147 -0.02852481
0.051908977 -0.5860086 -0.17046997 -0.05961765 -0.17591059 -0.21998714 0.21367274 0.27295968
0.114129595 0.8135732 0.079511836 0.07400051 -0.033219215 -0.23730057 -0.16196732 0.05374639
-0.08274369 -0.36925516 -0.13254659 0.37539503 -0.0060521527 0.11288729 -0.035213746 0.34770378
-0.07434041

resblocks.0.conv2.pointwise.bias f4 [9]
00000000: 3342 dcbe b4d7 a33e 5ca8 a0bd 9e0d 5b3e
00000010: b9e7 863e 8034 e3bc 422e 923b 5ee9 a7bc
00000020: a3c4 853e
-0.43019256 0.32000506 -0.07844612 0.21391913 0.26348665 -0.027734995 0.004461081 -0.02049702
0.26126584

resblocks.0.in2.weight f4 [9]
00000000: feb5 fb3e 5055 bb3e ba76 433f 6930 773e
00000010: 195c e03e 51a4 073f a0ea 0f3f 34d7 043f
00000020: c1ee d53e
0.49162287 0.36588526 0.7635304 0.24139561 0.43820265 0.529851 0.56217384 0.51890874
0.41783717

resblocks.0.in2.bias f4 [9]
00000000: 6447 c4be c043 5a3e 3e02 18bf 0089 963e
00000010: bc9d 973f c98c 40bf 9006 36bf 8b84 c1be
00000020: bac1 9dbe
-0.38335717 0.21314907 -0.5937842 0.29401398 1.1845012 -0.7521482 -0.71103764 -0.37796435
-0.30811864

resblocks.1.conv1.depthwise.weight f4 [9, 1, 3, 3]
00000000: d329 c23d 5166 d63e 95da 3ebd f7c0 4ebe
00000010: 924c 06bc b695 093c 0ab2 17bf a70a 79be
00000020: ad90 9cbe 66ac c33d 3d51 83bb 1589 633d
00000030: 680c 943c cc58 803d 7bd0 eabe 4ca7 0dbe
00000040: 6729 6cbd 616e 5dbe f4a4 16bf 1378 33bd
00000050: 294c 31be 9819 91be cf86 9e3e a9f0 7e3e
00000060: 83ba 203e 5f70 0b3d 3a1f 3dbc b04d 96be
00000070: 6ee4 0f3e 4d9a c53d c38f 1dbe f094 85be
00000080: ff94 cd3d b460 b23e befb ef3b ba60 ffbe
00000090: d345 223e 1a0e 01be b6ff 013e ce13 963e
000000a0: c8fd 34be 1ef4 1f3e 7a9a 163e 37f4 2abe
000000b0: be1a a63d 94da c8be a098 7c3e 14c9 4fbd
000000c0: 0985 313e 8da3 d2bd 81fd 0f3e 5a48 cf3d
000000d0: 4b13 a53e 6a7b 1bbf b4dc 46bf 2354 1ebe
000000e0: 2385 eebe a8c5 0abf 8701 88be 0341 85bd
000000f0: 6aa1 e53d 0c39 03be b472 27bc fed8 5b3d
00000100: 1483 10bd e9a1 873a 3418 593e 5b8b 68bc
00000110: 9d4a aa3e 185b b53e eefe 1dbd 2629 be3e
00000120: 7a3e 90be bb15 edbd af8b 1dbf eed2 adbe
00000130: 35bb 233e 3187 78be 1052 4c3e 2c49 363e
00000140: 4e39 bbbe
0.094806336 0.41874936 -0.046595175 -0.20190798 -0.008196967 0.00839751 -0.5925604 -0.2432047
-0.3057913 0.09554367 -0.004007487 0.055550653 0.018072322 0.06266937 -0.45862183 -0.1383335
-0.05765667 -0.21624137 -0.5884545 -0.043815684 -0.17314209 -0.2833984 0.30962226 0.24896492
0.15696149 0.034042712 -0.0115430895 -0.29356146 0.14051983 0.09648571 -0.15386872 -0.26090193
0.100381844 0.34839404 0.007323711 -0.49878484 0.15846948 -0.12603036 0.12695202 0.29311985
-0.17674935 0.15620467 0.14707366 -0.16694723 0.081105694 -0.39229262 0.24667597 -0.050728872
0.17335905 -0.10285101 0.14061548 0.10121222 0.32241282 -0.6073519 -0.77680516 -0.15461783
-0.4658595 -0.5420785 -0.26563665 -0.065065406 0.11212428 -0.1281473 -0.010220218 0.053673737
-0.035281256 0.0010347936 0.21200639 -0.014193381 0.3326005 0.35421062 -0.038573198 0.3714077
-0.28172666 -0.115764104 -0.61541265 -0.3394999 0.15989383 -0.24270321 0.1995318 0.1780135
-0.36567158

resblocks.1.conv1.depthwise.bias f4 [9]
00000000: ab7a 0abe ee7c e7be 6c53 063e 203f 7b3e
00000010: b5a2 da3e 5f8c 1dbd efda 86be 8867 933e
00000020: f7a8 c93c
-0.13523357 -0.452125 0.1311776 0.24535799 0.4270226 -0.038463946 -0.26338908 0.28789926
0.024616702

resblocks.1.conv1.pointwise.weight f4 [9, 9, 1, 1]
00000000: 41ef 3d3e 2100 a7be ce72 163e e5ff eb3e
00000010: 728b e0b9 84da 8cbe 8dd7 a3be ee53 573e
00000020: 211d b63e 27ac 663e f0ea 0abf 3d7e a13e
00000030: 185e 24bd 310d b5bd 7002 273e fb80 973e
00000040: 431b 5abe b70a 0bbc eaa4 a23e 6daf 1ebe
00000050: 089a a9bc c84c 86bd e870 a6bc 6b76 343e
00000060: 3570 8ebc a2cc 0b3f 8fd6 2a3e 23ca 393f
00000070: dd0e 93be 076a d1bd 20e3 393e 8aa2 623c
00000080: 62a5 a8bd 3d3b c5be 1880 053e 8347 ac3e
00000090: 1c24 043e 7f80 f73b a93d 743d 28e3 013f
000000a0: 1f0d a4bd ce1f 21bf a023 5bbc 5ee5 21be
000000b0: 1b99 b23c b8a0 513f 0a32 af3d 8518 d23d
000000c0: 9611 60bc 8b57 3f3d 8934 e93d 3033 f23d
000000d0: 9111 d63d 1754 323e fcdd 98be 21b3 21be
000000e0: 270d d3be e02a d13d 241c bcbd 9948 8dbd
000000f0: 0d02 1f3f d5a6 123e 3c18 43be f96b ad3d
00000100: 69ce 5a3e ea9c 4d3e 6155 1b3e 1563 7d3e
00000110: b827 6dbe d8de e53e e9f6 273e 6065 313f
00000120: b38b 70be e645 3f3e 8fc3 133f a3d7 153e
00000130: b0ff afbe 7be7 abbc defb 4e3e 4a06 cabd
00000140: 6c9a 1abe
0.185483 -0.32617286 0.14692232 0.4609367 -0.00042828504 -0.27510464 -0.3200039 0.2102811
0.355691 0.22526608 -0.54264736 0.31541625 -0.040128797 -0.08840407 0.16309524 0.29590592
-0.21299462 -0.008486441 0.31766444 -0.15496607 -0.02070333 -0.065576136 -0.02031751 0.17623298
-0.017387489 0.5460912 0.1668341 0.7257406 -0.28722277 -0.10225301 0.18153048 0.013832698
-0.08234669 -0.38521758 0.13037145 0.3364831 0.129044 0.0075531597 0.059629116 0.5073724
-0.08010315 -0.62939155 -0.013375193 -0.15810153 0.021801522 0.8188586 0.08554466 0.10258583
-0.013676068 0.046714347 0.113869734 0.118261695 0.10452569 0.1741489 -0.2985686 -0.15790989
-0.41220972 0.10213256 -0.09185055 -0.068986125 0.62112504 0.14321454 -0.19052213 0.0846786
0.21367802 0.20079389 0.15169288 0.24744828 -0.23159683 0.4489658 0.16402782 0.6929531
-0.23490791 0.18679008 0.57720274 0.1463304 -0.34374762 -0.020984402 0.20213267 -0.09864481
-0.1509797

resblocks.1.conv1.pointwise.bias f4 [9]
00000000: fe49 3a3d 1db6 523f 6a33 913e c287 833e
00000010: 13cd e93d 62b8 183d 0cf2 84bd 21b6 0fbc
00000020: 82e5 cebe
0.04548072 0.8230913 0.28359538 0.25689512 0.11416068 0.037285216 -0.06491479 -0.00877145
-0.40409476

resblocks.1.in1.weight f4 [9]
00000000: a74f 663f cfa7 413f 2b5d 5d3f 9131 313f
00000010: 2f8c 753f ba30 533f 4a6b 8f3f 64cd f23e
00000020: da77 483f
0.8996529 0.7564668 0.8647029 0.6921626 0.9591703 0.82496226 1.1204617 0.47422326
0.7830788

resblocks.1.in1.bias f4 [9]
00000000: 895a 76be e0ce 8e3f add0 89be 1255 d53e
00000010: 37a3 7dbe 6b7f 603f aa0a 613c 5e26 8d3f
00000020: 46f4 023f
-0.24057974 1.1156883 -0.2691702 0.41666466 -0.24769293 0.87694424 0.013735453 1.1027334
0.5115398

resblocks.1.conv2.depthwise.weight f4 [9, 1, 3, 3]
00000000: 6bc2 95be 03a3 aab7 5477 9fbd dc74 a1bd
00000010: 8795 6dbe 2696 08be b635 41be aafd 8abe
00000020: 8f29 4dbe 56d9 3e3f 8e2d 533e f1c8 03bd
00000030: 1ea4 f93d b98f 67bd aadb d1bd f2df 603e
00000040: d1a4 4d3e 63b3 89be 063a febc 2e98 bc3d
00000050: d87a 53be 5766 973e 7318 a63b 8d17 73be
00000060: 191e d0be 8344 bfbd f0c3 1ebe f042 913e
00000070: bb26 4ebd 6e9a 3c3c f824 b83d 0ccf 12be
00000080: 3b99 8abe e216 903e 49cb eabc 386d acbe
00000090: d90f eebd 659f ecbe 7735 7abe 349e 65bd
000000a0: 3ba2 d43d 7101 f6be 6256 89bc 6e02 ddbc
000000b0: a35c 973e a615 44be 260b b2bd 9113 9dbe
000000c0: 6434 99bd 778b 25be 2f52 dfbd 151f 083f
000000d0: af79 873e bfff a43e af36 9b3e 21c3 6e3e
000000e0: 1459 a4be 6eef cb3e c548 7dbe dd37 69be
000000f0: 7f28 fbbd c042 de3d c695 453e f176 bebe
00000100: 2974 d7be 25ec 35bf 76ac 903e ec97 0ebe
00000110: ae61 803d 5573 09be 82f9 763c f23b 4e3e
00000120: fd74 583e 6c42 933e ae79 7f3e 9ba5 723e
00000130: e560 c4bd 1a35 c03d 9e9a d13e 7e17 963e
00000140: 5b2b 07be
-0.29249892 -2.0341487e-05 -0.07786432 -0.07883617 -0.23201571 -0.13338527 -0.18868145 -0.27146655
-0.20035385 0.7455038 0.20622846 -0.032174055 0.12189506 -0.05653355 -0.10246976 0.21960428
0.20082404 -0.26894674 -0.031033527 0.092087135 -0.2065233 0.29570267 0.0050688325 -0.23739453
-0.40647963 -0.093392394 -0.15504432 0.28371382 -0.050329905 0.011511428 0.08991426 -0.14336795
-0.2707003 0.28142458 -0.028661387 -0.33677077 -0.116241165 -0.46215358 -0.24434458 -0.056059077
0.103825055 -0.48047975 -0.016764823 -0.026978698 0.29562864 -0.19148883 -0.08693533 -0.3067899
-0.07480696 -0.16166483 -0.10904347 0.5317243 0.26460025 0.3222637 0.30315158 0.23316623
-0.3209921 0.39831108 -0.2473479 -0.22775216 -0.122635834 0.10852575 0.19295415 -0.3720012
-0.4208081 -0.7106345 0.28256577 -0.13925141 0.06268631 -0.13422902 0.015074136 0.20140055
0.21138377 0.28761613 0.24948761 0.23695986 -0.09588794 0.09385128 0.40938276 0.29314798
-0.13200133

resblocks.1.conv2.depthwise.bias f4 [9]
00000000: a7af b2be bcf1 a83c 2ffb 263e e1ae b13d
00000010: 7ba6 8d3e 1a97 24bd 9e67 debe de99 883e
00000020: df80 173e
-0.34899637 0.02062308 0.16306756 0.08675934 0.27666077 -0.040183164 -0.4343843 0.2667989
0.14795254

resblocks.1.conv2.pointwise.weight f4 [9, 9, 1, 1]
00000000: b360 a53d a8b1 a9be c009 10bf e925 b73e
00000010: 70c5 dc3d 67e0 fcbe 3e8b 4bbe ff73 183e
00000020: 936b 29be f37d 8bbe db7d 53be 1850 62be
00000030: 1f0a 25be ab8e 9a3d 2375 98be bf71 0cbf
00000040: df09 703e b2ee a8bc edb8 f33d 1034 00bf
00000050: 20bd 933d e5ac 44bc 7375 473e 6db0 573e
00000060: 54a7 cbbe de83 cf3e c64d a33e c257 193e
00000070: 3134 3dbe a401 df3c 82fd 22bc 68dd 723d
00000080: ec4f 8abe 5bab acbe 19dc 1d3f f1c8 9b3b
00000090: 213c 083e 375d c2be 2d8f 90bd 98ce 7dbe
000000a0: d4d3 0d3e c8ce 5f3d bc11 11be d022 afbe
000000b0: 979c 893e 8a8a 5abd 23e2 823d a17b 1cbe
000000c0: 1d13 8abe f0d4 80bd 66ad e53c d741 92bd
000000d0: 1351 e7be e11e 15bf 29b2 2a3e 81e1 e03d
000000e0: 6414 c53d abb4 083f 7973 2cbf e430 03be
000000f0: 41df 7d3e d4ab 2abe a119 3c3e 6a1f df3d
00000100: 0331 963d a5e0 a43e 85eb 25be a17d 17bf
00000110: 978f e43c f033 71be 03a8 9e3d 37b9 6d3c
00000120: d812 84be ae1c 2f3e af44 ca3d 8817 983c
00000130: 3626 89be 4e37 3abe 5ccf 6fbe a523 b5be
00000140: 0845 b43d
0.080750845 -0.33143353 -0.5626488 0.3577111 0.10779846 -0.49389955 -0.19877335 0.14887999
-0.16544943 -0.2724453 -0.20653479 -0.22100866 -0.16117142 0.07546743 -0.29776868 -0.5486106
0.23441266 -0.020621631 0.11900506 -0.5007944 0.07213807 -0.012004112 0.19478397 0.21063395
-0.397761 0.40530294 0.31895274 0.14974883 -0.1847694 0.027222462 -0.009948136 0.05929318
-0.270141 -0.33724484 0.6166397 0.0047541787 0.13304187 -0.37961742 -0.070585586 -0.2478584
0.13850337 0.05464056 -0.14166921 -0.34206247 0.2687728 -0.053354777 0.063907884 -0.15281536
-0.26967707 -0.062906146 0.028036784 -0.07141464 -0.45179042 -0.5825024 0.16669525 0.109805115
0.0962303 0.5340068 -0.673637 -0.12811619 0.24792196 -0.1666711 0.18369152 0.10894664
0.07333567 0.3220264 -0.16203125 -0.5917607 0.0279005 -0.23554969 0.077468894 0.014509491
-0.25795627 0.17100784 0.098763816 0.018565908 -0.26786965 -0.1818516 -0.23418945 -0.35378757
0.08802229

resblocks.1.conv2.pointwise.bias f4 [9]
00000000: dc8f 7b3e eb26 853d fa21 32be e19e 6ebe
00000010: 0731 8abd 287b 7a3d a7ea 4d3c 8a66 9e3d
00000020: cead f23d
0.24566597 0.06501564 -0.17395774 -0.23302795 -0.067476325 0.061152607 0.0125681525 0.077344015
0.11849557

resblocks.1.in2.weight f4 [9]
00000000: 992a 833f 0bc2 9c3f 41bf 5a3f 91b5 d73f
00000010: 3618 773f a3c7 813f a0e6 523f c655 6e3f
00000020: a4c8 a13f
1.0247375 1.2246717 0.8544808 1.6852285 0.9652132 1.0139049 0.82383156 0.9309963
1.2639356

resblocks.1.in2.bias f4 [9]
00000000: 53b5 f73e 5681 0c3f ab16 a93f d805 313e
00000010: 9a27 7f3e f505 4e3e 1cc1 cabc 6a03 05bf
00000020: 94f8 13bd
0.48380527 0.5488485 1.3210043 0.17287385 0.2491745 0.2011946 -0.024750285 -0.51958334
-0.036125734

resblocks.2.conv1.depthwise.weight f4 [9, 1, 3, 3]
00000000: 7a60 64bd fcf1 78be a153 c3be 45ee 88be
00000010: 1eb3 06be 2c06 3dbe fa25 37bc c850 24be
00000020: b939 5fbe bf5f ca3e a65f febc ace7 07bf
00000030: bb48 e4be 2818 573e 2dd8 4c3e d6e5 743e
00000040: 9c8e 6f3c 51fb ce3d b202 413e 0560 4bbd
00000050: 45d1 cebd 9ec2 b1be 9980 ec3e bfa3 193d
00000060: 94d3 abbe 3824 37bf b50a 2a3e 2034 da3e
00000070: d85e 4c3e 6a4e 673e 8806 6b3e c610 2bbe
00000080: 4b7d 6d3e 39d9 843e bf7d 013d 3ff9 9b3c
00000090: 927e a8bd fa4a 5c3a 8d34 cd3d 8296 a5be
000000a0: 394e 003b 5763 9f3e 4162 4cbe 91ef bdbe
000000b0: a78f 2b3d 70a6 793e fb7d 87bd 2fe0 e83d
000000c0: 18a4 b73d 44be b83b dfac ee3d 4c1a c23e
000000d0: a7cf 573e 9c16 c93d db8c 033e ae20 3cbe
000000e0: abb0 94be 665e b43e 6016 733d a580 7f3e
000000f0: f61c 5cbe 3871 d0be 075d b83e 5224 893c
00000100: 5101 573e 9113 3fbd 3452 943e 7f7c 08be
00000110: 8821 0d3f 59bb bfbd 2867 6e3e 36c9 cf3d
00000120: 40dd 03be 6aa6 f23c 6235 12bd 0562 823e
00000130: 06b7 d5be 2e64 bf3c e5d4 98be 5849 b33e
00000140: 3a00 92be
-0.05575607 -0.2431106 -0.3814974 -0.26744285 -0.13154265 -0.18459386 -0.011178488 -0.1604644
-0.21799363 0.39526173 -0.031051468 -0.5308788 -0.4458674 0.21005309 0.2000434 0.239158
0.014621403 0.101065286 0.18848684 -0.04965212 -0.10098509 -0.34718794 0.46191862 0.037509676
-0.3355986 -0.7153964 0.16605647 0.42617893 0.19958055 0.22588506 0.2295171 -0.16705617
0.23192327 0.25946978 0.03161406 0.019039748 -0.08227266 0.00084035064 0.10019789 -0.3234139
0.0019577874 0.31130478 -0.19959356 -0.37096837 0.041885044 0.24379897 -0.06615826 0.113708846
0.08966845 0.005637916 0.11654066 0.37910688 0.21075307 0.098187655 0.12846701 -0.18371841
-0.29041037 0.3522827 0.05934751 0.24951418 -0.21495423 -0.4071138 0.36008474 0.016740952
0.20996596 -0.04664952 0.28968966 -0.13328741 0.5512929 -0.093619056 0.23281538 0.101458
-0.12877369 0.029620368 -0.03569544 0.25465408 -0.41741198 0.0233632 -0.29849926 0.35016894
-0.28515798

resblocks.2.conv1.depthwise.bias f4 [9]
00000000: abf1 e2bd 6bae 46be cbca 6bbe 6629 83be
00000010: 6495 e8bc 4bdf 19bf 3bf1 f6bd 4af5 a13e
00000020: 5eaf 75be
-0.11081251 -0.19402473 -0.23026578 -0.25617522 -0.028391548 -0.60106343 -0.1205773 0.31632453
-0.23992679

resblocks.2.conv1.pointwise.weight f4 [9, 9, 1, 1]
00000000: 67f8 8e3c c2d7 76bd 95d1 33be f9db 14bf
00000010: cd21 0dbe c05f c5be c9ec 0bbd b534 30be
00000020: a276 f5bd a276 933e 287a 7ebe 4aea 53be
00000030: a972 5fbe bfed e63c c5ea ed3e f508 0abd
00000040: c10c 01be 3b32 483e 8097 c53d 3671 213e
00000050: bbf2 93be 14b5 b63e ec44 d0bd 04c7 24be
00000060: 34f0 e03c 3b9a 8bbc c6ea 6ebe e4bc 1ebe
00000070: 5efe 36bf 11c0 843a 7c68 2b3d a523 e43d
00000080: 7027 b23d 3019 0b3e fc65 aabe ebe6 ca3e
00000090: 9948 853e f5d8 bfbd e6bd 36be 37bd 10be
000000a0: 82f3 cf3e 2ec2 64bd 9b30 073f 1e70 a5be
000000b0: 46d3 87be cf5a 993d a429 a93c b1c0 b3bd
000000c0: d3a0 febc 0caa 7b3e ae82 88bd 2931 843e
000000d0: 5cb9 de3e fbf4 3b3f 6966 9b3d 6dfe a3bd
000000e0: 7d0c e83e 5e23 103e 9ffb 2cbe e55a eabd
000000f0: d2e4 f9bc 44a9 7a3e 16c0 d03e f68c 8ebd
00000100: 881d d63e e323 393e 1b92 033f 6164 783e
00000110: f53b 3e3e e5b3 51bd 4139 ae3e 0112 b9be
00000120: 7dad 89bd a770 61be a826 573e 29d8 efbd
00000130: 473b acbd 988f 0bbe 2575 5d3f ea6b 16bd
00000140: 8fc7 68bd
0.017452432 -0.060264356 -0.17560418 -0.5814815 -0.13782425 -0.38549614 -0.034161363 -0.17207606
-0.11985518 0.28801447 -0.24851286 -0.20694843 -0.21821083 0.028189538 0.46468177 -0.03369995
-0.12602521 0.19550411 0.09648037 0.15765843 -0.28896126 0.35685027 -0.10169396 -0.16091543
0.027458288 -0.017041316 -0.23331746 -0.15501744 -0.71481884 0.0010128041 0.04184769 0.11139611
0.08698928 0.13583827 -0.33280933 0.396293 0.2603195 -0.09367553 -0.17845878 -0.1413468
0.4061547 -0.055849247 0.5280854 -0.323121 -0.26528376 0.074880235 0.020649739 -0.08776987
-0.031082546 0.24576586 -0.0666555 0.25818756 0.43500793 0.73420686 0.075878926 -0.08007512
0.45322028 0.14075992 -0.16892861 -0.11443118 -0.030504618 0.24478632 0.4077155 -0.0696048
0.41819406 0.18080096 0.51394814 0.24257042 0.1857756 -0.05119695 0.34028056 -0.36146548
-0.067225434 -0.2201563 0.2101084 -0.11711151 -0.08409744 -0.13628995 0.86506873 -0.03672401
-0.05683094

resblocks.2.conv1.pointwise.bias f4 [9]
00000000: b769 c7bc d015 2fbe 36b4 adbe 2413 d6be
00000010: bbe9 0e3e 0419 0fbe 34cb 753e d8d2 13bf
00000020: 716f d63e
-0.024342401 -0.17098165 -0.33926553 -0.41811478 0.13956349 -0.13974386 0.24003297 -0.577436
0.41881898

resblocks.2.in1.weight f4 [9]
00000000: 30b8 943f 8949 8c3f 758b 373f a19c 5e3f
00000010: 3bf1 883f df5d 743f 92c6 6b3f e14e 3e3f
00000020: 83a5 583f
1.161871 1.0959941 0.7169717 0.86957747 1.0698618 0.95455736 0.9209987 0.7433911
0.8462755

resblocks.2.in1.bias f4 [9]
00000000: 8ec4 913e 4ff3 fb3e 582b a13f 6f5a b53d
00000010: c26d 9e3c fdc2 b93d 5f67 463e c02f 59bf
00000020: 82d2 603d
0.28470272 0.49209067 1.2591352 0.088551395 0.019339446 0.09070394 0.1937537 -0.84838486
0.054888256

resblocks.2.conv2.depthwise.weight f4 [9, 1, 3, 3]
00000000: 4952 7ebe 55f7 84bc 5cdf 98be ffa8 f0bd
00000010: 6833 133f 49d4 dbbd b740 1bbe 33bd d93d
00000020: 8fcc 59be 0382 98be 04d4 11bd 15b5 35be
00000030: 2173 693e ca02 a03e a035 9c3e 4e64 8abe
00000040: b9e8 6cbd 4140 22bf dfa3 ac3d 0f74 3a3e
00000050: d043 033f 8564 ea3d 2bb3 92bd 9e0c aa3c
00000060: f1a6 0b3e 7eff 89be 1722 933d f1df 583d
00000070: b838 203e 4331 fb3c f4df 093d c0e1 39be
00000080: ee4f aabe fb59 8fbe c3c6 d8bd 8322 283e
00000090: aee1 0cbf 0c11 6cbd 9242 34be 8d74 ccbd
000000a0: b13d 2f3d dfbc cabd 0c43 46be edf6 d93d
000000b0: eab9 553e 45ce 9b3e 4546 83bd 192a 50be
000000c0: 3b9d d23c 6f5d 42be 9bae 8b3e 0d9d 0fbd
000000d0: 0277 f1bb fb86 a73e cd16 50bd 3a55 103f
000000e0: 5ef5 093e 7e04 693d 60d8 7ebe 5774 a73d
000000f0: 5740 323c bcdc 8d3d cae2 543c c411 913e
00000100: 29ad 2e3d 2237 763e 33a3 1b3f 4a34 113e
00000110: f8ea cf3d 7dd1 d33e 04fd 4abd bf96 313c
00000120: f72b 1c3e bd75 92bd 6619 b6bd 9b1e 9c3e
00000130: f53e fa3d 4506 703e 2d8f ca3c 9b9b a3bd
00000140: 981c af3e
-0.24836077 -0.016231218 -0.2985791 -0.117509834 0.57500315 -0.107338496 -0.15161406 0.1063179
-0.21269439 -0.2978669 -0.035602584 -0.17744859 0.22797824 0.31252128 0.30509663 -0.2702965
-0.05783913 -0.63379294 0.084296934 0.18208335 0.5127535 0.11444954 -0.0716308 0.02075797
0.13637902 -0.26952738 0.071842365 0.052947942 0.15646636 0.030663138 0.033660844 -0.18152523
-0.33264107 -0.27998337 -0.10584786 0.16419415 -0.5503186 -0.057633445 -0.1760352 -0.09983168
0.042783443 -0.098993056 -0.19361514 0.106428005 0.20871702 0.3043081 -0.06409887 -0.20328559
0.025709739 -0.18980955 0.2728165 -0.035061885 -0.007368923 0.3272017 -0.050802995 0.56380045
0.13472506 0.05688905 -0.24887228 0.08176487 0.010879598 0.06926867 0.012993524 0.28333867
0.042645607 0.24044469 0.607959 0.14180103 0.101522386 0.41370764 -0.0495577 0.010839163
0.15251146 -0.07151363 -0.08891563 0.304921 0.12219039 0.23439892 0.024726475 -0.07988664
0.34201503

resblocks.2.conv2.depthwise.bias f4 [9]
00000000: d073 0b3e b8ee be3d c21a 9abd 37c5 79be
00000010: c65e 1cbf a335 263e 486f 5e3d 27c2 ba3d
00000020: 4765 b3be
0.13618398 0.09322876 -0.07524635 -0.24391638 -0.6108211 0.16231398 0.054305345 0.09119063
-0.35038206

resblocks.2.conv2.pointwise.weight f4 [9, 9, 1, 1]
00000000: b00c 8b3c ec1f be3e 0fa2 e0bd e0ec 553e
00000010: 90a9 77be 1359 90be 3438 833e edd3 f53d
00000020: 256a 7e3e 42cf 503e e1c8 c7be f463 0b3d
00000030: e058 6f3e 7b1c 55bc 1ac9 903e 1ccb 65be
00000040: 3f67 37be da90 e3be 222e 853c c118 a9be
00000050: 415f 1ebf 9971 c6be 005d 923d dd55 3fbd
00000060: 21b6 133e 51e6 afbc a75e d23c 7335 d6be
00000070: 0170 e8bd 2da4 373b f503 ea3e f549 f63e
00000080: 7825 a4bb 6eb2 673e d432 85bd ffaf 44be
00000090: 2466 acbe 47e5 00be 5434 793e addd b23d
000000a0: 1141 9f3e 1608 97bd 84ef be3e 61f3 7cbc
000000b0: 2a8b 363e b2d8 8dbe a40e 063e 3d97 4f3d
000000c0: 89db 723e 4bf7 f2bd b09a 33bd 7f0e 513e
000000d0: 3d12 10bf f530 853e d663 76bf 2dc5 7fbe
000000e0: 9ba2 f6be 8c3d 69bd f689 98be d8d6 8ebe
000000f0: 39a7 c0bc e5f8 d0be 6937 a1bb 68f7 fdbd
00000100: 0de5 733e 55ce 203d 6d4a 91bd 2680 133d
00000110: 5c7c 87be fe94 24be 86e9 16bf 8723 98bd
00000120: 54e8 893e 34e1 6ebd 263f cf3e 5ebd 653d
00000130: 2bf6 aabe e33f 9f3e a1f2 b03e d368 693d
00000140: 4070 36bd
0.016973823 0.3713373 -0.1096841 0.20891142 -0.24185777 -0.28192958 0.25628817 0.12003312
0.24845178 0.20391563 -0.39020446 0.03403087 0.23373747 -0.013007279 0.28278428 -0.22440761
-0.17910479 -0.4444645 0.01625735 -0.33026698 -0.61864096 -0.38758543 0.071466446 -0.046712745
0.14424945 -0.021472128 0.0256799 -0.41837654 -0.11349488 0.002802144 0.45706144 0.481033
-0.0050093494 0.2262666 -0.06503835 -0.19207762 -0.33671677 -0.12587462 0.24336368 0.087336875
0.3110433 -0.07374589 0.3729211 -0.015438885 0.17826524 -0.27704388 0.13091522 0.05068134
0.23716559 -0.11863574 -0.043848693 0.20415686 -0.5627783 0.26013914 -0.9624609 -0.2497756
-0.48170933 -0.05694346 -0.29792756 -0.27898288 -0.023517238 -0.4081489 -0.0049199355 -0.124007046
0.23817845 0.039259274 -0.07094274 0.036010884 -0.26462066 -0.16072461 -0.5895008 -0.07428651
0.26935065 -0.05832024 0.40477866 0.056088798 -0.33390936 0.3110343 0.3456011 0.056984734
-0.044540644

resblocks.2.conv2.pointwise.bias f4 [9]
00000000: 6282 af3b ca56 373e d58d 103e 3a65 47be
00000010: beb3 8ebe 2e72 a13e 38f0 67bd 485c c33d
00000020: 0d56 2c3e
0.005356119 0.17904201 0.14116605 -0.19472209 -0.27871507 0.31532425 -0.056625575 0.095390856
0.16829701

resblocks.2.in2.weight f4 [9]
00000000: d67b cf3f 04ec 9c3f 9451 db3f 21f4 fb3f
00000010: 328a 6c3f bd9d e73f 1695 d13f 305f 0540
00000020: 3141 f73f
1.6209667 1.2259526 1.7134271 1.9683877 0.9239837 1.8095013 1.6373622 2.0839348
1.931677

resblocks.2.in2.bias f4 [9]
00000000: 6399 d13f 95a3 f23f 0386 9bbd dc3b eb3f
00000010: b507 0840 2a05 a03f 0082 873f e0c5 6a3e
00000020: 6334 ae3e
1.6374935 1.8956171 -0.0759392 1.8377643 2.1254704 1.2501576 1.0586548 0.22927046
0.34024343

deconv1.depthwise_separable_conv.depthwise.weight f4 [9, 1, 3, 3]
00000000: 37ee 1cbe 61dd ddbe 44a4 10bd 67fc 993d
00000010: c0e9 eebd d038 44be 52a2 63be daee ca3d
00000020: 5994 30be 41e0 cfbb 0958 9b3e 233d 963d
00000030: 82f8 fd3e fd14 c6bd 4f04 f03c d29f a13d
00000040: b169 a13c 3ad6 b43e d620 cebd 3c46 243e
00000050: af95 d63d 8d49 b03b 9ef1 8c3e be66 bc3e
00000060: faf2 dd3e 3cc5 fb3e 2fe4 ae3d cc3f 16be
00000070: ac5f a83e e068 073e 3313 a23e 328c 663e
00000080: 2519 613e 2bf4 683e 64ef 2dbd 068b 503c
00000090: 68d5 073e fd4b f63e b9d7 d8ba c0df a9be
000000a0: ba32 c2be 34ab a4bd a972 5bbe 14f8 fabd
000000b0: c942 4ebe d157 7e3e 985f 313e 1dc6 5c3e
000000c0: 5b62 c13e a5d4 883d 32b6 c3be f04d 653c
000000d0: 6c21 393f be94 453e 1d3b 95be 163d 0cbe
000000e0: e9c0 49be b746 1abe 7ad4 853e d1f0 86be
000000f0: e2ee a6be 7bd5 f0bc 74ad abbe e1d3 0ebf
00000100: fe8f 4dbe 6254 c8be 4504 a5be bdbf 8e3d
00000110: 3df0 6ebe 9f4e e6be 6049 14be 45ac 5abf
00000120: e072 ddbd 315c d7be 52e1 7cbd a263 bbbd
00000130: 728e 023e 40c0 7abe e0cf 20bd 516c debd
00000140: a28a 87bc
-0.15325247 -0.4333296 -0.035312906 0.07518845 -0.11665678 -0.19162297 -0.22229889 0.099088386
-0.1724409 -0.006343872 0.30340603 0.0733588 0.4960366 -0.09671972 0.02929893 0.078918114
0.019703718 0.35319692 -0.10064857 0.16042417 0.10477769 0.0053798617 0.2752809 0.36797136
0.4334944 0.49173915 0.08539616 -0.14672774 0.32885492 0.132236 0.31655273 0.22514418
0.21982248 0.22749393 -0.04246463 0.012728458 0.13265002 0.4810485 -0.0016543783 -0.3317852
-0.37929326 -0.08040467 -0.21430458 -0.122543484 -0.20142664 0.24838187 0.17321622 0.21559949
0.37770352 0.06681184 -0.38224941 0.0139956325 0.7231662 0.19295022 -0.29146662 -0.13695177
-0.19702496 -0.15066038 0.2613867 -0.26355603 -0.32604128 -0.02939867 -0.33530772 -0.5579205
-0.2007446 -0.3912688 -0.3222982 0.06970165 -0.23333831 -0.44981858 -0.14481115 -0.8541911
-0.10812926 -0.42062524 -0.06173832 -0.09149863 0.12749651 -0.244874 -0.039260745 -0.108605035
-0.016545597

deconv1.depthwise_separable_conv.depthwise.bias f4 [9]
00000000: 5972 2cbc 6ed1 3ebe b5c2 20be 1288 d1be
00000010: fc28 fd3e 3604 be3d 4831 97be 9340 343e
00000020: c27f 44be
-0.0105253095 -0.18634579 -0.15699275 -0.40924126 0.4944533 0.09278147 -0.29529786 0.17602758
-0.1918936

deconv1.depthwise_separable_conv.pointwise.weight f4 [9, 9, 1, 1]
00000000: 64d5 6c3d de5e c4be 46d4 a13e 27cc 0d3e
00000010: 7679 db3d c998 2abe ac6a 643e 560d 1c3f
00000020: fd69 8cbe c018 1ebe aca9 97bd f8fd 153e
00000030: a682 263d ad60 2dbe 13f1 59bd 83e2 33bf
00000040: ca2a 663d f663 c23e 3e4e 253e 233f 65bc
00000050: 794e 8bbd 0a87 49be 12b6 333f 3720 123e
00000060: 2b09 3ebd 0023 063e 4853 803d 6a6a 37be
00000070: b924 113e 1163 243e 109a aa3d fad4 a23d
00000080: b579 ecbe 7105 853e 2f61 0e3f 894a 80be
00000090: b167 dd3e 7161 62be 854a ea3e 93a1 c6be
000000a0: 3403 913d d0d2 91be 88fe c13d 5895 72bc
000000b0: ca3f 81be a33d 99be a1a4 f8be e2c2 8abe
000000c0: a637 24be ee49 d4bd 25c7 8b3e 7e7c c23e
000000d0: 326f 79be 9315 a33e 15f9 a23e db07 e1be
000000e0: eddb 1a3e 3a4e 91be 0edf ddbd 0013 fd3d
000000f0: 2faf c3bd 73dd e33e 438a 97be 3baf b2bd
00000100: d958 93be 2778 b0bd 9d98 3ebc 9e0b e93c
00000110: 84bf 0fbf 843e 4d3d 48db b33e dda5 bf3e
00000120: db3b 633e 5d87 cfbd 31e1 f43e a32c a0be
00000130: 5a5e 97bc 1f1c 90bd 5ff0 013f eead 83bd
00000140: 2017 13be
0.057820693 -0.38353628 0.31607264 0.13847409 0.10716526 -0.16659845 0.22306317 0.6095785
-0.27424613 -0.15439129 -0.07405409 0.14647663 0.04065194 -0.1693141 -0.053208422 -0.70267504
0.05619315 0.3796689 0.16143128 -0.013992104 -0.06802077 -0.1968042 0.7019969 0.14270101
-0.046395462 0.13099289 0.06265885 -0.17911687 0.14174165 0.16053416 0.08330166 0.07950778
-0.46186605 0.25980714 0.5561704 -0.25056866 0.43243173 -0.22107483 0.4575998 -0.38795146
0.07080689 -0.2848115 0.09472376 -0.014806114 -0.2524398 -0.29929838 -0.48563102 -0.2710181
-0.16036853 -0.103656635 0.27300373 0.37985605 -0.24358824 0.31852397 0.3183066 -0.43951306
0.15122958 -0.28379995 -0.1083356 0.123571396 -0.09554898 0.4450489 -0.29597673 -0.08724829
-0.28778723 -0.08616667 -0.0116330655 0.028447922 -0.56151605 0.050108448 0.35128236 0.3743123
0.22190802 -0.1013324 0.47828057 -0.31284055 -0.018477608 -0.07036614 0.507574 -0.06429659
-0.1436429

deconv1.depthwise_separable_conv.pointwise.bias f4 [9]
00000000: dee8 403e c49b 36bd 6b7a d43d a75a 2a3e
00000010: 18b5 553e ee73 be3e 0557 b1be 8db6 9b3e
00000020: b1ff 01bf
0.18838832 -0.044582143 0.10374912 0.16636144 0.20869863 0.37197822 -0.34636703 0.30412713
-0.5078078
