test/smalleffmodel.pth (torch, 287284 bytes, 82 tensors)

conv1.group_conv.weight f4 [32, 3, 9, 9]
0	0x3ef339f2	0.47505146
1	0x3eb60565	0.3555099
2	0x3e8cbd90	0.27488375
3	0x3e8e27a1	0.2776461
4	0x3e5abece	0.21361849
5	0x3e4e7b72	0.20164278
6	0x3e5f4609	0.2180406
7	0x3e754858	0.23953378
8	0x3eb19003	0.34680185
9	0x3ea0cce2	0.31406313
10	0x3e87f0e0	0.2655096
11	0x3e4b264e	0.19838831
12	0x3e2cf69a	0.16890946
13	0x3e16441d	0.1467442
14	0x3e25ffe7	0.162109
15	0x3e0f1782	0.13973811
16	0x3e3096ed	0.17245074
17	0x3e5b1798	0.21395719
18	0x3e9ca0a9	0.30591324
19	0x3e52295a	0.20523587
20	0x3dec17f1	0.11528004
21	0x3dc0ee37	0.09420436
22	0x3d8a9db7	0.06768363
23	0x3e1088ee	0.14114735
24	0x3cf11ff4	0.029434182
25	0x3db08add	0.08620236
26	0x3e198e41	0.14995672
27	0x3e7df013	0.24798612
28	0x3e162eb6	0.14666256
29	0x3c9e8011	0.019348176
30	0x3e141ad0	0.14463353
31	0x3cd6209d	0.026138598
32	0x3e5044a9	0.20338692
33	0x3df62d5d	0.12020371
34	0x3e1388b0	0.14407611
35	0x3e50e02f	0.20398019
36	0x3e51e32c	0.20496815
37	0x3e52d203	0.20587926
38	0x3da070b3	0.07833996
39	0x3db1cf9b	0.08682176
40	0x3d4ab347	0.04948738
41	0x3e0ce073	0.13757496
42	0x3db623d4	0.088935524
43	0x3e40f806	0.18844613
44	0x3e105b06	0.14097223
45	0x3decca5c	0.115620345
46	0x3e4ffdea	0.20311704
47	0x3df80352	0.12110008
48	0x3e81272e	0.25225204
49	0x3dd76c55	0.105187096
50	0x3e45e2df	0.19324826
51	0x3da57861	0.08079601
52	0x3dfa6647	0.12226539
53	0x3e80e1c0	0.25172234
54	0x3d923dac	0.07140669
55	0x3e126eea	0.14300123
56	0x3da5bf26	0.08093099
57	0x3e65bd27	0.22435437
58	0x3e26335e	0.16230533
59	0x3e086fec	0.13323945
60	0x3cb4fb1d	0.022092396
61	0x3d88ec82	0.06685735
62	0x3e217bb6	0.15769848
63	0x3c79c9b8	0.015245847
64	0x3e06f826	0.13180599
65	0x3daa25bc	0.083079785
66	0x3e94574a	0.28972846
67	0x3dfdf552	0.12400307
68	0x3e4e0c0b	0.20121782
69	0x3ddfa6d7	0.10920494
70	0x3e878721	0.26470283
71	0x3e722e51	0.23650481
72	0xbd99ad57	-0.07503765
73	0xbd446a55	-0.04795297
74	0xbd2f1317	-0.042742815
75	0x3d8b411a	0.067995265
76	0x3d74fef0	0.05981344
77	0x3e7cc7b2	0.24685553
78	0x3e387390	0.18012834
79	0x3e6b597c	0.22983354
80	0x3db59d4f	0.08867895
81	0xbe964f67	-0.29357454
82	0xbe46aed6	-0.19402632
83	0xbe8d8864	-0.2764312
84	0xbe8c6f47	-0.27428648
85	0xbeb12ceb	-0.34604582
86	0xbe96c2ed	-0.29445592
87	0xbe8dbcf5	-0.27683225
88	0xbe852845	-0.26007286
89	0xbe4efd54	-0.20213825
90	0xbe6efc78	-0.23338497
91	0xbe811410	-0.2521062
92	0xbe4b600c	-0.19860858
93	0xbe8959f2	-0.26826435
94	0xbec46d42	-0.38364607
95	0xbe9f7e2e	-0.31150955
96	0xbe1c7065	-0.1527725
97	0xbe524f6e	-0.20538113
98	0xbe779938	-0.24179542
99	0xbeb268e9	-0.34845665
100	0xbe87154b	-0.26383433
101	0xbe7ca3f0	-0.24671912
102	0xbea54f8a	-0.32287246
103	0xbed15f65	-0.40893093
104	0xbe8eaba4	-0.27865326
105	0xbea02625	-0.31279102
106	0xbe7a16e7	-0.24422799
107	0xbea085ac	-0.31351984
108	0xbeaf8143	-0.34278306
109	0xbe8f15bc	-0.2794627
110	0xbe7a8909	-0.24466337
111	0xbe863d61	-0.26218703
112	0xbe90da6c	-0.28291643
113	0xbe554c0e	-0.20829794
114	0xbe7a0417	-0.24415623
115	0xbe0fd590	-0.14046311
116	0xbe8e3266	-0.27772826
117	0xbec98e3b	-0.39366326
118	0xbe55dd5b	-0.20885222
119	0xbea5dfff	-0.32397458
120	0xbe4a60d2	-0.19763497
121	0xbea653ea	-0.32485896
122	0xbdff595f	-0.12468218
123	0xbe9e6608	-0.3093722
124	0xbe7163ca	-0.23573223
125	0xbedd2d32	-0.43198544
126	0xbe9f4e70	-0.3111453
127	0xbdee2e60	-0.11629939
128	0xbdcf6fbd	-0.10128734
129	0xbcab2c75	-0.020895222
130	0xbdc5aa01	-0.09651566
131	0xba9a07f3	-0.0011751637
132	0xbe8dc065	-0.27685848
133	0xbdf38c65	-0.118920125
134	0xbea980b6	-0.3310601
135	0xbec6e960	-0.38849926
136	0xbe18e907	-0.14932643
137	0xbe714287	-0.23560534
138	0x3b999ba1	0.004687742
139	0xbe6a3c4f	-0.22874568
140	0xbdc8a1e2	-0.09796502
141	0xbec10598	-0.3769958
142	0xbe488fa0	-0.19586039
143	0xbeebc86f	-0.46051356
144	0xbeb115eb	-0.34587035
145	0xbd84520b	-0.06460961
146	0xbdd3221a	-0.10309239
147	0x3cbc3e59	0.022978948
148	0xbe00f67f	-0.12594031
149	0xbdf7d1b7	-0.12100547
150	0xbe4e2888	-0.20132649
151	0xbe62159e	-0.22078559
152	0xbebbf0f7	-0.3670728
153	0xbf321375	-0.6956094
154	0xbe8f96f8	-0.28044868
155	0xbed42e81	-0.4144173
156	0xbe795d74	-0.24352056
157	0xbea4691d	-0.32111445
158	0xbe3a3636	-0.18184742
159	0xbebcc497	-0.36868736
160	0xbe91e744	-0.28496754
161	0xbf0eb6fe	-0.55747974
162	0x3e2a6bd6	0.16642699
163	0x3d993433	0.07480659
164	0x3e3dce5a	0.18535748
165	0x3da732c1	0.081639774
166	0x3cb77947	0.022396697
167	0x3d5dbae8	0.054133326
168	0x3d98d5e8	0.074626744
169	0xbaf6d8fe	-0.0018832979
170	0x3cbdd017	0.023170514
171	0x3e0a0c45	0.13481243
172	0x3e0adc16	0.13560519
173	0x3dbf0f99	0.09329147
174	0x3af69a52	0.0018814302
175	0x3bac9e60	0.005267903
176	0xbc488d2b	-0.012240688
177	0x3d97cf0e	0.074125394
178	0x3dbeedac	0.09322676
179	0xbc9f7b50	-0.01946798
180	0x3e043ca0	0.12913752
181	0x3de251fb	0.11050793
182	0x3d2b01b2	0.041749664
183	0xbce7d089	-0.02829768
184	0x3cc50aa0	0.024052918
185	0x3d3913cc	0.045184895
186	0xbb924759	-0.0044640717
187	0x3c86c92c	0.016453348
188	0xbc38019e	-0.011230854
189	0x3da3c382	0.079962745
190	0x3c354d79	0.011065834
191	0xbd748210	-0.05969435
192	0x3d12d0b1	0.035843555
193	0x3d465aae	0.048426323
194	0x3d652fff	0.055953976
195	0xbcb49732	-0.022044752
196	0x3daafce2	0.08349015
197	0x3c634715	0.013871928
198	0xbb9dbdb5	-0.0048138746
199	0x3d62dff4	0.05538936
200	0xbdc454b2	-0.09586467
201	0x3aecee77	0.0018076439
202	0xbca0d7cd	-0.019634152
203	0x3d859892	0.06523241
204	0xbd6c6f54	-0.05772336
205	0x3cbf0956	0.023319881
206	0xbdc1eb95	-0.09468762
207	0xbddc736f	-0.10764205
208	0x3d9251e5	0.071445264
209	0x3d27cf7c	0.040969357
210	0x3e223762	0.1584144
211	0x3cae187b	0.021251908
212	0x3d73ad6b	0.059491556
213	0xbd2b5e1b	-0.041837793
214	0x3da77213	0.08176055
215	0x3d6f5d39	0.058438513
216	0xbdcfc02c	-0.10144076
217	0x3d55a816	0.052162252
218	0x3b5639b8	0.0032688212
219	0x3d9fec47	0.07808738
220	0xbdbbcbe2	-0.09169747
221	0x3dd0de7d	0.10198686
222	0xbde47322	-0.11154772
223	0x3c0ab72d	0.008466524
224	0xbe1d364a	-0.15352741
225	0xbd2ee94a	-0.04270295
226	0x3e09e36a	0.13465658
227	0x3d0d8996	0.03455504
228	0x3db01909	0.08598525
229	0xbd100a26	-0.03516593
230	0x3daaf507	0.083475165
231	0x3da2e893	0.07954516
232	0x3e0ae4e7	0.13563882
233	0x3d780b2d	0.060557533
234	0xbe600ec4	-0.21880633
235	0xbcdf0bdb	-0.027227333
236	0xbdbd0b04	-0.09230617
237	0xbd3f730c	-0.046740577
238	0xbded3be0	-0.11583686
239	0xb9eed69e	-0.000455548
240	0x3b8e56fc	0.0043438654
241	0xbc9c0377	-0.01904462
242	0xbe1f2b5d	-0.15543886
243	0x3ede1aba	0.43379766
244	0x3e9dd557	0.30826828
245	0x3e384499	0.17994918
246	0x3dcfa34d	0.10138569
247	0x3c9d3118	0.019188449
248	0x3db0c890	0.08632004
249	0xbe21778d	-0.15768261
250	0xbe3bda03	-0.18344884
251	0xbf01fff7	-0.50781196
252	0x3ebe22a7	0.37135813
253	0x3e14c646	0.1452876
254	0x3e1272f5	0.14301665
255	0xbd79467a	-0.060858227

conv1.group_conv.bias f4 [32]
0	0xbd87fec6	-0.06640391
1	0xbd9f4994	-0.07777706
2	0x3ba58503	0.0050512566
3	0xbd8a6885	-0.06758217
4	0x3de4456a	0.11146052
5	0xbd09583f	-0.033531424
6	0x3d192239	0.037386153
7	0xbc4ceeb8	-0.012508087
8	0x3dcbfe38	0.09960598
9	0x3e89ac15	0.268891
10	0xbc74c18e	-0.014938725
11	0x3e2f291a	0.17105523
12	0xbe095941	-0.13412954
13	0xbdd8a0b8	-0.1057753
14	0xbdfc5154	-0.123201996
15	0xbd9d028b	-0.07666501
16	0xbd74d87f	-0.05977678
17	0xbd0e0650	-0.03467399
18	0xbdc537df	-0.09629797
19	0xbdce3821	-0.100692995
20	0x3d22c8fb	0.03974245
21	0x3d876f8f	0.06613075
22	0xbe06c3f0	-0.13160682
23	0x3c2aca3d	0.010424194
24	0x3c312b21	0.010813505
25	0x3e01f7f5	0.12692244
26	0x3da6364b	0.08115824
27	0x3db065f6	0.086131975
28	0xbe040542	-0.1289263
29	0x3d8dbf5e	0.06921266
30	0x3d20e89e	0.03928434
31	0x3d315fb0	0.043304145

conv1.pointwise_conv.weight f4 [32, 32, 1, 1]
0	0x3e71d32f	0.23615716
1	0x3d075551	0.03304035
2	0x3f828d42	1.0199358
3	0xbcb8e741	-0.022571208
4	0x3ebb750a	0.3661273
5	0xbebc320b	-0.3675693
6	0x3ea5b0c3	0.3236142
7	0x3d8efb8b	0.06981572
8	0xbd3dd9de	-0.046350352
9	0x3e4c44e4	0.19948155
10	0xbe833d90	-0.25632906
11	0x3b6c9bb8	0.0036103558
12	0xbe4b36a4	-0.19845062
13	0xbe5a91e8	-0.21344721
14	0x3e3108a5	0.17288454
15	0xbe774c1f	-0.24150132
16	0x3dede11e	0.11615203
17	0xbe02e446	-0.12782392
18	0x3e747fed	0.23876925
19	0xbdbc8a13	-0.09206023
20	0xbe39962e	-0.18123695
21	0xbe0a8a87	-0.13529406
22	0xbe65e93c	-0.22452253
23	0xbc67bd91	-0.014144317
24	0xbe4efe70	-0.20214248
25	0x3e6d67b3	0.2318409
26	0xbcaa9610	-0.020823509
27	0x3c60ce2a	0.013721028
28	0xbdbfb2ea	-0.09360297
29	0xbe623001	-0.22088625
30	0xbe6aaea7	-0.22918187
31	0x3d984cd3	0.07436528
32	0xbf349cb8	-0.70551634
33	0xbc81ee9c	-0.015860848
34	0xbf4db37a	-0.80351985
35	0x3e0ee16c	0.13953179
36	0xbe017c57	-0.12645088
37	0x3e9afed7	0.30272552
38	0xbdd4a8ee	-0.10383783
39	0xbd6b69ec	-0.05747406
40	0x3e8320e0	0.2561102
41	0x3b9691b1	0.0045950045
42	0x3e9dda60	0.3083067
43	0x3d7df05f	0.061996814
44	0x3da84a6b	0.08217319
45	0x3dcaa9c7	0.09895664
46	0xbe803ea3	-0.25047788
47	0x3da824c8	0.082101405
48	0xbe616c81	-0.22014047
49	0x3ea1dcf1	0.31613877
50	0x3b618213	0.0034409806
51	0x3e7bfab9	0.24607362
52	0xbd1ca469	-0.03824273
53	0x3d321693	0.04347856
54	0xbd6ef92b	-0.058343094
55	0x3db74847	0.08949333
56	0xbdd206b7	-0.10255187
57	0xbe812f39	-0.2523134
58	0xbe01a84c	-0.12661856
59	0x3d7438dd	0.05962454
60	0xbca10f12	-0.019660506
61	0x3dd4ab50	0.10384238
62	0x3e6a9a60	0.22910452
63	0xbcca9b28	-0.024732187
64	0x3e29a020	0.16564989
65	0x3d90a047	0.070618205
66	0xbe2854c4	-0.16438586
67	0x3c9fc934	0.01950512
68	0x3ea38723	0.3193904
69	0x3d1f6224	0.038911954
70	0xbf489c53	-0.7836353
71	0x3d08b226	0.03337302
72	0x3e00b2c0	0.12568188
73	0x3cc48e81	0.023993732
74	0x3e605fa6	0.21911487
75	0xbdd95f52	-0.10613884
76	0xbec2718b	-0.3797725
77	0x3dcd0fad	0.100127555
78	0x3dc3bc10	0.095573545
79	0xbea61aef	-0.32442424
80	0x3d454a5f	0.04816663
81	0xbe65eed2	-0.22454384
82	0xbeb440cc	-0.35205686
83	0xbe0bc0c0	-0.13647747
84	0xbe326943	-0.17422967
85	0x3ed05f15	0.40697542
86	0xbdd726a6	-0.105054185
87	0x3e5111ef	0.20416997
88	0x3c009e54	0.007850248
89	0x3e936587	0.28788397
90	0xbd4610ec	-0.04835598
91	0xbd4579b0	-0.048211753
92	0x3b02df3b	0.0019969482
93	0x3eac9d20	0.33713627
94	0x3e1d0430	0.15333629
95	0x3e0624fb	0.13100044
96	0x3c933c40	0.017973065
97	0x3e95935b	0.29213986
98	0xbd8fd41e	-0.0702288
99	0x3e8469b1	0.25861886
100	0xbe9bef99	-0.30456236
101	0x3e5f475f	0.2180457
102	0xbe38d43c	-0.18049711
103	0xbe47c1ce	-0.19507524
104	0xbe300567	-0.17189561
105	0xbe6c89b7	-0.23099409
106	0xbd0d4b5c	-0.034495696
107	0xbe743f2e	-0.23852226
108	0x3ecf310f	0.40467116
109	0x3e33ee29	0.1757132
110	0xbe83149b	-0.25601658
111	0x3ea44596	0.3208434
112	0x3dfc6506	0.12323956
113	0x3bbb3516	0.0057131154
114	0xbcde7838	-0.027156934
115	0xbd9e3476	-0.0772485
116	0x3e31f927	0.173802
117	0xbf1471b3	-0.5798599
118	0xbe4d9b4f	-0.20078777
119	0x3e8a5ade	0.2702245
120	0x3e92dd14	0.28684294
121	0xbea6fd2a	-0.32615024
122	0x3e75daa0	0.2400918
123	0xbdec7553	-0.11545815
124	0x3d393cd3	0.045224022
125	0xbdad64a4	-0.08466461
126	0x3de467ce	0.11152612
127	0xbbbf8fdd	-0.0058460073
128	0x3e411771	0.18856598
129	0xbe526408	-0.20545971
130	0x3e2b6558	0.16737878
131	0x3e727ddd	0.23680826
132	0xbd0ab8bd	-0.033867586
133	0x3df5f69a	0.12009926
134	0xbda61c92	-0.08110918
135	0x3e8091a9	0.2511113
136	0xbd85a7f5	-0.06526176
137	0x3ebc2847	0.3674948
138	0x3d1b9831	0.037986938
139	0x3ebc8400	0.36819458
140	0x3ed1867e	0.40922922
141	0xbe6c8dab	-0.23100917
142	0xbe3c9039	-0.18414392
143	0x3c24a6ee	0.010049565
144	0x3e640769	0.22268452
145	0x3db3636d	0.08759198
146	0x3d2adb20	0.04171288
147	0x3dabbf0f	0.08386051
148	0x3f01fd24	0.50776887
149	0xbd75d126	-0.060013913
150	0xbf17fa6c	-0.5936649
151	0xbb0d0cd3	-0.0021522536
152	0xbe80c45a	-0.25149804
153	0xbc3179cf	-0.010832264
154	0x3d5cd49e	0.053913705
155	0x3e787589	0.24263586
156	0xbe41e2f9	-0.1893424
157	0x3c8f6b4a	0.017507214
158	0x3e6bca92	0.23026493
159	0xbdc6d641	-0.097088344
160	0xbf4ae295	-0.79251987
161	0xbe30cec1	-0.1726637
162	0xbf5c8c97	-0.86152023
163	0xbe7c32d7	-0.24628769
164	0xbd0d1b21	-0.0344497
165	0x3e90065b	0.2812985
166	0xbe0fdffe	-0.1405029
167	0x3e1883ef	0.14894079
168	0x3e3445ca	0.17604747
169	0x3d20ef89	0.03929094
170	0x3eb9d10a	0.36292297
171	0x3df52c75	0.1197137
172	0xbdba579d	-0.09098742
173	0xbd364015	-0.044494707
174	0xbea0cb15	-0.3140494
175	0x3db545dc	0.08851215
176	0x3c385500	0.011250734
177	0x3e6b360b	0.22969835
178	0xbe5ece84	-0.21758467
179	0x3db42378	0.087958276
180	0xbdb21a94	-0.086964756
181	0xbd430bb7	-0.047618594
182	0xbd130bc7	-0.035899904
183	0xbd47a0d1	-0.04873735
184	0xbd4feb2a	-0.05076138
185	0xbe3e671f	-0.18594025
186	0xbd6b6a4b	-0.057474416
187	0x3e1deec0	0.15423107
188	0x3c8a0d5b	0.016852072
189	0x3c53f846	0.012937611
190	0xbd13e999	-0.036111448
191	0xbb0e35fa	-0.0021699653
192	0x3e13afa0	0.14422464
193	0xbda7adbb	-0.08187433
194	0x3cd7b7cf	0.026332764
195	0x3e1a21b2	0.15051916
196	0x3e12c0f4	0.14331418
197	0xbea38bf9	-0.31942728
198	0xbe6b25c9	-0.22963633
199	0xbae5c3fd	-0.0017529723
200	0xbd14071c	-0.036139593
201	0x3e1aac68	0.1510483
202	0x3e6263f8	0.22108448
203	0x3ed72b85	0.4202539
204	0x3deb1581	0.11478711
205	0xbebeb722	-0.37249094
206	0xbba5c669	-0.0050590527
207	0x3da9c09f	0.08288693
208	0xbdba7b42	-0.09105541
209	0x3e36066a	0.17775884
210	0x3ea7cbec	0.32772768
211	0x3eac3a56	0.33638257
212	0x3e2b991c	0.16757625
213	0x3d8b1549	0.06791169
214	0x3dfcb5aa	0.12339337
215	0xbe0c2a0a	-0.13687912
216	0xbdc78252	-0.097416535
217	0x3d664e1e	0.056226842
218	0x3d5da731	0.054114524
219	0xbed9a6dc	-0.42510116
220	0xbe8f55b8	-0.27995086
221	0x3e169bdf	0.14707898
222	0x3e898661	0.26860335
223	0x3e110065	0.14160307
224	0xbb067103	-0.0020514138
225	0x3de81ca6	0.11333589
226	0xbd474b09	-0.048655543
227	0xbcf738c8	-0.030178443
228	0xbe6821f4	-0.22669202
229	0x3c102d67	0.008799887
230	0x3e6c456c	0.23073357
231	0x3d17e733	0.037085723
232	0xbde97b0f	-0.11400425
233	0xbe5d8a30	-0.21634746
234	0xbe205616	-0.15657839
235	0xbf1ba730	-0.6080198
236	0xbea8d511	-0.32975057
237	0x3e588dcd	0.21147843
238	0xbdb17793	-0.08665385
239	0xbeab2544	-0.3342687
240	0xbe0516b3	-0.1299694
241	0xbd8236e0	-0.06358123
242	0xbea8034c	-0.32815015
243	0xbeca584f	-0.395205
244	0xbe77a3c4	-0.24183565
245	0x3ccdcf15	0.025123158
246	0xbd8585cc	-0.0651966
247	0xbc2c2b79	-0.010508412
248	0x3ea6b637	0.32560894
249	0x3e825a3d	0.2545947
250	0x3d47361e	0.048635595
251	0x3ed026ba	0.40654546
252	0x3ebd4046	0.369631
253	0x3e1c0d3a	0.1523942
254	0xbe80b0f2	-0.25135
255	0xbd848494	-0.064706

conv1.pointwise_conv.bias f4 [32]
0	0xbe12c353	-0.14332323
1	0xbe1419da	-0.14462987
2	0x3ccc072a	0.02490576
3	0xbd0b0cfb	-0.033947926
4	0x3e209294	0.15680915
5	0xbc92bcde	-0.017912325
6	0xbe21c454	-0.1579755
7	0xbdf9093b	-0.12159964
8	0xbd902b94	-0.07039562
9	0x3db74047	0.08947807
10	0x3dec781b	0.11546346
11	0x3e24963a	0.16072932
12	0xbdf196f5	-0.11796371
13	0x3d4e5c1f	0.050380822
14	0x3e8adede	0.2712316
15	0x3c651a5b	0.013983334
16	0xbe1494aa	-0.14509836
17	0xbe71ab11	-0.23600413
18	0xbc8d4cb8	-0.017248496
19	0xbdca67ea	-0.09883101
20	0x3e0964a4	0.13417298
21	0xbd451a19	-0.04812059
22	0x3dc86b9a	0.09786148
23	0xbe18f2d5	-0.14936383
24	0x3ed38e2a	0.413194
25	0xbe10a5ac	-0.14125699
26	0xbe1c49c2	-0.15262511
27	0xbe37eb6f	-0.17960905
28	0xbb30e784	-0.0026993463
29	0xbda48214	-0.08032623
30	0xbca3cfc0	-0.019996524
31	0x3e2294d6	0.15877089

in1.weight f4 [32]
0	0x3f306c1f	0.6891498
1	0x3f80c36e	1.005964
2	0x3f3d3384	0.7390673
3	0x3f46003b	0.773441
4	0x3f84ba53	1.0369362
5	0x3f8199cf	1.0125064
6	0x3f979f81	1.1845552
7	0x3f676cfb	0.90400666
8	0x3f2b7bd5	0.6698583
9	0x3f7fd3cf	0.9993257
10	0x3f6b6825	0.91955787
11	0x3f34116b	0.7033908
12	0x3f3c540a	0.73565733
13	0x3f3cc3a9	0.73736054
14	0x3f5f27c6	0.87170064
15	0x3f9aad42	1.2084124
16	0x3f89d211	1.0767232
17	0x3f8a493f	1.0803603
18	0x3f402b7e	0.75066364
19	0x3f6c3707	0.92271465
20	0x3efbaee5	0.4915687
21	0x3f386acf	0.72037977
22	0x3f335595	0.7005246
23	0x3f3d9208	0.7405095
24	0x3f55c675	0.83505946
25	0x3fb02002	1.3759768
26	0x3f724598	0.9463744
27	0x3f840eab	1.0316976
28	0x3f87fc38	1.0623846
29	0x3f3e4e60	0.7433834
30	0x3f92ab84	1.1458592
31	0x3f0cd6e2	0.55015385

in1.bias f4 [32]
0	0x3f01f145	0.50758773
1	0xbeda6a80	-0.42659378
2	0x3f9d64a3	1.2296337
3	0x3e848d40	0.25889015
4	0x3eb30145	0.34961906
5	0x3ea15836	0.31512612
6	0x3ef2b9c8	0.47407365
7	0x3e825275	0.25453535
8	0x3ebf9412	0.37417656
9	0xbe1b23d0	-0.1515038
10	0xbecddb03	-0.40206155
11	0xbe8ee1b5	-0.27906576
12	0x3f15da01	0.5853577
13	0x3ed2cdf6	0.4117276
14	0x3e40f7b8	0.18844497
15	0xbdc62c08	-0.09676367
16	0x3eeb0099	0.45898893
17	0x3ed57d26	0.41697043
18	0x3ed153e2	0.4088431
19	0x3ee94ec1	0.45567897
20	0x3f11a99d	0.56899434
21	0x3f1fac3b	0.6237218
22	0xbde9f11c	-0.11422941
23	0xbe04109e	-0.12896964
24	0x3e0976e3	0.13424258
25	0x3ec1e1d9	0.3786762
26	0x3ea4e8b2	0.32208782
27	0xbec648b8	-0.38727355
28	0x3ec08617	0.37602302
29	0xbef4080c	-0.4766239
30	0x3f0a4710	0.5401468
31	0x3ef2fd0f	0.47458693

conv2.group_conv.weight f4 [48, 32, 3, 3]
0	0xbd099725	-0.03359141
1	0x3d7b5cec	0.061367914
2	0xbdd7705a	-0.10519476
3	0xbd798491	-0.06091744
4	0x3d54fd23	0.051999222
5	0xbbdbe3dc	-0.0067105126
6	0x3df39be9	0.11894972
7	0x3e0a057c	0.13478655
8	0xbd7cfced	-0.061764646
9	0x3e2bfecc	0.16796416
10	0x3cb1700b	0.021659872
11	0x3c41b551	0.011823014
12	0x3c63413a	0.013870532
13	0xbd25ba30	-0.040460765
14	0x3ca1cabc	0.019749992
15	0x3e3b65f0	0.18300605
16	0x3dc4e6fd	0.0961437
17	0x3d4f6667	0.050634768
18	0xbe46b030	-0.19403148
19	0xbc8c1568	-0.017100051
20	0xbe272f5d	-0.16326661
21	0x3e90c8d6	0.28278226
22	0x3d88c901	0.066789635
23	0xbe1a55c6	-0.15071782
24	0x3e847ae8	0.2587502
25	0xbdbb4fc6	-0.09146075
26	0xbecf69ac	-0.4051031
27	0x3ddb348a	0.107033804
28	0xbc1b471d	-0.009477404
29	0xbde01348	-0.109411776
30	0x3e618c97	0.22026287
31	0x3e39ceb3	0.18145256
32	0x3c08921f	0.008335619
33	0xbdbfd801	-0.09367371
34	0xbcdfdcad	-0.027326906
35	0xbc91690c	-0.017750286
36	0xbe43c545	-0.19118221
37	0x3b31cb43	0.002712921
38	0xbe317b6f	-0.17332242
39	0xbea85204	-0.32875073
40	0xbe7fa0b3	-0.24963646
41	0xbe61bbcd	-0.22044297
42	0xbe0fbffc	-0.1403808
43	0xbe9c490c	-0.3052448
44	0xbebd74bc	-0.37003124
45	0xb9cb0908	-0.00038725906
46	0xbd131bc5	-0.035915155
47	0xbbaa1124	-0.0051900316
48	0xbe594182	-0.21216395
49	0xbdc6747d	-0.09690187
50	0xbce33103	-0.027733332
51	0xbdadaa6a	-0.084797695
52	0xbdca9fd3	-0.09893765
53	0x3d0ae845	0.033912916
54	0xbef0f90d	-0.4706501
55	0x3daefd38	0.085443914
56	0xbe9db03f	-0.30798528
57	0xbe07f4ff	-0.13277052
58	0x3d958243	0.07300236
59	0xbd2dba00	-0.04241371
60	0x3c5ab259	0.013348185
61	0x3940c006	0.00018382081
62	0xbda3a522	-0.07990481
63	0x3d9e9a81	0.07744313
64	0xbced6131	-0.028977009
65	0x3e153b90	0.14573503
66	0x3d94afe7	0.07260113
67	0x3d52e492	0.051487513
68	0xbb3ebb5d	-0.0029103376
69	0x3cf21c7c	0.029554598
70	0xbc976316	-0.018479865
71	0xbe009659	-0.12557353
72	0x3db50526	0.088388726
73	0x3d7b1bfb	0.06130598
74	0xbe02bbbf	-0.12766932
75	0x3e58f870	0.21188521
76	0x3e3946dc	0.18093437
77	0x3d423868	0.047417074
78	0x3d762b11	0.060099665
79	0x3dd75a14	0.10515228
80	0xbdc31d0d	-0.09527025
81	0x3e5f4195	0.21802361
82	0x3de4d0e2	0.11172654
83	0x3e1fdb57	0.15611015
84	0x3da10b3d	0.07863472
85	0xbd0ed5ef	-0.03487199
86	0x3e1591eb	0.14606445
87	0x3e08430e	0.1330683
88	0x3ba9cb9b	0.0051817424
89	0x3e2d4862	0.16922143
90	0xbc3097e4	-0.010778401
91	0x3d768e14	0.06019409
92	0x3dab9d09	0.083795615
93	0x3e934de8	0.28770375
94	0x3e2a3f75	0.1662577
95	0x3e0836ec	0.13302201
96	0x3e5344d0	0.20631719
97	0x3e59d3b2	0.21272162
98	0x3e11b82a	0.1423041
99	0x3d851dbe	0.064998135
100	0x3d038079	0.032104943
101	0x3dfd6c8f	0.123742215
102	0xbad69cc9	-0.001637363
103	0xbde85d8a	-0.11345966
104	0xbc4a5215	-0.012348671
105	0xbca26814	-0.019825019
106	0xbe08f207	-0.13373576
107	0x3cab51e2	0.020913068
108	0xbb905a9b	-0.0044053323
109	0xbccd5805	-0.025066385
110	0xbcb58ed2	-0.022162829
111	0x3d9f36c7	0.0777412
112	0x3e0236ab	0.12716167
113	0xbd99b0fa	-0.07504459
114	0x3d5686ff	0.052374836
115	0xbd43e750	-0.04782802
116	0xbdfd98f8	-0.12382692
117	0xba798a63	-0.00095192174
118	0x3ed0b58f	0.40763518
119	0x3e62d067	0.22149812
120	0x3e0a1165	0.13483198
121	0x3edb0f9e	0.42785352
122	0x3ea34fca	0.31896812
123	0xbe6e1591	-0.23250414
124	0x3db44742	0.08802654
125	0x3df9f67c	0.12205216
126	0xbe1390af	-0.14410661
127	0xbcd5a1e4	-0.026078172
128	0xbe0c836f	-0.13722013
129	0x3b862daf	0.0040948014
130	0x3d2b30ba	0.041794516
131	0xbdabf5d8	-0.083965
132	0xbe704be9	-0.23466457
133	0xbde32813	-0.11091628
134	0xbe5668e0	-0.20938444
135	0x3d42d442	0.047565706
136	0xbd961828	-0.07328826
137	0x3db40651	0.08790267
138	0xbd817468	-0.06321031
139	0xbe0605c6	-0.1308814
140	0xbb18516a	-0.0023241886
141	0x3d7e4d96	0.06208571
142	0xbd92a680	-0.071606636
143	0x3c56bb4b	0.013106178
144	0xbf182887	-0.5943684
145	0x3dc329d6	0.09529464
146	0xbd1c4160	-0.038148284
147	0xbe2e214c	-0.17004889
148	0x3e2e9bfd	0.17051692
149	0x3e33fcc5	0.17576893
150	0xbe6d3d77	-0.23167978
151	0x3da3f8cb	0.08006438
152	0x3e4ca6ae	0.19985458
153	0x3e63bdc6	0.22240362
154	0xbda81941	-0.08207942
155	0x3e40d15d	0.18829866
156	0x3ce9bf13	0.028533494
157	0x3ce723aa	0.028215248
158	0x3d3f944e	0.046772294
159	0xbe91f4a2	-0.28506953
160	0xbe78618b	-0.2425596
161	0xbe306947	-0.1722766
162	0xbef34ad6	-0.47518033
163	0xbbbacfe7	-0.0057010534
164	0xbc5a33ab	-0.013317983
165	0xbe9ca40d	-0.3059391
166	0x3d30f541	0.043202642
167	0x3d2ff9de	0.0429629
168	0xbe6a12f8	-0.22858799
169	0x3eb5f90e	0.35541576
170	0x3ed4c587	0.4155695
171	0xbec81e08	-0.39085412
172	0xbe842e32	-0.25816494
173	0xbd8d592c	-0.06901774
174	0xbe363aba	-0.1779584
175	0x3d0f1152	0.034928627
176	0x3e3c6828	0.18399107
177	0xbf05331e	-0.52031124
178	0x3ce33523	0.027735298
179	0x3e83dd13	0.25754604
180	0x3e11da6f	0.14243482
181	0x3ea7e7c6	0.32794017
182	0x3e3f2b74	0.1866892
183	0x3e92893a	0.2862032
184	0x3e85c851	0.26129392
185	0x3e44b647	0.19210158
186	0xbdbe4627	-0.09290724
187	0xbe363f57	-0.177976
188	0xbe4eb4ea	-0.201862
189	0x3c629a23	0.013830694
190	0x3df8968c	0.121380895
191	0xbddc3e7e	-0.10754107
192	0x3dc26a39	0.094929166
193	0x3e601d1b	0.21886103
194	0xbcc9c96e	-0.024632182
195	0xbdf9ab42	-0.12190868
196	0x3d806ff7	0.062713556
197	0xbe09891f	-0.13431214
198	0x3eec369e	0.4613542
199	0x3d692144	0.05691649
200	0xbe0e100f	-0.13873313
201	0x3ea1c834	0.31598055
202	0xbd06d438	-0.03291723
203	0xbce1db38	-0.027570352
204	0x3ebdfe87	0.3710825
205	0xbd8a2569	-0.06745417
206	0xbe5dbab3	-0.21653251
207	0xbd9a15fb	-0.07523724
208	0xbcff4475	-0.031160573
209	0xbd40eee5	-0.047102828
210	0x3e2ea0ad	0.1705348
211	0x3eabb224	0.33534348
212	0x3e9925e9	0.29911736
213	0x3d0ec163	0.034852397
214	0x3e73a296	0.2379249
215	0x3e1f50c9	0.15558161
216	0xbe0ab988	-0.13547337
217	0x3ec1471b	0.37749562
218	0x3d702678	0.058630437
219	0xbe2a3b90	-0.16624284
220	0x3e9ea7ec	0.3098749
221	0x3d822c9d	0.063561656
222	0xbd064e3e	-0.03278946
223	0x3e25eb99	0.16203155
224	0xbcc78c44	-0.024358876
225	0xbe884b4a	-0.2661994
226	0xbe5a17d1	-0.21298148
227	0xbe0defd8	-0.13861024
228	0x3cbbe58f	0.02293661
229	0xbe0ae7b5	-0.13564952
230	0xbdb51a53	-0.088429116
231	0xbeab83e9	-0.33499077
232	0xbe7f46c0	-0.24929333
233	0x3bb6a3ba	0.005573717
234	0x3d7c4545	0.061589498
235	0x3d2ebf58	0.04266295
236	0xbe2de80e	-0.16983053
237	0x3e5509c5	0.20804508
238	0x3e32b9e4	0.17453724
239	0xbdb986ee	-0.09058939
240	0xbdb39dac	-0.08770308
241	0x3c189afd	0.009314296
242	0xbdd36962	-0.103228346
243	0x3db7068a	0.08936794
244	0xbdbfcf3b	-0.09365698
245	0x3cafc931	0.02145824
246	0xbd902cc5	-0.07039789
247	0xbdf09ea0	-0.11749005
248	0xbd10ddf2	-0.035367914
249	0x3c993a5d	0.018704588
250	0xbcb65793	-0.022258556
251	0x3dd63443	0.10459187
252	0xbef6261e	-0.48075956
253	0xbe8a9b97	-0.2707183
254	0xbeb3c680	-0.3511238
255	0xbe90f619	-0.28312758

conv2.group_conv.bias f4 [48]
0	0xbd14fdf0	-0.036374986
1	0xbe2db930	-0.16965175
2	0x3ddd4035	0.10803262
3	0x3ea05a65	0.31318966
4	0x3e0d8234	0.138192
5	0xbdf1bd7f	-0.11803722
6	0xbe799436	-0.24372944
7	0x3bda1138	0.0066548847
8	0x3b751a31	0.0037399644
9	0x3e3f23e0	0.18666029
10	0x3e179a9f	0.14805077
11	0xbe5e70f0	-0.2172277
12	0xbde82ccf	-0.113366716
13	0xbe50d4ec	-0.20393723
14	0xbc6f664e	-0.014611794
15	0x3e4ed506	0.2019845
16	0xbe35238b	-0.1768934
17	0xbd611903	-0.054955494
18	0x3e1ae3d3	0.1512597
19	0xbdbe6b75	-0.092978396
20	0x3d4922c1	0.04910541
21	0x3e1f5369	0.15559162
22	0xbe930027	-0.28711054
23	0x3e27a80f	0.16372703
24	0xbc671de0	-0.014106244
25	0xbd26c9fc	-0.04071997
26	0xbeabd7ea	-0.33563167
27	0x3e4a2263	0.1973968
28	0x3e188b9a	0.14897004
29	0xbdb60726	-0.08888082
30	0x3de3f4b0	0.11130655
31	0xbcf72665	-0.030169675
32	0x3dacf99d	0.084460475
33	0x3b1aa462	0.0023596515
34	0x3e57d1f8	0.2107619
35	0x388d27bb	6.730804e-05
36	0x3dcd24c3	0.10016777
37	0xbe48d743	-0.19613366
38	0x3cd41637	0.0258895
39	0x3e06c3e7	0.13160668
40	0xbd591278	-0.05299613
41	0xbb47a2f3	-0.0030462116
42	0x3ca8dc78	0.02061294
43	0x3e168aa6	0.14701328
44	0xbedd3e95	-0.4321181
45	0x3d4b6078	0.049652547
46	0x3ba6eb02	0.005093933
47	0xbce69ff3	-0.028152442

conv2.pointwise_conv.weight f4 [48, 48, 1, 1]
0	0x3d6636cc	0.056204602
1	0xbb5b396e	-0.0033450979
2	0x3de596e6	0.11210422
3	0xbe8eb302	-0.27870947
4	0x3e5c1e60	0.21495962
5	0x3d4800a2	0.04882873
6	0xbd229105	-0.039689083
7	0xbe86911c	-0.26282585
8	0x3d26fccb	0.040768426
9	0x3e9dfcff	0.30857083
10	0x3eb75eab	0.35814413
11	0xbd8d8250	-0.06909621
12	0x3e48bb46	0.19602689
13	0x3e5276d7	0.20553146
14	0xbd827a92	-0.06371035
15	0x3ece9845	0.40350547
16	0xbcc98f23	-0.024604386
17	0xbefb24f7	-0.4905164
18	0x3d9f90c1	0.077912815
19	0x3d08dafc	0.033411965
20	0xbe209650	-0.1568234
21	0x3dde3d4a	0.10851534
22	0x3bb2d46e	0.0054574525
23	0x3c93e785	0.018054733
24	0x3e1e3052	0.1544812
25	0xbe2a4aed	-0.16630144
26	0xbe6078a7	-0.21921025
27	0x3d8a1b19	0.0674345
28	0x3e22c3ae	0.15894958
29	0xbd2d6bef	-0.04233926
30	0xbd916c4d	-0.07100735
31	0x3e59a958	0.21256006
32	0xbe4717e7	-0.19442712
33	0x3e16e4cc	0.14735717
34	0xbdf4aed8	-0.11947411
35	0xbdf20968	-0.118182
36	0x3ddab834	0.10679665
37	0xbe3c0518	-0.18361318
38	0x3dee99cd	0.11650429
39	0xbeaa5371	-0.33266786
40	0xbd83e02a	-0.0643924
41	0xbf0b7f18	-0.54490805
42	0xbdb8a400	-0.090156555
43	0xbe8ed28a	-0.27895004
44	0x3f116e18	0.56808615
45	0xbdfc415f	-0.12317156
46	0xbd943e0e	-0.072383985
47	0xbe272337	-0.16322027
48	0xbc516a00	-0.01278162
49	0x3dc9e99b	0.0985901
50	0x3e43ca63	0.19120173
51	0x3cb81550	0.0224711
52	0xbd662005	-0.05618288
53	0xbe4b2e58	-0.19841897
54	0x3ea11884	0.31464016
55	0xbd0c4a5a	-0.034250595
56	0xbc97b4b1	-0.018518778
57	0xbdb3567a	-0.087567285
58	0xbe7345e3	-0.23757128
59	0x3e88afc4	0.266966
60	0x3e63221f	0.22180985
61	0x3d1557af	0.036460575
62	0xbdcb86c9	-0.099378176
63	0xbe5bf186	-0.21478853
64	0x3e37f449	0.17964281
65	0x3e96a2fb	0.2942122
66	0xbd9857a9	-0.07438595
67	0x3dff1fcc	0.12457237
68	0x3d04903c	0.032364115
69	0x3dd4e510	0.10395253
70	0x3e88d79e	0.26727003
71	0xbe0f5b56	-0.13999686
72	0x3ec4ebf8	0.3846128
73	0x3f00233c	0.50053763
74	0xbe19da9e	-0.15024802
75	0xbdc0acab	-0.09407934
76	0xbe898cf6	-0.26865357
77	0xbeaab18c	-0.33338583
78	0xbc81e6e9	-0.015857177
79	0xbc9d670b	-0.019214174
80	0xbb5b559d	-0.0033467778
81	0xbde2a5a6	-0.11066751
82	0xbeeb9bc1	-0.46017268
83	0xbf285731	-0.65758044
84	0xbd9a50b6	-0.07534926
85	0x3d9609fe	0.073261246
86	0xbd49ed6b	-0.049298685
87	0x3dba63f8	0.09101099
88	0xbe683033	-0.22674637
89	0x3d963e8f	0.07336151
90	0xbdc1af72	-0.09457292
91	0x3d32a7b4	0.043616965
92	0x3de87a71	0.11351479
93	0xbe2016b1	-0.15633656
94	0xbedaca6c	-0.4273256
95	0x3d77b186	0.060472034
96	0x3e17cd23	0.14824347
97	0x3dfde202	0.12396623
98	0x3da47ee8	0.08032018
99	0xbe23a6bf	-0.15981577
100	0xbe366b33	-0.17814331
101	0x3e6cff3c	0.23144239
102	0x3dd2cdb4	0.10293141
103	0xbdadf011	-0.08493055
104	0xbdab6b02	-0.083700195
105	0x3ced16cb	0.028941533
106	0xbe519006	-0.20465097
107	0xbe34c0a0	-0.17651606
108	0xbcac672e	-0.021045294
109	0x3ed92675	0.42412153
110	0x3d62da78	0.05538413
111	0x3d038d7a	0.032117344
112	0x3c6bbf24	0.014388833
113	0xbb9050d6	-0.0044041676
114	0x3e3efeb8	0.18651855
115	0x3de91a36	0.113819525
116	0x3e3a121f	0.18170975
117	0xbcc349d2	-0.023838911
118	0x3e1b7f39	0.1518525
119	0xbf441dc4	-0.7660792
120	0x3e44edcb	0.19231336
121	0x3ecd2b2a	0.40071994
122	0xbddd1d12	-0.1079656
123	0x3e2c7bc6	0.16844091
124	0xbd1d1e09	-0.038358722
125	0x3e6c1d4b	0.2305805
126	0x3e5da992	0.21646717
127	0x3d33a5d5	0.04385932
128	0x3dbe0a65	0.09279326
129	0xbdd64eb2	-0.10464229
130	0x3e7e0846	0.24807844
131	0xbc5c224e	-0.013435913
132	0xbe768d69	-0.24077381
133	0xbddd135e	-0.107947096
134	0x3e6ef4ef	0.23335622
135	0xbea5cdda	-0.32383615
136	0x3e8ec6f2	0.27886158
137	0xbea440ee	-0.32080787
138	0xbe01778d	-0.12643261
139	0x3c2dcfbc	0.01060861
140	0x3e07e1a0	0.13269663
141	0xbed2c60a	-0.41166717
142	0xbe6ec791	-0.23318316
143	0x3de71251	0.112827905
144	0x3e740106	0.23828515
145	0x3da6a521	0.081369646
146	0xbc969f3d	-0.018386478
147	0xbedf95dc	-0.4366902
148	0xbc4de8f5	-0.012567748
149	0xbc2bf608	-0.01049567
150	0x3ed97a2f	0.4247603
151	0x3d055bcc	0.032558247
152	0x3e8179e3	0.25288305
153	0x3f14413f	0.5791206
154	0xbd1c3040	-0.038131952
155	0xbd30dbea	-0.043178476
156	0xbc939c51	-0.018018873
157	0x3eafc263	0.34327993
158	0xbed7a99b	-0.42121586
159	0xbf05a151	-0.52199274
160	0x3dd0fb7b	0.10204216
161	0x3e506663	0.20351557
162	0x3dac7159	0.08420057
163	0x3e132080	0.14367867
164	0xbd037c4d	-0.032100964
165	0xbdfc4f8a	-0.12319858
166	0xbc8d9e96	-0.017287534
167	0xbe65dc4e	-0.22447321
168	0x3e1f8c7e	0.15580937
169	0x3e222c3d	0.15837188
170	0x3c7cfb8c	0.015440833
171	0xbcaf5abc	-0.02140557
172	0xbe167c05	-0.14695747
173	0xbda3ce05	-0.079982795
174	0x3dfda89d	0.12385676
175	0xbc3aae02	-0.011394026
176	0xbe6b6bbb	-0.22990315
177	0xbd0c0070	-0.034180105
178	0xbd847db6	-0.0646929
179	0x3c249f29	0.010047712
180	0xbc9a4352	-0.018830929
181	0x3e58aae6	0.21158943
182	0x3c8a9ccf	0.016920475
183	0xbbde9813	-0.006793031
184	0x3e4d8cf0	0.20073295
185	0xbd0e033d	-0.034671057
186	0x3e7773da	0.24165288
187	0x3e8c5e6d	0.2741579
188	0xbe922de5	-0.2855064
189	0xbd3cd4a8	-0.046101242
190	0xbe7720c1	-0.24133588
191	0xbd0baf22	-0.034102567
192	0xbcd8c506	-0.026461136
193	0xbd087af6	-0.03332039
194	0xbd89939e	-0.06717609
195	0xbea74632	-0.32670742
196	0xbec1af2b	-0.37828955
197	0xbe39510e	-0.18097326
198	0x3e929363	0.28628072
199	0x3e956fee	0.29186958
200	0xbbc71896	-0.006075929
201	0x3db7b3cc	0.089698404
202	0xbdeb52fb	-0.11490437
203	0xbc2f6e19	-0.010707402
204	0xbdb4a9b4	-0.08821431
205	0xbe4d338c	-0.20039195
206	0xbe8f51af	-0.27992007
207	0xbede556b	-0.43424544
208	0x3e94b083	0.29040918
209	0x3ed81d2e	0.42209762
210	0x3e887307	0.2665026
211	0xbd29cd4e	-0.04145556
212	0x3d6a0222	0.05713094
213	0xbe4e8fd5	-0.20172055
214	0xbdb11345	-0.086462535
215	0xbd58971a	-0.052878477
216	0xbe45e083	-0.19323926
217	0x3ea93184	0.3304559
218	0x3e4b1226	0.19831142
219	0x3e08c872	0.13357714
220	0xbe814ce2	-0.2525397
221	0xbcf995b7	-0.030466897
222	0x3e08e756	0.13369498
223	0xbd3be779	-0.045875046
224	0x3cb41654	0.021983303
225	0x3d1024c1	0.0351913
226	0xbd55ad46	-0.0521672
227	0xbd1d59de	-0.038415782
228	0x3e031f74	0.12804967
229	0xbe04963a	-0.12947932
230	0xbe4caa22	-0.19986776
231	0x3ee3129d	0.44350138
232	0x3def5474	0.1168603
233	0x3e22d5c5	0.15901859
234	0xbc80e77a	-0.015735377
235	0x3e9a24b5	0.3010613
236	0xbec2f1e8	-0.38075185
237	0x3e71bb2c	0.23606557
238	0xbdad0c97	-0.08449667
239	0x3e79d146	0.24396238
240	0x3ed317f5	0.41229215
241	0xbcf1b175	-0.029503563
242	0x3cb254f8	0.021769032
243	0xbeae540d	-0.340485
244	0x3d5081a2	0.050904877
245	0xbd6f248f	-0.058384474
246	0x3d1a339d	0.03764688
247	0x3e840e3b	0.25792107
248	0xbd51704e	-0.051132493
249	0x3dd225ba	0.10261102
250	0xbd364930	-0.04450339
251	0x3eee5568	0.46549535
252	0x3da752b9	0.08170075
253	0xbc9be5da	-0.0190305
254	0xbd96e1a3	-0.073672555
255	0xbea49dad	-0.32151547

conv2.pointwise_conv.bias f4 [48]
0	0x3d321988	0.04348138
1	0x3e721c11	0.23643519
2	0xbb9e0363	-0.004822181
3	0x3e07d9ab	0.13266627
4	0x3e3b3c35	0.18284686
5	0xbdd3b4fc	-0.103372544
6	0xbd6c56ec	-0.057700083
7	0xbd79bd90	-0.060971797
8	0xbd7c9e9d	-0.061674703
9	0x3d0d99f6	0.034570657
10	0xbe2fbcf5	-0.17161925
11	0xbe6172d3	-0.22016458
12	0xbca9b155	-0.020714441
13	0xbde800e2	-0.113282934
14	0xba7a64af	-0.0009551746
15	0xbe950853	-0.29107913
16	0x3e4b717e	0.19867513
17	0x3d676dfa	0.056501366
18	0x3d17890e	0.03699594
19	0xbe447861	-0.19186546
20	0x3e005f7a	0.12536421
21	0x3d88dc10	0.066825986
22	0xbe519309	-0.20466246
23	0x3cbdd908	0.023174778
24	0x3d87a3d7	0.06623047
25	0x3d89abe4	0.06722239
26	0xbe19c217	-0.15015446
27	0x3d6fa26a	0.0585045
28	0xbecb4380	-0.39699936
29	0xbd46c746	-0.048529886
30	0x3c2b25f3	0.0104460595
31	0xbda490ca	-0.08035429
32	0xbd18489f	-0.037178632
33	0x3c4cf1de	0.0125088375
34	0xbe2698e1	-0.16269256
35	0xbd9d231b	-0.076727115
36	0xbe9eaf4a	-0.3099311
37	0xbdb6f257	-0.089329414
38	0xbc5fa9de	-0.013651339
39	0xbe829f25	-0.25512043
40	0xbdd1d8f8	-0.10246462
41	0xbeb94d48	-0.36191773
42	0x3e2e66ed	0.1703145
43	0x3dae86be	0.08521794
44	0xbe863b7e	-0.26217264
45	0x3dc197f8	0.09452814
46	0x3e05c59a	0.1306366
47	0xbd953bc8	-0.07286793

in2.weight f4 [48]
0	0x3e4d07bd	0.20022483
1	0x3e28db29	0.16489853
2	0x3dd04d11	0.10170949
3	0x3ea37756	0.31926984
4	0x3ebfaed8	0.37438083
5	0x3edd8be9	0.43270805
6	0x3e609714	0.21932632
7	0x3d235add	0.039881576
8	0x3efba6b5	0.49150625
9	0x3cb16509	0.021654623
10	0x3e5a3fad	0.21313353
11	0x3ed9e411	0.42556813
12	0x3e8025f0	0.25028944
13	0x3ec7fb4a	0.39058906
14	0x3ecf9494	0.40543044
15	0x3de2b163	0.1106899
16	0x3e83f6f8	0.2577436
17	0x3ddad50a	0.10685165
18	0x3e02fbaa	0.12791315
19	0x3e467182	0.19379237
20	0x3ecfc705	0.40581527
21	0x3ec1a3ec	0.37820375
22	0x3e32baef	0.17454122
23	0x3ee3adb4	0.44468462
24	0x3e7cdd41	0.24693777
25	0x3ea9d758	0.33172107
26	0x3e23438e	0.15943739
27	0x3e8b1317	0.27163002
28	0x3e85004e	0.25976795
29	0x3e162ed1	0.14666297
30	0x3e88c511	0.2671285
31	0x3eb27956	0.34858197
32	0x3e5821f6	0.21106705
33	0x3e57b8a5	0.2106653
34	0x3e7d54e9	0.24739422
35	0x3e7bef82	0.24603084
36	0x3e771cda	0.241321
37	0x3ea640b0	0.32471228
38	0x3e63c2d2	0.22242287
39	0x3e6cfcb9	0.23143281
40	0x3e95f190	0.2928586
41	0x3f19cac4	0.6007502
42	0x3e562647	0.20913039
43	0x3e706d29	0.23479141
44	0x3e6c3273	0.2306612
45	0x3e8cd5ff	0.27507016
46	0x3eb98725	0.3623592
47	0x3e4b0091	0.19824435

in2.bias f4 [48]
0	0x3d542e80	0.05180216
1	0x3f4a6e08	0.79074144
2	0x3da155cc	0.078776926
3	0x3d8b5468	0.068032086
4	0xbe3ad367	-0.18244706
5	0xbd9bf802	-0.07615663
6	0xbd93140c	-0.07181558
7	0x3f13dd04	0.5775912
8	0xbdc94da0	-0.09829259
9	0x3f4f013f	0.80861276
10	0xbcf2fd6a	-0.029661853
11	0xbee071ba	-0.43836766
12	0xbd2f66a0	-0.04282248
13	0xbee4e45b	-0.4470547
14	0xbdc98d6d	-0.09841428
15	0x3d4dfdc4	0.050290838
16	0x3db847a0	0.089980364
17	0xbd6c6ebf	-0.057722803
18	0x3df3f3ce	0.119117364
19	0xbdd79625	-0.10526685
20	0xbe074aca	-0.13212124
21	0x3ed46201	0.4148102
22	0x3e9c21b6	0.3049447
23	0xbde9f02e	-0.11422764
24	0x3ecc79ae	0.39936584
25	0xbdb1d3b6	-0.08682959
26	0x3dd06e86	0.10177331
27	0x3cd36a99	0.025807666
28	0xbc1157db	-0.008871044
29	0xbb655479	-0.0034992977
30	0x3f1dae4f	0.615941
31	0xbd4c3f6b	-0.049865168
32	0xbd4beb4c	-0.049784943
33	0x3c8ad840	0.01694882
34	0x3e329d35	0.17442782
35	0x3f18ccbc	0.596874
36	0x3e99a107	0.30005667
37	0xbe088a22	-0.13333943
38	0x3e56f4c7	0.20991813
39	0x39756e40	0.00023406092
40	0xbe74c825	-0.23904474
41	0xbe76d6c5	-0.24105366
42	0xbd839af1	-0.06426037
43	0x3eb935fc	0.36174
44	0x3f09e51b	0.5386521
45	0x3e125bed	0.1429288
46	0x3d47edc9	0.048810754
47	0x3dc84eb8	0.097806394

resblocks.0.conv1.depthwise.weight f4 [48, 1, 3, 3]
0	0x3e9f72ed	0.3114237
1	0xbe1cb5fb	-0.15303795
2	0x3f327e03	0.6972353
3	0x3d4a678f	0.049415167
4	0xbee95f6f	-0.45580623
5	0xbc20c825	-0.009813343
6	0xbe34741f	-0.17622422
7	0xbdd47ef8	-0.1037578
8	0x3e4b7c2a	0.19871584
9	0xbed5a004	-0.41723645
10	0x3e3221db	0.17395727
11	0x3d5b194b	0.053490918
12	0xbbdec223	-0.0067980452
13	0x3f30b6d0	0.6902895
14	0x3c5508c2	0.013002576
15	0xbecaac80	-0.39584732
16	0xbde9ed0b	-0.114221655
17	0xbec340d1	-0.38135388
18	0x3d932b05	0.0718594
19	0x3db446df	0.0880258
20	0x3eeb9372	0.4601093
21	0xbe1bb18a	-0.15204445
22	0xbd8daa4e	-0.06917249
23	0xbdc1b32a	-0.09458001
24	0x3e89f35c	0.2694348
25	0x3e1d1120	0.15338564
26	0x3d7b3b97	0.061336126
27	0x3e7a775e	0.24459597
28	0x3d4b4195	0.04962309
29	0xbd4994bc	-0.04921411
30	0xbee407dd	-0.4453725
31	0xbdfc0901	-0.12306405
32	0xbe2c3276	-0.16816124
33	0x3eee0ab6	0.46492547
34	0x3dc5b7b1	0.09654177
35	0xbe55886e	-0.20852825
36	0x3dbb42e9	0.091436215
37	0xbe393ed0	-0.18090367
38	0x3eb862f3	0.36012992
39	0x3dbc9d27	0.09209662
40	0x3e36a1db	0.1783518
41	0x3e3a1d26	0.18175182
42	0x3d520f42	0.051284082
43	0xbb46aaec	-0.003031428
44	0xbb2515c2	-0.002518997
45	0xbef69887	-0.48163244
46	0xbdb4bba9	-0.08824856
47	0x3a82b2ea	0.0009971533
48	0x3d9268f4	0.071489245
49	0x3c0250e3	0.007953855
50	0xbd346cd6	-0.044049107
51	0x3f2694c7	0.65070766
52	0x3e4e39ee	0.20139286
53	0xbd8dbd35	-0.06920854
54	0x3ec6683d	0.38751402
55	0x3de5a882	0.11213781
56	0xbeea6bc4	-0.45785344
57	0x3ca8f162	0.020622913
58	0xbeb022d5	-0.34401575
59	0x3e9286ac	0.2861837
60	0xbf038234	-0.5137055
61	0x3de1a70c	0.1101819
62	0x3ec69cc0	0.38791466
63	0x3f16c023	0.5888693
64	0x3e6f9e36	0.23400196
65	0xbe5b3d0f	-0.21410011
66	0x3ee9f140	0.45691872
67	0xbebb9acf	-0.36641547
68	0xbeca067d	-0.39458075
69	0x3e9c3dde	0.3051595
70	0x3cca8b73	0.024724698
71	0xbf1d1662	-0.6136228
72	0xbe9c0a2c	-0.3047651
73	0x3e0346f6	0.12820038
74	0xbebbcc3d	-0.3667926
75	0x3d68008e	0.056641154
76	0x3e4e46c0	0.20144176
77	0xbd3ca79d	-0.046058286
78	0xbdf59714	-0.119917065
79	0xbe51c644	-0.20485789
80	0xbe93a0e0	-0.28833675
81	0xbf1d30ab	-0.61402386
82	0xbf285067	-0.65747684
83	0xbe1ce6e1	-0.15322448
84	0x3d4e893b	0.050423842
85	0xbe932e34	-0.28746188
86	0x3f213639	0.6297336
87	0x3ebc9399	0.36831358
88	0x3d7b442c	0.06134431
89	0x3f57ac27	0.8424706
90	0xbd6c2c80	-0.057659626
91	0x3e0238c1	0.12716962
92	0x3e8c5aed	0.2741312
93	0xbd7822f7	-0.06058022
94	0xbe1fea3d	-0.15616699
95	0xbe5f2553	-0.21791582
96	0x3c557364	0.013028
97	0x3eae2be2	0.34017855
98	0x3f3f459c	0.7471559
99	0xbeb2d0eb	-0.34925017
100	0xbd91e3b6	-0.071235105
101	0x3dba14dc	0.0908601
102	0xbe65ce65	-0.22442015
103	0x3e752c8d	0.23942776
104	0xbe07f802	-0.13278201
105	0xbea81c03	-0.3283387
106	0xbe067a6b	-0.13132636
107	0xbd25c490	-0.04047066
108	0xbef8773c	-0.4852847
109	0xbd47c927	-0.04877582
110	0x3e99ee3d	0.30064574
111	0xbe9f5be1	-0.31124786
112	0xbe05888a	-0.13040367
113	0x3e447db8	0.19188583
114	0xbe0dc9c6	-0.13846502
115	0xbe3d8e76	-0.18511376
116	0x3d764e22	0.060133107
117	0xbdc79ade	-0.097463354
118	0xbeba0d3d	-0.36338225
119	0xbe44ca0a	-0.19217697
120	0xbd84187c	-0.064499825
121	0x3d48034b	0.048831265
122	0x3d445ca3	0.047939908
123	0x3e7561de	0.23963115
124	0xbdf82673	-0.121167086
125	0xbeecd236	-0.46254128
126	0xbd475f6b	-0.048674982
127	0x3d4969b7	0.049173083
128	0x3dda89a1	0.10670782
129	0x3c3867ad	0.011255187
130	0x3def5b72	0.11687364
131	0x3e252674	0.1612795
132	0xbe12e09f	-0.14343499
133	0xbd230c7b	-0.039806824
134	0x3f1f305e	0.6218318
135	0x3bcf043e	0.0063176444
136	0x3e8c463e	0.2739734
137	0x3ef549ef	0.4790797
138	0xbe57cddd	-0.21074624
139	0x3d4ecd47	0.050488736
140	0x3e6af3ee	0.22944614
141	0xbe359859	-0.17733897
142	0xbecebdfe	-0.40379328
143	0xbcc18ae0	-0.023625791
144	0x3f0ca3ee	0.54937637
145	0xbd9703ee	-0.073737964
146	0x3d66bc4f	0.05633193
147	0x3cc9c93c	0.024632089
148	0x3d3bf8dd	0.04589163
149	0x3df3674e	0.11884938
150	0x3c522970	0.012827262
151	0xbc8cea74	-0.01720164
152	0xbe5cbbee	-0.21556064
153	0xbc882870	-0.016620845
154	0xbe343f50	-0.17602277
155	0x3ee12035	0.43969885
156	0x3e61c349	0.22047152
157	0xbe72720f	-0.23676322
158	0x3e6b6497	0.2298759
159	0xbe273379	-0.16328229
160	0xbdf672ec	-0.12033638
161	0x3ea151f3	0.31507835
162	0x3d647b55	0.05578168
163	0xbc3f6417	-0.011681578
164	0x3f383690	0.71958256
165	0x3c80af25	0.015708515
166	0xbe6e8d85	-0.23296173
167	0xbbc2296e	-0.005925349
168	0xbe3a2970	-0.1817987
169	0xbe445754	-0.19173938
170	0x3ea074db	0.31339154
171	0xbd2b09b7	-0.04175731
172	0xbdefc645	-0.11707739
173	0xbf043e11	-0.51657206
174	0x3d096b53	0.033549618
175	0xbe857daf	-0.2607245
176	0xbe6a9a9d	-0.22910543
177	0xbe2e4128	-0.17017043
178	0x3e2d7566	0.16939315
179	0xbd3e0197	-0.046388235
180	0xbf035c8a	-0.5131308
181	0xbe88627a	-0.26637632
182	0xbea5e205	-0.32399002
183	0x3ea38c75	0.31943098
184	0x3e68da3d	0.22739501
185	0xbe37c508	-0.17946255
186	0x3df0f387	0.11765199
187	0x3d8079b1	0.06273211
188	0x3f016bf2	0.50555336
189	0x3e9e16a9	0.30876663
190	0xbe6cda23	-0.23130088
191	0xbe0bdb49	-0.1365787
192	0xbe2116a8	-0.15731299
193	0xbe4de08e	-0.20105192
194	0x3d66161e	0.056173436
195	0x3ee61e46	0.44944972
196	0x3e3717e8	0.17880213
197	0xbcac922a	-0.02106579
198	0x3f0b3652	0.5437976
199	0xbd32f4ca	-0.04369048
200	0xbdeb354c	-0.11484775
201	0x3e6cfa3a	0.23142329
202	0xbe2c48f1	-0.168247
203	0xbe7eae3b	-0.24871151
204	0x3b7f2dee	0.0038937288
205	0x3e89cfd0	0.2691636
206	0xbe8fb99c	-0.28071296
207	0x3da24310	0.079229474
208	0x3df16903	0.117876075
209	0x3f04f928	0.5194268
210	0x3e9743f9	0.29544047
211	0x3e1d42bf	0.15357493
212	0xbeb4390b	-0.3519977
213	0x3ddedbab	0.10881742
214	0xbe58d9f9	-0.211769
215	0xbea6664c	-0.3249992
216	0x3ef6177b	0.4806479
217	0x3dd83b44	0.10558179
218	0xbdbaf25e	-0.09128259
219	0xbee44c25	-0.44589344
220	0xbb7b7e8e	-0.0038374993
221	0xbcf0f4b1	-0.029413553
222	0x3c8edfde	0.017440733
223	0x3c390d7b	0.011294718
224	0x3ce5290d	0.027973676
225	0x3e0299bf	0.12753962
226	0xbe1794c6	-0.14802846
227	0xbd9c95c9	-0.07645757
228	0xbe715a73	-0.2356966
229	0x3ddab614	0.1067926
230	0xbdeea3b8	-0.116523206
231	0x3e016cba	0.12639132
232	0xbddf116b	-0.10891994
233	0xbe9ce433	-0.30642852
234	0xbefe1fea	-0.49633723
235	0xbdde538b	-0.10855778
236	0xbe10e3f3	-0.14149456
237	0x3c64d0a2	0.013965758
238	0x3ea6437b	0.3247336
239	0xbd3825ab	-0.044957798
240	0xbe77b81a	-0.24191323
241	0x3ded7381	0.11594296
242	0x3e881c4a	0.26584083
243	0xbbf3f071	-0.0074444343
244	0x3e1e63a4	0.15467697
245	0x3e2936c9	0.16524805
246	0xbe8614ed	-0.2618784
247	0x3c610249	0.013733455
248	0xbe6f524a	-0.23371235
249	0x3ec56991	0.38557103
250	0xbdbdaa24	-0.092609674
251	0x3ef13627	0.47111627
252	0x3deaf8de	0.11473249
253	0x3dfa49c8	0.12221104
254	0xbe4dadda	-0.2008585
255	0x3eb14eb7	0.34630367

resblocks.0.conv1.depthwise.bias f4 [48]
0	0x3d9e6f44	0.07736066
1	0x3e1568a4	0.14590698
2	0x3e9e9967	0.30976412
3	0xbdefa5b9	-0.11701531
4	0x3e7dfebe	0.24804208
5	0x3d4b7417	0.04967126
6	0xbe4b048d	-0.19825955
7	0x3f30587d	0.6888502
8	0x3f07ee9f	0.5309848
9	0xbd8875f3	-0.06663122
10	0x3ebccd25	0.36875263
11	0xbe8704ca	-0.2637084
12	0x3cd274a1	0.025690379
13	0xbe9dd9f2	-0.30830342
14	0x3e6a5117	0.22882496
15	0xbe1380ea	-0.14404646
16	0x3eebc027	0.46045038
17	0x3e33f8aa	0.17575327
18	0x3e61f3c4	0.22065645
19	0x3e89b826	0.26898307
20	0x3eab2a5e	0.3343076
21	0xbe0aa478	-0.13539302
22	0x3d86f7cc	0.06590232
23	0x3f09927d	0.5373915
24	0x3ed65b6c	0.41866624
25	0x3e241486	0.16023454
26	0x3e219d9c	0.1578278
27	0xbe0fe43f	-0.14051913
28	0x3e01a32c	0.12659901
29	0xbe869284	-0.26283658
30	0x3d843a87	0.06456476
31	0x3ed581b9	0.41700533
32	0xbdc5fcaa	-0.096673325
33	0xbea2774c	-0.3173164
34	0xbdba020c	-0.09082422
35	0x3e4823d0	0.19544911
36	0xbd937907	-0.072008185
37	0xbd928b1d	-0.0715544
38	0xbe6447e7	-0.22293054
39	0xbdac28bf	-0.08406209
40	0xbdd7ce4e	-0.10537396
41	0x3e005f58	0.12536371
42	0x3e77a5e9	0.24184383
43	0x3e0becef	0.13664602
44	0x3d9ba30a	0.075994566
45	0xbe89b5a8	-0.26896405
46	0xbebf0905	-0.3731157
47	0x3dddb349	0.108252116

resblocks.0.conv1.pointwise.weight f4 [48, 48, 1, 1]
0	0x3d0c437c	0.034244046
1	0x3eea3ca4	0.4574939
2	0x3dce9f2e	0.10088955
3	0x3e0cbd95	0.13744195
4	0xbdc836fd	-0.09776113
5	0xbe0cd3aa	-0.13752618
6	0xbd20dacf	-0.039271172
7	0xbdec7049	-0.11544854
8	0x3ee9d53c	0.45670497
9	0xbe99db9e	-0.30050367
10	0x3bdd6fbf	0.006757706
11	0xbc1d223d	-0.009590683
12	0x3ea19bb3	0.31564102
13	0xbc13d6cb	-0.009023379
14	0xbc10609b	-0.008812095
15	0x3e96133a	0.29311544
16	0x3e860715	0.26177278
17	0xbc6f04ef	-0.014588579
18	0xbe6613f4	-0.22468549
19	0x3e02ee17	0.12786137
20	0x3cc1305b	0.023582628
21	0xbdea9e07	-0.114559226
22	0x3e0dcb6f	0.13847135
23	0xbc0c0eb2	-0.0085484255
24	0xbd136e20	-0.035993695
25	0xbf358b1b	-0.70915383
26	0x3d425210	0.047441542
27	0x3eb851d5	0.35999933
28	0x3cc6c005	0.024261484
29	0xbe142f0d	-0.14471073
30	0x3b2411e0	0.0025035068
31	0x3e0eb406	0.13935861
32	0xbe8b834b	-0.27248606
33	0xbdc729d8	-0.09724778
34	0xbd1ca15f	-0.038239833
35	0xbdcada84	-0.0990496
36	0x3e828ac0	0.25496483
37	0x3da7fe92	0.08202852
38	0xbdbb8c23	-0.09157588
39	0xbea897f8	-0.32928443
40	0xbce483e3	-0.02789492
41	0xbce4d04c	-0.027931355
42	0xbd5f0778	-0.054450482
43	0xbcb008b4	-0.021488525
44	0xbd1db794	-0.038505152
45	0x3d09614e	0.033540063
46	0xbddfcf66	-0.1092823
47	0xbd9ace9e	-0.0755894
48	0x3f6c2584	0.92244744
49	0x3e0295c9	0.12752451
50	0xbe578586	-0.21047029
51	0x3cc022b1	0.023454042
52	0xbcb5c10d	-0.02218678
53	0x3c4c42d5	0.012467106
54	0xbde118e5	-0.109910764
55	0xbd914042	-0.07092334
56	0x3e98187c	0.2970618
57	0xbb44d049	-0.0030031374
58	0xbef38055	-0.47558847
59	0xbe8a3d86	-0.27000064
60	0x3e1892b0	0.14899707
61	0xbc962685	-0.018328914
62	0xbe40c61f	-0.18825577
63	0x3dadf0e5	0.084932126
64	0x3e51fd20	0.20506716
65	0xbe8dbf5a	-0.27685052
66	0x3c150182	0.009094598
67	0x3de58ca4	0.11208466
68	0xbbc8107b	-0.0061054802
69	0x3c2e126a	0.010624507
70	0xbd0ce206	-0.03439524
71	0xbc3df1de	-0.01159331
72	0xbd3861de	-0.04501521
73	0xbee2ded2	-0.44310623
74	0xbc9d4fe7	-0.01920314
75	0x3f13d080	0.5774002
76	0xbc03f589	-0.008054146
77	0xbc8455bc	-0.016154163
78	0x3db5852f	0.088632934
79	0xbd3d2fb4	-0.04618807
80	0xbdfddc89	-0.12395579
81	0xbc092cb3	-0.0083724735
82	0xbd6159e8	-0.055017382
83	0x3caafd02	0.020872597
84	0x3b697f6b	0.0035628926
85	0x3e1954f5	0.14973815
86	0xbd885dbe	-0.06658505
87	0xbbcc0e58	-0.006227296
88	0xbdd59712	-0.10429205
89	0xbc97274b	-0.018451354
90	0xbd5669a6	-0.052346848
91	0xbd61b761	-0.055106524
92	0x3d617d3f	0.055051085
93	0x3dbea5d6	0.093089744
94	0xbe0ede39	-0.13951959
95	0x3d6a0ed0	0.057143033
96	0x3dad92fb	0.084753
97	0xbeb4ce40	-0.35313606
98	0xbdf5b699	-0.11997718
99	0x3e8ae5a5	0.2712833
100	0xbc0bfb82	-0.008543851
101	0xbf22f19a	-0.63649905
102	0x3ec038d9	0.3754337
103	0x3cb7e6d5	0.022448936
104	0xbd80307d	-0.062592484
105	0xbbd382b0	-0.006454788
106	0xbe325519	-0.17415275
107	0xbdef6f68	-0.11691171
108	0xbf0ea9e8	-0.55728006
109	0x3e065b8a	0.13120857
110	0xbe327ae9	-0.17429699
111	0xbea7c5df	-0.3276815
112	0xbd5ca6ea	-0.05387012
113	0x3dca2847	0.098709635
114	0xbd26ab09	-0.040690456
115	0x3e279dc4	0.16368777
116	0x3c542c51	0.012950019
117	0xbd3fa7b5	-0.046790797
118	0x3dc06113	0.093935154
119	0x3d8914e9	0.066934414
120	0xbda7c91a	-0.08192654
121	0x3d11b3fa	0.03557203
122	0x3dda0c19	0.10646839
123	0xbe3209a8	-0.17386496
124	0xbdaa1dc7	-0.08306461
125	0xbdd965da	-0.1061513
126	0xbdc31184	-0.09524825
127	0x3e3be776	0.18350014
128	0xbe5651d9	-0.2092966
129	0x3e108d3d	0.14116378
130	0xbe1f418d	-0.1555235
131	0xbcb68496	-0.022280019
132	0xbe23575a	-0.1595129
133	0xbea9fc37	-0.33200237
134	0x3d301713	0.042990755
135	0x3d2731ca	0.040818967
136	0xbd1e714d	-0.03868227
137	0x3e9e9dfe	0.30979913
138	0xbefc4a9c	-0.49275672
139	0x3e11ac18	0.14225805
140	0xbdae19aa	-0.08500989
141	0x3d418b65	0.047252078
142	0xbd4b772d	-0.0496742
143	0xbdbb1089	-0.09134013
144	0x3e585047	0.21124373
145	0xbc87cae6	-0.016576242
146	0x3d148972	0.03626389
147	0xbd93a297	-0.07208746
148	0x3e8ea9ef	0.27864024
149	0x3d90c713	0.070692204
150	0x3e0a19c9	0.13486399
151	0x3e714913	0.23563032
152	0xbdba610a	-0.0910054
153	0x3ee2afe0	0.44274807
154	0x3e02edf0	0.12786078
155	0xbc600d86	-0.013675099
156	0xbeb0c210	-0.34523058
157	0xbe413c57	-0.18870674
158	0x3d7dd149	0.061967168
159	0xbddfe62d	-0.109325744
160	0x3ec0a540	0.37626076
161	0xbe0f00dc	-0.13965172
162	0xbd099601	-0.03359032
163	0xbe0fbe07	-0.14037333
164	0xbe848c0f	-0.25888106
165	0x3da4f8c0	0.08055258
166	0x3ea7cd54	0.3277384
167	0xbcfd4e2d	-0.030921066
168	0xbd8f64cb	-0.070016466
169	0xbe8c4da7	-0.27402994
170	0x3d14e77a	0.036353566
171	0x3d55be5a	0.052183487
172	0x3e6cf1a1	0.23139049
173	0x3e8c98b7	0.27460262
174	0x3eb3bb18	0.3510368
175	0xbe29766b	-0.16549079
176	0x3d087277	0.033312287
177	0xbc8da937	-0.017292602
178	0xbe44f8b8	-0.19235504
179	0xbeeb211b	-0.45923695
180	0x3d021b9e	0.03176462
181	0xbd8dd8d8	-0.06926125
182	0xbb89805d	-0.0041962103
183	0x3de2b2c1	0.11069251
184	0x3dcc747a	0.09983154
185	0xbe23c26d	-0.15992136
186	0x3d29c984	0.041451946
187	0x3d282475	0.041050393
188	0x3eebcb7a	0.46053678
189	0x3ea27cf8	0.3173597
190	0xbe1b04f7	-0.15138613
191	0x3d9d7804	0.07688907
192	0xbece1b95	-0.40255418
193	0x3d42e792	0.047584124
194	0xbde5c84b	-0.112198435
195	0x3e0672f4	0.13129789
196	0xbdea82be	-0.11450718
197	0x3cf79880	0.030224085
198	0xbd993b6c	-0.07482037
199	0x3ef9b2a6	0.4876911
200	0x3b18e675	0.0023330722
201	0xbedb5a75	-0.4284245
202	0xbe437726	-0.1908842
203	0xbe56c2cc	-0.20972747
204	0x3e28571a	0.16439477
205	0xbdcfbe2e	-0.10143696
206	0x3c4eb503	0.012616399
207	0xbe17d846	-0.14828596
208	0xbda3a6f7	-0.079908304
209	0x3d2f7170	0.04283279
210	0xbcd6bce6	-0.02621312
211	0x3dfe24c3	0.124093555
212	0x3e1ca399	0.15296783
213	0xbcd204ed	-0.025637114
214	0xbe17bfbc	-0.14819235
215	0xbe23fbb8	-0.16013992
216	0x3e0b469f	0.13601159
217	0xbeaa7fc7	-0.3330061
218	0x3daa0ac6	0.08302836
219	0x3d5dffea	0.054199137
220	0xbe4922bb	-0.19642155
221	0x3ea9703a	0.33093435
222	0x3da65f4a	0.08123644
223	0x3e4bb1db	0.19892065
224	0x3e39fa6b	0.18161933
225	0x3c9eff3f	0.01940882
226	0xbe9db12d	-0.30799237
227	0x3e6f0c56	0.2334455
228	0xbe6701b1	-0.22559239
229	0x3d8bc608	0.06824881
230	0xbc93e0a7	-0.018051459
231	0xbe72607e	-0.23669621
232	0xbd3979a2	-0.045282014
233	0x3da5a1d6	0.080875084
234	0x3e6c0448	0.23048508
235	0xbd667165	-0.056260485
236	0x3e96b4ef	0.29434916
237	0xbe6b6749	-0.22988619
238	0xbe929545	-0.2862951
239	0xbd62b4cc	-0.055348203
240	0xbec7ca2f	-0.3902144
241	0x3ed056eb	0.40691313
242	0x3e961b7d	0.29317847
243	0x3dda1f63	0.10650518
244	0xbd1d571b	-0.03841315
245	0xbd8baecf	-0.068204515
246	0xbcbe0613	-0.023196256
247	0x3e9534ab	0.29141745
248	0x3e75b9c4	0.23996645
249	0xbeedbd0f	-0.46433303
250	0x3c806823	0.015674656
251	0xbd3b593b	-0.045739394
252	0x3e05d3ea	0.1306912
253	0x3c726595	0.014794727
254	0xbd5d0c1c	-0.053966627
255	0x3e803fae	0.25048584
