testapp/models/mobilmodel_highstyle.onnx (onnx, 41081 bytes, 70 tensors)

conv1.depthwise_separable_conv.depthwise.weight f4 [3, 1, 9, 9]
000000 ea 5d 0e 3f 3e ff c2 3e 7f 24 27 3e b5 ff d1 3d
       0.5561205 0.3808536 0.16322516 0.1025385
000010 dc 4e d6 3d 45 91 b1 3d 9a 51 3f bd a1 30 bb 3d
       0.1046426 0.08670286 -0.04670868 0.091401346
000020 06 b6 dd 3e 6f b7 6c be da 8e 05 be 65 98 44 3c
       0.43302935 -0.2311685 -0.13042775 0.011999224
000030 98 5e ce 3d a7 53 34 3e d0 f6 d2 3d 0d 7f 72 bd
       0.10076636 0.17610036 0.10300982 -0.059203196
000040 1c 51 df bb 26 06 2d be 8e b7 b9 be 9a 21 29 be
       -0.006815089 -0.16896877 -0.36272854 -0.16516724
000050 b6 0f db bd d8 65 28 be 6e db 38 be 69 1a bd bd
       -0.10696356 -0.164451 -0.18052456 -0.09233553
000060 ff e9 40 be 88 f8 05 be c8 6f c2 be 13 c7 59 3d
       -0.18839262 -0.13083088 -0.37975907 0.053168368
000070 8f 80 ef 3d 38 c7 49 3c 37 c1 8f 3e b0 3b 07 3e
       0.116944425 0.012315564 0.280771 0.13206363
000080 b9 5d c6 3d b5 42 b9 bd d1 59 9f bb b7 47 5f bc
       0.09685845 -0.090459265 -0.004863002 -0.013627938
000090 96 a2 a3 3e a6 84 80 3e a3 a0 22 3e 13 09 e8 3d
       0.3195998 0.25101203 0.1588159 0.11329856
0000a0 e8 7a ca 3e d3 75 9e 3e bf 00 97 3e 9c 04 b2 3e
       0.39546895 0.30949268 0.29492757 0.34769142
0000b0 95 1b 8e 3e 36 7d 18 be 07 aa 81 bd 3f 5a bf 3c
       0.27755418 -0.14891514 -0.06331258 0.023358462
0000c0 7c 92 0c be b9 ca 5b be 30 fc 60 bd 7e 59 b9 3c
       -0.13727754 -0.21464051 -0.054928005 0.022625681
0000d0 a3 e4 1b 3d 38 d2 95 bd 66 bf 0c bf 67 6c a2 be
       0.03805984 -0.07315487 -0.5497955 -0.3172333
0000e0 32 95 02 be 2d 33 9c be 68 96 9c be 11 f0 48 be
       -0.12752226 -0.30507794 -0.305835 -0.19622828
0000f0 b9 3a 9e bd d1 0e 92 be a2 0c 00 bf cf 92 76 3e
       -0.07726044 -0.2852693 -0.50019276 0.2407944
000100 5e 14 00 3e e9 53 99 3d 3c e9 9a 3e 37 59 28 3e
       0.1250777 0.07486708 0.3025607 0.16440283
000110 32 e6 69 3e c7 ef f2 3d 2a 60 0c 3f 87 d4 c6 3e
       0.22841719 0.1186214 0.54834235 0.3883402
000120 49 f9 77 3e 81 20 fb bd cc 1d bc bd cc c6 58 bd
       0.24216188 -0.12262059 -0.09185371 -0.052923962
000130 45 07 02 be d0 29 0d bd 07 1a 86 be 16 58 44 bd
       -0.12698086 -0.034463704 -0.26191732 -0.047935568
000140 75 84 ac 3d a3 0f 30 be 96 4c 37 3d 68 be 19 be
       0.08423702 -0.17193465 0.044750772 -0.1501404
000150 32 2c 6c be 41 e6 ae be fd 54 c5 bd 88 37 32 be
       -0.23063734 -0.34160045 -0.09635351 -0.17403996
000160 bd 35 4d 3b 13 8a a5 bd 25 cc 85 3d be cf 16 3e
       0.0031312548 -0.08082976 0.06533078 0.14727685
000170 22 59 64 3e 58 9c 16 3e f3 f8 03 be 17 76 ca bd
       0.22299626 0.14708078 -0.12887935 -0.09885805
000180 31 bd a6 3d 2a 30 18 3d 84 b7 67 be 85 b3 a9 bc
       0.08141554 0.037155308 -0.226286 -0.020715484
000190 d3 65 45 3e 1e 96 9e 3e a8 83 0d 3e ad bb a2 bd
       0.19277124 0.30973905 0.13819754 -0.079459526
0001a0 ce b4 36 bd 39 04 bb bd 37 b1 08 bd 78 4a 90 be
       -0.044606023 -0.09131665 -0.03337213 -0.28181815
0001b0 05 12 d9 3c 9d ee 23 3e 23 b2 9d 3e 6f 2d 13 3e
       0.02649785 0.16008992 0.3079997 0.143728
0001c0 1e ee d1 3d 89 1b fd bd 5e f0 28 be 63 9e 3c be
       0.102504954 -0.123587675 -0.16497943 -0.18419795
0001d0 2e 0f 9d be 41 32 40 3c e6 f4 5a 3e 0b 2b e9 3d
       -0.30675644 0.011730731 0.21382484 0.11385163
0001e0 e1 e3 d7 3d ff 7e 28 3e cb 73 3b 3e f5 35 ba 3d
       0.10541511 0.16454695 0.1830589 0.09092323
0001f0 2f 4e b9 bd ff 99 d8 be 84 af db bd 2c 25 2e 3c
       -0.090481155 -0.4230499 -0.10726836 0.01062898
000200 58 56 84 3e 7d e6 21 bc fa a8 3b 3e 6e df 42 3e
       0.25847125 -0.009881613 0.18326178 0.19030544
000210 dc 91 03 3e 4a 8d 81 3e 19 b1 76 be 2d 22 b9 be
       0.1284861 0.25303108 -0.24090995 -0.36158887
000220 3b 16 8b be 96 22 1f be 70 01 44 bd 13 2d 73 bd
       -0.27165398 -0.15540537 -0.047852933 -0.059369158
000230 04 84 1e 3e 40 a4 27 3e c2 f7 3e 3e 48 d1 ac be
       0.15480047 0.1637125 0.186492 -0.3375342
000240 ca 8f 29 be 53 07 2c be 9e e0 09 be fc f2 cf bc
       -0.16558757 -0.16799669 -0.13464591 -0.025384419
000250 58 e6 cb 3d af 09 ea bb 74 41 a7 3e d7 4d 98 3e
       0.09956044 -0.0071422677 0.32667124 0.29746887
000260 c1 63 72 3d 6a 5a 96 be f3 83 9c bd ed 02 75 be
       0.059177164 -0.29365855 -0.07642355 -0.23926897
000270 a6 41 12 be 99 09 2e be af 75 48 be 6f bd 27 be
       -0.14282855 -0.16995849 -0.19576143 -0.16380857
000280 eb ad bc 3d 46 a6 dd bc 96 da 69 3e b5 ec 8c 3d
       0.0921286 -0.027056824 0.2283729 0.06881086
000290 9a 6a 10 3e 2e 19 21 be 3b 14 4a be bc 25 55 bd
       0.14103165 -0.15732262 -0.1973428 -0.05203794
0002a0 30 ad 09 be f2 e6 02 be be 83 0a 3e fd a6 07 3e
       -0.13444972 -0.12783411 0.13526818 0.13247295
0002b0 21 4b 6d 3e 3e 2e 29 3e 4e 5a 11 bd 91 be 03 be
       0.2317319 0.16521546 -0.035486512 -0.12865664
0002c0 62 0d 28 be a9 9b ba bd ff 9f 85 bd c4 55 35 be
       -0.16411355 -0.09111721 -0.065246575 -0.17708498
0002d0 69 3a 63 3e 97 00 72 3e 70 e5 7e 3e cf 4c f7 bc
       0.2219025 0.23633038 0.24892211 -0.030187992
0002e0 e7 93 ef bd a2 79 36 be d2 03 d5 bd 88 91 38 be
       -0.11698132 -0.17819837 -0.10401119 -0.18024266
0002f0 2a 41 f9 bd de 4c f0 3d ff 28 30 bc f4 04 f6 3d
       -0.12170632 0.11733411 -0.010751962 0.120126635
000300 99 30 1f 3e 44 b5 16 3e 89 f7 66 be 95 6e 74 be
       0.15545882 0.14717585 -0.22555365 -0.23870309
000310 df a0 90 be fd eb e6 bd 87 53 b2 3d 41 65 2b 3d
       -0.28247735 -0.1127548 0.08707338 0.04184461
000320 4f 16 b5 bb 59 3b 36 bd 59 55 8f 3e 4c e0 01 3e
       -0.005526341 -0.044490192 0.27994803 0.12683219
000330 d1 d2 a1 3c 85 d8 4b be 10 fb e3 bd 8e 4f 57 be
       0.019753845 -0.19906814 -0.11131871 -0.21026441
000340 90 88 ff bd 0a 75 2d 3e c7 59 81 3d b2 0c 2c 3e
       -0.12477219 0.16939178 0.06315952 0.16801718
000350 3a ff 01 3d fd 39 9f 3d ab 11 02 3d 7f ee 00 3e
       0.031737544 0.07774732 0.03175513 0.12590979
000360 4d 5c 96 be 33 81 f3 be 58 29 00 be be 62 f1 bd
       -0.29367295 -0.4755951 -0.12515771 -0.11786412
000370 44 c9 15 3d 15 c9 3f 3e 4a 5d f1 3d de 2f 05 3d
       0.036568895 0.1872905 0.117853716 0.032516353
000380 c4 f7 1e be 56 ac 82 3e 46 e0 7a be 43 7d 23 be
       -0.15524203 0.25522107 -0.24499616 -0.15965752
000390 f3 e1 07 be c6 fc 1a 3e 69 ab 50 3d 54 d5 87 3e
       -0.13269787 0.15135488 0.05094472 0.26529944
0003a0 ce 49 c1 3e ef 64 05 3f c1 e5 c2 3e 2b ca 25 be
       0.3775162 0.5210714 0.38065913 -0.16190402
0003b0 29 75 51 be da 5c 87 be 8b 0a 90 3c 8c 9f 12 be
       -0.2045485 -0.26438028 0.017583152 -0.14318675
0003c0 07 5c 93 bd 8c 34 12 bd b6 7e ec 3e
       -0.07195287 -0.035694644 0.46190423

conv1.depthwise_separable_conv.depthwise.bias f4 [3]
000000 f5 e9 aa 3d a1 ae 69 3e 7c 15 43 3e
       0.08345405 0.22820522 0.19051164

conv1.depthwise_separable_conv.pointwise.weight f4 [9, 3, 1, 1]
000000 6f 70 3d bf 6d d3 00 3e 77 f2 88 3d 5b 57 c0 3e
       -0.73999685 0.12580653 0.066868715 0.37566647
000010 fa 20 f4 be c6 3e 9d be bb 75 e9 be 9e e5 09 3e
       -0.4768141 -0.30711955 -0.45597634 0.13466498
000020 ec ed 05 be 8e 16 e4 bd b0 00 31 3f c4 bf e6 be
       -0.13079041 -0.111371145 0.69141674 -0.4506818
000030 f5 0b 1f 3f f9 3e 71 3d 61 2b b0 3e ba 17 39 3e
       0.6212762 0.058897946 0.34408095 0.18075457
000040 48 ce f5 3e c9 30 ff 3e 4d 1c 4a 3f 12 20 fe bc
       0.48008943 0.49841908 0.78949434 -0.031021152
000050 3e 40 d2 3d ef f9 91 be dc 18 51 be a9 6f ad be
       0.102661595 -0.28510997 -0.2041964 -0.33874252
000060 b8 b4 47 3f 74 32 58 be 94 17 42 3e
       0.7801013 -0.21112996 0.18954307

conv1.depthwise_separable_conv.pointwise.bias f4 [9]
000000 8c 0b 85 3e a5 1f a0 3e 84 a7 79 bd 7d a6 64 be
       0.25985372 0.31274143 -0.06095077 -0.22329135
000010 4d a8 ab 3e b7 39 f1 3e 07 d0 f6 be da 8b 90 be
       0.3352684 0.47114345 -0.48205587 -0.28231698
000020 9b eb ed bd
       -0.11617204

in1.weight f4 [9]
000000 31 1e c1 3f 84 ce 1d 3f aa 81 35 3f 28 22 1b 3f
       1.5087339 0.6164324 0.70900977 0.60598993
000010 1d a3 bf 3f ad 35 3f 3f 67 ae 85 3f a8 17 63 3f
       1.4971653 0.7469128 1.0443848 0.8870797
000020 bf be ad 3e
       0.3393459

in1.bias f4 [9]
000000 c9 09 1e be 7e 59 fa be 5b 8a 26 3f 7a b6 1e 3f
       -0.1543342 -0.48896402 0.65054864 0.6199719
000010 c8 1f 14 3e 77 26 0d 3f 21 3b 21 3e 2a 5a 00 be
       0.14465249 0.5513682 0.15745212 -0.12534395
000020 7f 8e 8e 3f
       1.1137236

conv2.depthwise_separable_conv.depthwise.weight f4 [9, 1, 3, 3]
000000 31 30 81 bc 63 2b d0 be a8 10 b1 be 49 98 b8 3d
       -0.01577005 -0.406581 -0.3458302 0.09013421
000010 b4 49 a8 be ce da e2 3e ec fd eb 3e b5 bc 3d bd
       -0.3286873 0.4430756 0.46092165 -0.046322543
000020 e6 b1 4c 3e 60 ab 51 be db b9 13 be 68 98 b4 bd
       0.19989738 -0.2047553 -0.14426367 -0.08818132
000030 8f 21 9e 3e 75 fa 00 3e b2 75 e0 3d ac d0 71 3e
       0.30884978 0.12595542 0.109599486 0.23614758
000040 49 e7 2f 3e a1 00 1d 3e 75 01 fa be 9f d4 af 3c
       0.17178072 0.15332271 -0.48829237 0.02146369
000050 70 3f e2 bc 89 ec 41 be 78 90 98 bd 60 df 9b 3e
       -0.02761814 -0.18937887 -0.0744943 0.3044386
000060 16 30 1b be bd c4 0c 3e 30 cb e1 bd df 63 6b 3e
       -0.15155062 0.13746925 -0.11025083 0.22987317
000070 99 5b 0e 3e 82 9f 36 3e 85 66 62 be 71 5e 5d be
       0.13902129 0.17834285 -0.2210942 -0.21618058
000080 b6 64 22 3e 2f 68 bc 3e b9 d1 1e 3e 95 47 a2 3e
       0.1585873 0.36798236 0.1550969 0.31695238
000090 9b 69 54 3e 79 06 82 3e 7b 1b 40 be da 67 1a bd
       0.2074341 0.25395563 -0.18760483 -0.037696697
0000a0 be ae c9 3e 95 8f c9 3e 07 b9 c9 be 6d 96 e5 be
       0.3939113 0.39367357 -0.39398977 -0.44841328
0000b0 35 d4 54 be 00 84 cf be 85 ca 68 be 5c ac 44 be
       -0.20784076 -0.40530396 -0.22733505 -0.19206375
0000c0 5e 8d 81 3e 5b d7 1b 3e 05 a1 a1 be 10 3c 4d 3b
       0.25303167 0.1521887 -0.3156816 0.0031316318
0000d0 14 28 d8 3e 62 c2 96 be e7 87 21 3e af ab b6 3e
       0.42218077 -0.29445177 0.15774499 0.3567786
0000e0 68 19 d9 3c 72 c6 de 3d 27 4f 45 3e 76 c5 7d 3e
       0.026501372 0.10877694 0.19268475 0.24782357
0000f0 af 94 46 be 7a c1 c9 be 13 00 96 be 6b 94 8b be
       -0.19392656 -0.39405423 -0.29296932 -0.2726167
000100 bc 27 a5 3e e9 0e a2 be b9 10 c8 be 01 51 5b bc
       0.32256877 -0.31652 -0.39075258 -0.013386012
000110 c4 4e 25 bb ea 7e 72 3e 0a 57 83 3e f6 e2 23 3e
       -0.002522395 0.23681226 0.25652343 0.16004547
000120 16 63 20 bf a5 b1 91 3d bf ad 67 3d 6e 6a 90 be
       -0.62651193 0.07113961 0.05656218 -0.282062
000130 c9 c9 e0 bc 97 24 b5 3e 69 14 8c be 4b 45 16 3e
       -0.027439969 0.35379478 -0.27359322 0.1467487
000140 7f e4 f8 bd
       -0.12152957

conv2.depthwise_separable_conv.depthwise.bias f4 [9]
000000 34 d9 03 3d 46 e2 9f 3e f3 52 df 3d 1f b6 b6 3d
       0.032189563 0.3122732 0.10904493 0.089214556
000010 c0 b0 38 bf 12 f4 b6 be 29 05 97 be 34 c8 ad 3e
       -0.721447 -0.35733086 -0.29496124 0.33941805
000020 cd b0 a5 3e
       0.3236145

conv2.depthwise_separable_conv.pointwise.weight f4 [9, 9, 1, 1]
000000 b5 20 49 bf f2 7b 11 bd 1a d6 6f be 9e 3e c5 3c
       -0.7856553 -0.035518594 -0.23421517 0.02407771
000010 a1 1a 64 3e 2c c7 be 3c 67 8c a3 3d 4d 1f 0e bf
       0.22275783 0.023288332 0.07985764 -0.5551651
000020 3a de 1c 3e bc f7 9d bc f3 9b 4a be fd 9d 2d 3f
       0.15319148 -0.019283168 -0.19786052 0.67819196
000030 7d b4 cc bd 8b a8 4b 3d 8f a5 26 3d 9d d5 b5 bd
       -0.09995363 0.049721282 0.040685233 -0.08878634
000040 38 10 7a 3d 43 36 46 3f 4c 0e fb bd 97 68 70 be
       0.061050624 0.77426547 -0.12258586 -0.23477398
000050 8c 6f aa 3e 17 d4 8d bd 6e 63 4c 3e 73 94 e1 be
       0.3328823 -0.069252186 0.19959804 -0.4405857
000060 fa 87 bb be f4 f2 87 3d fc 10 3e be 41 ea 4e bd
       -0.3662718 0.066381365 -0.18561167 -0.05051637
000070 92 ae 75 be 3f b3 80 3e c1 44 3d bf e8 ad 70 3d
       -0.23992375 0.25136754 -0.73933035 0.0587596
000080 fe 55 cc 3e 4f 67 2c 3c 55 94 82 bd 6c ea 5b bd
       0.39909357 0.010522678 -0.06375948 -0.05369036
000090 56 26 80 be 8c 9d d0 bd df ce ad bd b7 04 4a bd
       -0.25029248 -0.101863 -0.08486723 -0.049320903
0000a0 b2 8b 3e 3f d8 89 ba 3d a1 4e d6 3e ef f8 8f bd
       0.7443191 0.09108323 0.41856864 -0.07029902
0000b0 2e ea 91 3d 05 bf 56 3d 66 22 2d 3e 9a f0 70 be
       0.07124744 0.052428264 0.16907653 -0.23529282
0000c0 c4 cd 03 3f 42 4c 18 be 4b 25 88 3e 44 6a 3f 3e
       0.5148585 -0.1487284 0.26590952 0.18692881
0000d0 af af 3b bd ba 04 b2 be 5b 01 82 be 7b 86 03 bb
       -0.04582184 -0.3476923 -0.2539166 -0.002006917
0000e0 e8 39 fb bc 8e 99 cb 3c 64 1d 4a 3f b1 8e b5 3c
       -0.03066726 0.024853494 0.78951097 0.022162767
0000f0 9b d3 9f 3e 01 72 09 bd 9c 6a a5 3d 99 77 a8 3e
       0.3121613 -0.03355599 0.08076975 0.32903746
000100 30 87 8a 3e cb 55 25 bc fc 18 32 be 3e 15 89 be
       0.27056265 -0.010091255 -0.17392343 -0.2677402
000110 f9 5f 8c be 30 87 2f be a5 4a c1 3e 13 44 1c 3e
       -0.2741697 -0.17141414 0.37752262 0.15260343
000120 c9 89 58 3e 83 53 16 3e f0 58 5a bf 20 05 07 3f
       0.21146311 0.14680295 -0.8529196 0.52742195
000130 01 45 2e bd 87 f6 49 be 1f 75 de be f9 75 6d bd
       -0.042546276 -0.19722949 -0.4344873 -0.057973836
000140 e3 10 89 3a
       0.0010457303

conv2.depthwise_separable_conv.pointwise.bias f4 [9]
000000 dc 95 8a bc af 4f 4f 3e eb f4 8a 3e 70 3f 4e 3e
       -0.016917162 0.2024524 0.27139983 0.20141387
000010 a9 3a 27 be 23 f2 7c be 42 94 e3 be cf 05 96 bd
       -0.16330971 -0.24701743 -0.4444905 -0.07325327
000020 8a 32 4d bd
       -0.050097026

in2.weight f4 [9]
000000 86 08 6f 3f f9 4f 86 3f e4 8c 4e 3f 2c e7 84 3f
       0.9337238 1.0493156 0.8068373 1.0383048
000010 50 03 8d 3f 1f 88 28 3f 21 77 8f 3f 89 3e 38 3f
       1.1016636 0.65832704 1.120823 0.7197042
000020 58 1a 01 3f
       0.5043082

in2.bias f4 [9]
000000 f9 1e db 3c 9f 83 53 bf 72 01 1f be 0e 1c a5 be
       0.026748167 -0.8262271 -0.15527895 -0.32247967
000010 e8 9d d0 3d ac c6 ad 3d 32 ed 28 be b4 67 8c be
       0.10186368 0.08485159 -0.16496733 -0.2742287
000020 05 5e e0 3e
       0.4382173

conv3.depthwise_separable_conv.depthwise.weight f4 [9, 1, 3, 3]
000000 2c e0 ce 3c 19 51 f3 bd 88 2f 95 3e f5 64 01 bd
       0.025253378 -0.118807025 0.29137826 -0.03159042
000010 59 59 45 3d 08 78 80 bd 16 6b 58 3f 08 a9 82 bd
       0.04818091 -0.06272894 0.845384 -0.063798964
000020 dd 81 90 3e 42 ee 25 3d 17 38 fd 3e b4 f2 56 be
       0.28224078 0.040510423 0.49456856 -0.20991021
000030 9f 0a 96 3d 86 a6 c8 3e a6 5f 13 3d 42 ed e3 bd
       0.073262446 0.39189547 0.03597989 -0.11129238
000040 a9 2b 09 3f 0f 9f eb 3c af f5 c5 3e 64 f5 31 3d
       0.53582245 0.028762368 0.38664004 0.043446913
000050 c1 95 2f 3d 08 ee 31 3e 59 36 92 3d 96 1a f2 3d
       0.042867426 0.17375958 0.07139272 0.11821477
000060 ca 38 14 3e dd f4 05 3d f4 f7 ab 3e 54 19 d2 3e
       0.14474788 0.032704223 0.3358761 0.4103495
000070 c7 8b 03 bd d2 36 8a 3e 18 6e d5 3d ee ec 54 3c
       -0.032115724 0.2699495 0.10421389 0.012995942
000080 2b 9c ef 3d d5 cd 72 3e 31 cf 17 bc 3c b4 d0 3e
       0.116997086 0.23711331 -0.009265707 0.40762508
000090 a3 a4 01 bf e0 ca a4 3d 08 c6 88 be a5 2c 55 3e
       -0.5064184 0.08046508 -0.26713586 0.20817812
0000a0 19 c8 59 3e b7 a5 4f 3e 6d 6f 58 be fd 76 ba bd
       0.21267737 0.20278059 -0.21136256 -0.091047265
0000b0 61 72 fe be e1 45 65 bd 5b 9c f7 bb cf 35 6e 3e
       -0.4969664 -0.055974845 -0.007556481 0.23262714
0000c0 ec c9 6e bd b2 99 59 be af 34 ab 3d 41 3e 34 be
       -0.058298036 -0.21250036 0.08359658 -0.17601873
0000d0 6a 70 0d be b7 48 a5 bd ac 88 16 3f b5 a8 6c bd
       -0.13812414 -0.0807051 0.58802295 -0.05777808
0000e0 5d 37 92 3e 78 06 58 be 47 a2 4e be 4e ed 78 be
       0.28557864 -0.21096218 -0.20179091 -0.24309275
0000f0 6a 59 6f 3e 7d 8a 2c 3e 50 f9 07 3f eb 53 05 3e
       0.23373953 0.16849704 0.53114796 0.13020293
000100 46 e4 5d 3e ae 8e e7 3e b6 b1 10 3d 2f a9 6b bc
       0.2166911 0.45226043 0.03532573 -0.014383598
000110 ac 54 f5 3c 3e 97 0a 3e 76 f0 3c b9 87 8f af bc
       0.029947601 0.13534257 -0.00018018656 -0.021430744
000120 96 3d 80 3e 99 43 13 3e 3b 83 28 bc 0e 1b 3e 3e
       0.25046986 0.14381255 -0.010285194 0.18565008
000130 eb 0f f3 3d 90 3e 82 3e 22 7b be be 5b bc 63 3c
       0.118682705 0.25438356 -0.37203318 0.013899888
000140 4f 5f 91 bd
       -0.07098257

conv3.depthwise_separable_conv.depthwise.bias f4 [9]
000000 c8 6b fb 3d c6 1e f2 3e e6 1e a8 3c 19 f6 0f 3d
       0.12276417 0.47289103 0.020522546 0.035146806
000010 ab 25 0c 3f 96 9e 4a 3c d1 d6 53 bc 45 56 32 be
       0.54744977 0.012366911 -0.012929634 -0.17415722
000020 82 c9 f7 3e
       0.48395926

conv3.depthwise_separable_conv.pointwise.weight f4 [9, 9, 1, 1]
000000 1a 5b 18 bd 82 a9 3a 3f 8a fd a6 bd 86 0d 0b be
       -0.037196256 0.729149 -0.081538275 -0.13579378
000010 66 4d e9 3d 0f 88 7e 3e cc 32 14 3d be ac 0d be
       0.11391716 0.2485659 0.036181256 -0.13835427
000020 ce aa 93 be 43 62 b0 3d 2f 67 c2 3d ca 5c 85 bf
       -0.2884125 0.08612492 0.09492337 -1.0418942
000030 5c 51 69 be c6 45 fb bd 4b f4 57 be 0f 17 bd bd
       -0.22784942 -0.122691676 -0.21089284 -0.09232914
000040 68 86 a2 bd 20 21 da be c6 75 1a bf 78 cc a1 bd
       -0.07935792 -0.42603397 -0.6033596 -0.079003274
000050 bd f1 07 be e6 c8 c1 bc 54 8d 9d 3e 40 5f 7f be
       -0.1327581 -0.023655366 0.30771887 -0.24938679
000060 c3 3c 58 3e ea 97 d6 be 0e e3 86 3e 9f e7 3c be
       0.21116929 -0.41912776 0.26345104 -0.18447731
000070 fb 21 12 3f b9 e0 00 be d0 57 b2 be 49 6f 4e bd
       0.570831 -0.12585725 -0.3483262 -0.0503991
000080 bf 56 87 3e dd e2 4d bd 07 02 ce bd e0 33 a0 3e
       0.2643337 -0.05026518 -0.100589804 0.31289577
000090 3c 25 49 bd ec 2d 13 be 5a 93 27 3e 3d bc 20 3e
       -0.049107775 -0.14372987 0.16364804 0.15696807
0000a0 d2 b7 d3 be 26 6c 51 3e 1e 75 cf be fc 90 a7 bd
       -0.4135118 0.20451412 -0.4051904 -0.081819504
0000b0 6b c3 f5 bc 5a 1c df be 28 0d 51 3e 93 f4 07 be
       -0.03000041 -0.43576318 0.20415175 -0.13276891
0000c0 a3 69 61 be 5d 98 b9 3e 75 78 7a bc ee cd c1 3e
       -0.22012953 0.36249056 -0.015287508 0.37852424
0000d0 9e bb c7 be 60 98 88 bc 47 08 28 be b3 61 7c be
       -0.39010328 -0.01667422 -0.16409408 -0.24646644
0000e0 86 1c ee 3d a9 84 fd 3e 19 d5 ac be 80 06 9c 3c
       0.11626534 0.49515274 -0.3375633 0.019046068
0000f0 0c 02 a5 be c3 6d 8b bd 03 64 37 be f6 93 9d 3d
       -0.32228124 -0.06808045 -0.17909245 0.07694237
000100 b0 ad ed bc e2 a2 af 3d cb 7d 6d bf e3 10 6e 3e
       -0.029013485 0.08575989 -0.9277007 0.2324863
000110 e0 52 2e 3d 08 0d 74 3e c5 a7 f5 bc d0 94 42 bc
       0.042559505 0.23833096 -0.029987225 -0.0118763
000120 42 46 ec bc 7f 3a 02 be d4 ba 6b 3c 9b 9b a5 3d
       -0.028842095 -0.12717627 0.014387805 0.0808632
000130 b3 fe eb be 39 4d 0e 3e 21 cb e6 be de 87 f3 3b
       -0.46092758 0.13896646 -0.4507685 0.007431968
000140 08 6d 42 be
       -0.18986905

conv3.depthwise_separable_conv.pointwise.bias f4 [9]
000000 f1 b3 03 3f 4b ed 84 be 34 46 b1 3c fe 33 6f bd
       0.51446444 -0.2596229 0.02163992 -0.058399193
000010 69 02 3c 3e 41 80 fc be c7 71 8d be f1 70 8c 3e
       0.18360294 -0.493166 -0.27625868 0.27429917
000020 cc c3 3d bf
       -0.7412689

in3.weight f4 [9]
000000 84 78 e7 3e 43 33 86 3c 11 68 16 3d 65 b8 8a 3f
       0.45209134 0.016381865 0.03672034 1.0837523
000010 ba 1e 75 3e a5 ec 9e 3e f8 2e 05 3f 20 f2 af 3d
       0.23937503 0.3103992 0.52024794 0.085911036
000020 5e 87 b4 3e
       0.35259527

in3.bias f4 [9]
000000 58 53 9c 3c 86 19 a9 3f 86 22 90 bb 87 a7 8d bf
       0.01908271 1.3210914 -0.0043986468 -1.106675
000010 9d 89 af bd 7a 12 6a bd 20 fc 71 be ff 19 7e 3e
       -0.085711695 -0.057146527 -0.23631334 0.24814604
000020 3d 77 68 be
       -0.22701736

resblocks.0.conv1.depthwise.weight f4 [9, 1, 3, 3]
000000 c0 06 bc 3e 9a 41 54 3e e5 25 2e 3e 68 f9 8c bd
       0.367239 0.2072815 0.17006643 -0.06883508
000010 30 85 d7 bc 8f a6 ff bd 4a d7 a9 3c 5f 56 6f be
       -0.026308626 -0.124829404 0.02073254 -0.23372792
000020 eb 0e f4 3e fb 2f 2a 3d d0 a7 40 bd 47 12 8f 3d
       0.47667632 0.041549664 -0.04703504 0.06985908
000030 a6 a9 2d be 8c 0b 37 3e 9a fa 4c bc 8b 75 45 bf
       -0.16959247 0.17875499 -0.01251092 -0.7713248
000040 6a 44 45 3d 14 79 85 be 1f 78 42 3d 3d ca 2d 3e
       0.048160948 -0.26068938 0.047477838 0.16971679
000050 04 57 be 3e 13 ee 69 bd c3 ea 8d bc 9d c5 15 3f
       0.37175763 -0.05711181 -0.017323857 0.5850466
000060 5b 63 a0 3d 19 f9 1d 3e 13 6f dc be a0 8e 3e 3e
       0.078314506 0.15427054 -0.43053493 0.18609095
000070 cb fd 50 be 58 86 cd 3e e8 93 6e 3d 08 86 02 3e
       -0.20409314 0.4014156 0.058246523 0.12746441
000080 6c c6 10 bf f7 55 f3 3e 90 0c 85 3c 55 95 75 bd
       -0.5655277 0.47526523 0.016241342 -0.059956867
000090 ab 3e cf be 21 05 95 3e 47 db 95 bd c0 07 e9 3d
       -0.404775 0.29105476 -0.073172145 0.11378431
0000a0 b1 6a 0c be dd aa 82 3d 96 e3 d6 be 7f 36 c7 3e
       -0.13712575 0.06380246 -0.4197051 0.38908765
0000b0 5a 20 bf be 80 b0 7c be bc c3 f4 bd 82 78 0f 3e
       -0.3732937 -0.24676704 -0.11951396 0.14010814
0000c0 d9 ce 15 be 58 83 e6 3c c2 ff 01 3f 20 29 08 3f
       -0.14629687 0.028138801 0.5078088 0.5318775
0000d0 5d 12 b5 3d 82 5d a3 3e 20 41 06 3f ae 98 a0 bd
       0.08841393 0.31907278 0.5244312 -0.07841621
0000e0 c6 70 06 3e 01 b0 41 3e 82 da 00 be aa c9 95 3b
       0.13128957 0.18914796 -0.12583354 0.0045711594
0000f0 18 70 5e 3d a5 5a a0 3a 4c fe 9e 3d 5d 1b 31 be
       0.05430612 0.0012234045 0.07763347 -0.17295595
000100 15 d8 38 3e 2b f9 f2 be 7d c2 f2 bc 9a ec cc 3e
       0.18051179 -0.47455725 -0.029633755 0.40024263
000110 98 56 a3 3e b3 4c 97 be 8f 18 93 3e 77 5f 22 bf
       0.31902003 -0.29550704 0.28729674 -0.6342692
000120 f0 95 d4 3e 46 5b e0 bb 7f 0f e5 3d 74 fc 40 be
       0.41520643 -0.006846818 0.11184596 -0.18846303
000130 cf c5 72 bd 78 4a 19 3f a2 1c 85 be 3d 18 c4 bd
       -0.059270676 0.59879255 -0.25998408 -0.095749356
000140 0f 14 ec bd
       -0.115272634

resblocks.0.conv1.depthwise.bias f4 [9]
000000 a9 cf 4c 3d cf 3c bb bd a2 72 c1 3e a2 65 24 3e
       0.050002728 -0.09142458 0.3778277 0.16054395
000010 19 41 c5 be 65 db c3 be b5 2d 12 bd a7 d3 d4 3e
       -0.38526228 -0.38253322 -0.03568812 0.41567728
000020 c0 33 e4 be
       -0.44570732

resblocks.0.conv1.pointwise.weight f4 [9, 9, 1, 1]
000000 04 05 69 be a6 4c fc 3c c2 fc 16 3b d6 cf 08 3d
       -0.2275582 0.030798268 0.002303884 0.033401333
000010 7c cc 1e be af 2e fd 3d d3 f4 0e 3f 5a 53 1d 3f
       -0.15507692 0.1236242 0.5584232 0.6145531
000020 8d c5 d6 3e 13 4f a0 3e 1d 09 5a 3d 0c ec 8f bd
       0.41947594 0.3131033 0.053231347 -0.07027444
000030 c1 64 3c be 04 50 2c 3e 0f d6 ea 3d c9 4f 0d 3e
       -0.1839781 0.16827399 0.1146661 0.13799967
000040 06 c8 3e bf f4 67 fa bd 0e 3b 84 be 88 df 5f 3f
       -0.7452396 -0.12226859 -0.25826305 0.87450457
000050 ba 57 a9 bd a7 c1 dc 3c 39 8e 13 3e 31 de 5e be
       -0.08268686 0.02694781 0.14409722 -0.21764447
000060 8d c5 1e 3a 81 c4 53 3e f8 8f e5 bb be 10 34 3e
       0.0006056659 0.20680429 -0.007005688 0.17584512
000070 88 eb 72 bb f4 37 7a 3d 72 56 c4 bc 11 4a e3 bc
       -0.0037066657 0.061088517 -0.023967002 -0.027745279
000080 87 24 52 bf ad 77 06 bd ef dc 78 be f7 75 d2 be
       -0.82086986 -0.032828975 -0.2430303 -0.41105625
000090 ac aa 9f be 1b 42 f0 bd 6e 65 15 3e 27 72 71 3d
       -0.311849 -0.117313586 0.14589474 0.058946755
0000a0 99 70 7e be a1 c2 a9 bd 36 e5 40 bc 1b e4 b3 3e
       -0.2484764 -0.08289076 -0.011773398 0.35134968
0000b0 65 fb 1e bf b6 73 46 bc f0 36 64 3e 76 d5 17 3e
       -0.6210235 -0.012112549 0.22286582 0.14827523
0000c0 00 37 7a 3e ae a5 b7 be 95 5b fe 3c 81 72 7b be
       0.24435043 -0.3586859 0.03104953 -0.24555399
0000d0 a6 e7 0d be 4f ac 4f be b0 76 2d be 8f 3c 82 3e
       -0.13857898 -0.20280574 -0.16939807 0.25436828
0000e0 91 5c ae 3e 98 04 36 3f 2d d0 e9 3d c2 d7 d0 3d
       0.34054998 0.7110076 0.114166595 0.101974025
0000f0 d4 7e 85 3c 4e fe 17 bd 75 5c 7c bc c6 af bf 3c
       0.016295828 -0.03710776 -0.015402903 0.023399245
000100 80 2a 3b 3e cf 7d 2b 3f 93 de 87 be bb 57 12 3f
       0.18277931 0.66988844 -0.26536998 0.57165116
000110 33 1c 5e be 07 c0 08 be b3 32 73 be b5 31 e5 3c
       -0.21690445 -0.13354503 -0.23749809 0.027977804
000120 36 4d 75 bd 93 c1 f4 be 9f 43 b7 3e a6 ff 9f 3e
       -0.059888087 -0.47803935 0.35793778 0.31249732
000130 7c a8 de 3e 3b c3 13 be e5 64 c6 3d c2 41 cc bd
       0.43487918 -0.14429943 0.09687213 -0.0997348
000140 a4 69 0a 3e
       0.13516861

resblocks.0.conv1.pointwise.bias f4 [9]
000000 87 dc 03 3e 05 41 a6 3e d4 74 e1 bd 52 1a dd 3d
       0.12877093 0.3247148 -0.11008611 0.10796036
000010 a7 a2 ff 3e ae ef c2 bd 4d 7a 3c 3e 84 52 3f 3e
       0.4992878 -0.095183715 0.18406029 0.18683821
000020 26 e3 26 3f
       0.6519035

resblocks.0.in1.weight f4 [9]
000000 e3 a6 54 3f 34 30 54 3f 63 c3 84 3f a4 3d 19 3f
       0.8306715 0.8288605 1.0372127 0.5985968
000010 cb 69 40 3f 70 01 90 3f bb ba ab 3f a6 de 90 3f
       0.7516143 1.1250439 1.3416361 1.1317947
000020 fd 27 9d 3f
       1.2277828

resblocks.0.in1.bias f4 [9]
000000 44 38 93 3e 97 91 e6 3e bd ae 8f 3e 9c ef 1c 3f
       0.28753865 0.4503295 0.28063002 0.61303115
000010 68 3b 34 bd 7c c5 36 3d 5e 6a 8d 3c d5 90 d1 3e
       -0.044001967 0.04462193 0.017262634 0.4093081
000020 40 ac 2c 3d
       0.042156458

resblocks.0.conv2.depthwise.weight f4 [9, 1, 3, 3]
000000 aa 97 a8 be 36 89 14 be aa 66 f1 bd a7 b7 bc 3b
       -0.3292821 -0.14505467 -0.1178716 0.0057591978
000010 61 cc 89 3d d1 87 a5 3c 11 55 ae bd bd be dc bd
       0.06728435 0.020206364 -0.08512319 -0.10778568
000020 33 86 6d 3b 31 de 0d 3d 35 c6 b8 bd 15 c8 11 be
       0.003624332 0.034635726 -0.0902218 -0.14236481
000030 01 10 bf bd 95 4e c3 bd d7 68 a0 be 2d 32 a8 bc
       -0.093292244 -0.09536473 -0.31329986 -0.020531738
000040 34 d3 6d be e8 53 e8 be 0f aa 8d 3e 53 96 48 bd
       -0.23225099 -0.45376515 0.27668807 -0.048971485
000050 c4 98 a0 be 77 7e 03 be 6a 0c cc bd d0 d3 78 3b
       -0.3136655 -0.12841211 -0.09963305 0.0037968047
000060 0a 19 93 3d 77 4c a0 3e 2b 9c 14 3f b2 82 21 be
       0.0718251 0.31308338 0.58050793 -0.15772513
000070 a7 a9 07 be 86 bb a0 be d8 6a 44 be 91 9d cc bd
       -0.13248311 -0.3139307 -0.19181383 -0.09990991
000080 9e c7 f0 bd bd d3 ba 3e 41 a4 40 3e 36 c6 8d 3e
       -0.11756824 0.36489668 0.18812658 0.27690285
000090 25 87 2c 3e 8a df a2 3d 70 1a a4 3d f6 95 9b 3e
       0.16848429 0.07952793 0.08012855 0.3038785
0000a0 84 9f 05 3e a4 d2 61 3e f8 be fa 3d c2 2c f1 3d
       0.13049132 0.2205301 0.12243456 0.11776115
0000b0 b8 4d 93 3e a3 9a cd 3e 76 39 b7 3e 07 39 05 3d
       0.28770232 0.4015704 0.35786027 0.03252509
0000c0 b3 bf c1 3e ed 57 46 bd 4a 19 a4 3d 12 7e a1 3e
       0.37841567 -0.048423696 0.08012636 0.31541497
0000d0 c6 0b 6b 3d 0d f2 5f be be fc c0 3e 4f 5b 1b bf
       0.057384275 -0.21869679 0.37692827 -0.606862
0000e0 80 50 86 3e 3e 07 6c 3e c3 2c fe bd 81 42 3d 3e
       0.26233292 0.23049638 -0.12410881 0.184824
0000f0 8f 90 83 3e 3c 2d 8a 3f ae 73 b3 3d f2 ad 2c 3f
       0.25696227 1.0795054 0.087622985 0.6745292
000100 52 35 c3 3d de 36 83 3d 2f 40 7f be d1 75 f1 bd
       0.095316544 0.064069495 -0.24926828 -0.1179005
000110 df ea 64 3c f9 e4 01 bf 16 af a5 3c c9 f6 77 3e
       0.013972013 -0.5074001 0.020225089 0.24215235
000120 92 c3 f3 bc 94 95 90 3a 71 50 aa be b3 f4 0f bd
       -0.029756341 0.0011030906 -0.33264497 -0.035145473
000130 32 c5 af bc f2 b0 37 be 5d 69 21 3f 82 29 db 3e
       -0.021456335 -0.17938593 0.63051397 0.42805105
000140 b9 5b d7 3e
       0.42062166

resblocks.0.conv2.depthwise.bias f4 [9]
000000 48 a4 98 3d 4a 14 9e bd 4b cb 76 be 53 0d 5b bf
       0.07453209 -0.077187136 -0.24100988 -0.85567206
000010 b2 1d a7 bd fc 24 a5 be 08 49 44 be a7 78 1e bf
       -0.08159961 -0.3225478 -0.19168484 -0.6190285
000020 33 d5 3d be
       -0.1853836

resblocks.0.conv2.pointwise.weight f4 [9, 9, 1, 1]
000000 7c c4 80 bb bf 16 6a bd 3d c4 e7 3e e0 11 d3 3c
       -0.0039296728 -0.0571506 0.45266905 0.02576536
000010 5b 07 aa bd fc cd 92 3e 29 b3 a0 bd cf df a2 3b
       -0.08302184 0.2867278 -0.07846672 0.0049705277
000020 f8 b3 e0 be f0 51 63 bc c6 0c d0 3c 60 c7 e6 be
       -0.43887305 -0.013874516 0.025396716 -0.45073986
000030 9c 08 59 bc 7b 10 bf be c0 e1 18 3c aa 1e f5 be
       -0.013246682 -0.3731726 0.009331167 -0.47874957
000040 9b d8 9c bd 12 b4 92 3e fd 0b 9b 3c 96 f3 07 bd
       -0.07658502 0.28653008 0.018926615 -0.033191286
000050 dd 73 17 3e 24 15 be bd 8c 2f 5f be 8a ee 4a 3e
       0.14790292 -0.09281376 -0.21795481 0.19817558
000060 ec 83 50 bf 7a ce 37 3e 5c 6d b8 bd e2 22 92 3d
       -0.81451297 0.17949858 -0.09005234 0.071355596
000070 af ff e8 bd 21 d9 04 bf f9 c1 71 be 31 f1 90 3d
       -0.11376893 -0.5189381 -0.23609151 0.070772536
000080 a7 59 ea be de 54 79 3e a5 a8 f2 be 2b fd 0b bf
       -0.45771524 0.2434878 -0.4739429 -0.5468318
000090 0e ba bf be a9 3a da 3e e3 3a 9c 3d bb e5 ed 3c
       -0.37446636 0.4262288 0.07628419 0.029040208
0000a0 b2 e4 7a 3e 2b 73 a4 3e e5 20 05 be 04 27 dc 3e
       0.24501303 0.32119116 -0.1300083 0.42998517
0000b0 6f e9 f7 be ee f5 32 be 50 66 17 3f eb 70 bd be
       -0.48420283 -0.17476627 0.5914049 -0.37000212
0000c0 5c e7 08 be 75 e1 f9 bc 03 79 0f be ec 3e c6 bd
       -0.13369507 -0.030503014 -0.14011006 -0.0967997
0000d0 bc 67 9c be 66 fe 95 be 49 98 bf 3e 43 c1 92 3c
       -0.30547893 -0.29295653 0.37420872 0.01791442
0000e0 69 27 ee 3c 72 3e a6 3d 0b ed b4 3e 25 a4 39 3e
       0.029071527 0.08117379 0.353371 0.18129022
0000f0 27 e2 81 be 89 35 84 bd 87 25 0d bd c6 40 36 3e
       -0.25367853 -0.064555235 -0.034459617 0.17798147
000100 49 72 0d 3d 13 51 17 be f0 31 1f 3f 00 65 a6 3c
       0.03453282 -0.14777021 0.62185574 0.020311832
000110 87 b9 06 3e 96 fd 0b be 77 61 08 3f 88 af d7 3e
       0.1315671 -0.13670954 0.5327372 0.42126107
000120 63 30 95 be 80 35 97 3e 7c e8 bb 3d 41 09 f7 bc
       -0.2913848 0.29533005 0.09175202 -0.03015578
000130 fa 9b d0 3d a4 4b 9c 3e 94 48 94 be a4 ae 46 3e
       0.10186 0.3052646 -0.28961623 0.19402558
000140 a3 80 c5 be
       -0.38574705

resblocks.0.conv2.pointwise.bias f4 [9]
000000 27 e4 73 be 79 c9 9f 3e ce 49 9e 3c 65 e9 c8 3e
       -0.23817502 0.312084 0.019322302 0.39240566
000010 d0 ed e8 bd 91 dd 07 3e 63 7d e4 bd 3e dd 2c be
       -0.11373484 0.13268115 -0.11156728 -0.16881272
000020 75 9d 79 3e
       0.24376471

resblocks.0.in2.weight f4 [9]
000000 b4 0a 72 3f 07 6f 6a 3f a9 54 5c 3f 57 87 52 3f
       0.9454758 0.91575664 0.8606668 0.8223776
000010 b5 f2 7c 3f 96 1f 60 3f f6 6a 18 3f 15 fa 05 3f
       0.9880784 0.87548196 0.5953821 0.5233472
000020 3f 53 81 3f
       1.010353

resblocks.0.in2.bias f4 [9]
000000 47 2c a2 be 12 a6 5d 3f 1f 63 5d 3f 5d d7 6e 3d
       -0.31674406 0.8658153 0.8647937 0.058310855
000010 1f 0f e7 3e f0 9a 3d be 16 71 f8 3e ec d5 63 be
       0.45128724 -0.18516135 0.48523778 -0.22249573
000020 e6 db 9f be
       -0.31222457

resblocks.1.conv1.depthwise.weight f4 [9, 1, 3, 3]
000000 e1 d2 03 be a4 b2 81 3d 5b cb 8e 3d 09 5d d7 bc
       -0.12873413 0.06332901 0.06972381 -0.02628948
000010 7e 84 82 3d 9c 67 41 be 32 eb e3 bc 08 2a 8c be
       0.06372927 -0.1888718 -0.02782211 -0.27375817
000020 92 dd 63 be d3 56 b7 be 9d 98 ec bd 93 5a 4a 3e
       -0.22252491 -0.3580843 -0.11552546 0.19761114
000030 95 a2 b8 3e 3a ac a1 3e 1b bb c5 bc c6 39 3a be
       0.3606154 0.3157671 -0.02413707 -0.18186101
000040 dd 37 cd 3c 14 11 cc 3c a3 94 18 bf bc 22 2f be
       0.025051052 0.024910487 -0.596018 -0.17103094
000050 68 ef b6 bd d0 42 c7 be 69 26 c3 3d a6 dc 33 bd
       -0.08932382 -0.3891816 0.095288105 -0.0439116
000060 20 74 20 3e 70 cc 30 3d 85 53 95 3e ea e6 c7 be
       0.15669298 0.043163717 0.29165283 -0.3904336
000070 f8 12 06 3e 01 03 06 bf d3 2c ac 3e 5f 9d d1 be
       0.13093174 -0.52348334 0.33627948 -0.40940377
000080 4e 1a cc be b3 e7 90 3d 6f ac 83 3e f9 65 fb be
       -0.3986382 0.07075443 0.25717494 -0.49101236
000090 7c 3f 03 be 75 9d 2d 3d f6 2c 41 bc d4 99 13 bd
       -0.12817186 0.04238649 -0.011790505 -0.036035374
0000a0 c2 84 87 3d db 11 27 3d 7c f8 a7 be 98 1c 8f be
       0.066171184 0.040788513 -0.32806766 -0.27951503
0000b0 7d 2f 6b be 45 ae 5f be b2 e3 03 be 04 7e da be
       -0.22967334 -0.21843822 -0.12879828 -0.42674267
0000c0 a3 7a 0a 3e 71 d0 43 be c7 a3 80 be 91 05 d1 3d
       0.13523345 -0.19122483 -0.25124952 0.1020614
0000d0 2a 64 94 3e 89 f2 3f be e5 48 df be e1 e9 97 bb
       0.2898267 -0.18744864 -0.43610302 -0.004636035
0000e0 42 9a 84 be 5a ed d3 bd 6a 85 ec 3c 11 72 4f be
       -0.2589894 -0.103480056 0.02887221 -0.20258357
0000f0 f6 1f 1e be 24 64 ab 3d e9 37 08 3e 2a c5 60 3e
       -0.1544188 0.0836871 0.13302578 0.21950212
000100 bb 87 9b 3e 41 ec 82 3e 81 26 12 3e 4a e8 3f 3c
       0.30376992 0.25570872 0.142725 0.011713097
000110 12 0c 84 3e b2 53 2b 3f 31 35 5d 3e 15 49 92 3e
       0.2579046 0.66924584 0.21602322 0.28571382
000120 0f a3 9a be af 32 df 3b 1c 58 05 3d e8 99 08 be
       -0.3020253 0.006811462 0.03255473 -0.1333996
000130 29 dc 7f bd 8d 55 9f bd b2 37 cd be 81 2c bc be
       -0.06246582 -0.077799894 -0.40081555 -0.36752704
000140 09 38 d7 be
       -0.4203494

resblocks.1.conv1.depthwise.bias f4 [9]
000000 00 93 ef be e6 97 96 3d c9 51 c8 3e c7 fb e3 3e
       -0.4679184 0.07353191 0.39124897 0.44528028
000010 c9 5e 6c 3e a9 61 08 3d a8 4f 7e be a9 d2 36 3d
       0.23083033 0.03329626 -0.24835074 0.044634495
000020 1a f1 03 bc
       -0.008053089

resblocks.1.conv1.pointwise.weight f4 [9, 9, 1, 1]
000000 10 94 81 be 0e c0 26 bd e1 aa c5 3e 59 4c 37 bd
       -0.25308275 -0.0407105 0.38606933 -0.044750545
000010 40 29 24 3d 17 00 bb be 51 69 6e 3e 57 dc bf 3e
       0.0400784 -0.36523506 0.23282363 0.37472793
000020 4c cb b0 be 7e e8 08 3e ad b1 03 3d 44 9e 12 3f
       -0.34530103 0.13369939 0.032151867 0.57272744
000030 3d 38 ec bd 69 29 29 3e f1 2e 4f 3e f1 18 8f 3e
       -0.11534164 0.16519703 0.2023275 0.27948716
000040 00 a5 83 be 3a d5 74 bc f8 5a 24 3d 64 fb c7 be
       -0.25711823 -0.014943415 0.040125817 -0.39058983
000050 ec 54 60 be 17 6c 5d 3e d2 a7 c4 be 19 6f bd 3d
       -0.21907395 0.21623264 -0.38409287 0.09249706
000060 e9 1d a0 3d 5f 40 0e 3e 66 49 a4 3e 57 a7 38 be
       0.07818205 0.13891743 0.3208725 -0.18032585
000070 1e 08 61 3f 32 12 18 bf 52 ce 9d be 4d e2 ea 3c
       0.8790301 -0.59402764 -0.30821472 0.028672362
000080 2c d4 4c 3e d2 41 8c 3d 5a 40 1b 3e 03 ee 96 bc
       0.20002812 0.06848492 0.15161267 -0.01842404
000090 ab 3c ab 3d 11 33 c1 3d a1 62 39 be ef 7e 90 3f
       0.08361181 0.09433568 -0.1810403 1.1288737
0000a0 9d 7b 8a bd e9 d4 da bd 85 eb 8f 3d f1 4f 43 be
       -0.067618586 -0.10685141 0.07027344 -0.19073464
0000b0 fa 7c 3e 3e 78 aa 9c 3c fc 33 b1 be af 65 2c bf
       0.18602362 0.019124255 -0.34609973 -0.67342657
0000c0 b9 10 b6 3b 9c 3e 76 3e 46 6f ce 3e 86 26 40 be
       0.0055561927 0.24047321 0.4031927 -0.18764696
0000d0 1f b0 ae bd 7b 3d e8 bd 2e e6 de be 66 34 12 bd
       -0.08529686 -0.113398515 -0.43534988 -0.035694502
0000e0 69 8a 0a bf 8e 11 12 be 7d 5c 79 be 7f 30 86 3e
       -0.5411745 -0.14264509 -0.24351688 0.26208875
0000f0 60 ae a8 be be ee e0 3d 24 f3 2a 3e 59 8d 1c bd
       -0.32945538 0.109830365 0.16694313 -0.038220737
000100 db 52 8e be 50 cb d2 3e df f2 54 be 3e 8d c7 3e
       -0.2779759 0.4117074 -0.20795773 0.38974947
000110 6e de be 3d 1c da 0a 3d a0 77 01 3f 8d 51 83 be
       0.09319769 0.03389941 0.5057316 -0.25648156
000120 b3 47 9f be a3 c2 03 bd 6e 4a 38 3e 72 55 55 3e
       -0.3110939 -0.032168042 0.17997143 0.20833376
000130 f9 0a 5d be ba 36 04 bf 5e c6 96 3e 58 e5 a6 bd
       -0.21586217 -0.51646006 0.29448217 -0.081492126
000140 0c 03 50 be
       -0.20313662

resblocks.1.conv1.pointwise.bias f4 [9]
000000 65 72 32 bd ce 0b f8 3e 82 f0 b6 bd 9b 8d ac be
       -0.043566126 0.48446506 -0.08932592 -0.33701786
000010 ac f0 41 3c 5a f2 f5 3e 5f 49 a4 3e 9f ed 02 3e
       0.011837166 0.48036462 0.32087228 0.12785958
000020 40 72 63 3d
       0.05552888

resblocks.1.in1.weight f4 [9]
000000 0b 50 94 3f 6a 49 83 3f fa b8 61 3f 7f 7e 70 3f
       1.1586927 1.0256779 0.88172877 0.9394302
000010 d4 bc 59 3f cb 84 81 3f f6 42 58 3f b7 40 48 3f
       0.85053754 1.011865 0.84477174 0.78223747
000020 aa f8 6f 3f
       0.93738806

resblocks.1.in1.bias f4 [9]
000000 df e0 ec bc 9b 33 a3 be d3 89 4f 3e b9 d6 5b 3e
       -0.02891582 -0.3187531 0.2026742 0.21468629
000010 d5 e8 46 bf 6e 47 cc 3e 74 33 8b 3e 84 78 ed 3e
       -0.77699023 0.39898247 0.27187693 0.4638101
000020 b8 0c 41 3d
       0.04713127

resblocks.1.conv2.depthwise.weight f4 [9, 1, 3, 3]
000000 92 c6 ef be dc 9b 3f 3c 87 5c 8c be 06 26 d1 bc
       -0.46831185 0.011694875 -0.27414343 -0.025530826
000010 ed fb c5 3e c6 ad c1 bc 2e e5 c1 be 2f 41 56 3e
       0.38668767 -0.023642432 -0.37870163 0.20923303
000020 f7 fb 79 be c6 21 b3 3e db bd 2b bd b5 7a ae be
       -0.24412523 0.34986705 -0.041929107 -0.34077993
000030 c9 84 08 be fb 41 f8 bd 37 ff f9 be 71 37 d3 be
       -0.13331904 -0.1212196 -0.48827526 -0.41253236
000040 8b 77 44 be b9 fa d4 3c 58 7d e5 be aa c7 40 3c
       -0.19186227 0.02599846 -0.44822192 0.011766354
000050 b8 34 53 be 58 1e 06 3e 6c c7 ff 3d 41 a9 4c be
       -0.2062558 0.13097513 0.124892086 -0.1998644
000060 5a f3 de 3d 26 49 d3 bd db c3 97 3e 34 d1 c4 3c
       0.108862594 -0.10316686 0.29641613 0.024025537
000070 98 9e 03 3e 4c a2 b8 be 9a 8a ec 3d 27 1a 9d 3e
       0.12853467 -0.36061323 0.11549874 0.30684015
000080 61 55 89 be 17 a4 07 3f 79 85 2e bd 79 29 f0 bd
       -0.2682295 0.52984756 -0.04260776 -0.1172666
000090 1f 02 ba 3e 99 07 23 bf 99 2b 9f 3d a6 16 8c bd
       0.36329743 -0.6368347 0.077719875 -0.06840257
0000a0 3c de c0 3e 04 2f 28 bf 1d 27 3c be a4 bb 52 be
       0.3766955 -0.6569674 -0.18374296 -0.20579392
0000b0 13 50 c6 3d bb fb 6d 3e 99 47 48 3d 8a 6c 86 3e
       0.09683242 0.23240559 0.048896406 0.26254684
0000c0 31 c8 af 3e f9 cb 8d 3d 96 bd 09 3e 94 f8 0a 3f
       0.3433242 0.0692367 0.13451228 0.5428555
0000d0 f1 b2 52 3c 28 37 b2 3e 27 dc ad bb 90 c2 70 3d
       0.012860046 0.34807706 -0.005305785 0.0587793
0000e0 78 5f e6 3d 4c c8 77 3e 98 21 9f 3b 2d 30 88 3e
       0.11248678 0.24197501 0.0048562996 0.26599255
0000f0 dc 41 53 3e c3 b4 8e 3d 27 a7 88 3e c2 0f 89 be
       0.20630592 0.06968071 0.26690027 -0.26769835
000100 dd 59 09 be 2f bc ec ba 4b af 00 be 49 11 69 3d
       -0.13413186 -0.0018061454 -0.12566869 0.05690125
000110 07 15 78 bd 5f 82 5d be ba 7d 16 bd 11 bc 7d be
       -0.06056693 -0.21631764 -0.036740996 -0.24778773
000120 5c 02 34 3e c4 55 33 3e 6c 45 69 3e 2f 5b 3c 3e
       0.17579025 0.17513186 0.22780389 0.18394159
000130 f6 99 1d be aa d0 aa 3d de 05 1c 3e 40 e5 8c 3e
       -0.15390763 0.08340581 0.15236613 0.27518654
000140 38 ac c1 3e
       0.37826705

resblocks.1.conv2.depthwise.bias f4 [9]
000000 c9 76 a1 be 25 d2 a1 3e 39 c8 9a 3e 24 f8 72 be
       -0.31535938 0.3160564 0.30230883 -0.2372747
000010 fe 2c 69 3e 51 1e 41 be 13 24 85 be b4 dc 3e 3d
       0.2277107 -0.18859221 -0.26004085 0.046597198
000020 74 18 7f be
       -0.24911672

resblocks.1.conv2.pointwise.weight f4 [9, 9, 1, 1]
000000 41 b5 15 3e 9b 4e bb 3e c4 e6 c2 be 8a 86 d8 3d
       0.14619924 0.3658341 -0.38066685 0.10572536
000010 06 ad a2 3e 04 95 06 3f 16 94 ec bd fc 3b 0f 3e
       0.3177263 0.5257113 -0.11551683 0.13987726
000020 8b 3b cd bd 3b 06 69 3e 07 9c fa 3d e7 e9 f6 be
       -0.100211225 0.22756283 0.12236791 -0.48225328
000030 2f d8 96 3d aa 27 26 bd b1 3e 30 3e 72 23 6d 3e
       0.073654525 -0.04056517 0.17211415 0.23158053
000040 fd f3 a0 3e 14 d6 64 3e 3e ce 9f 3e 86 ca 65 be
       0.31436148 0.2234729 0.31212038 -0.22440538
000050 4a 66 a5 bd a9 45 ca be f3 3b 8b 3d 3d ec fc 3e
       -0.08076151 -0.3950627 0.06798544 0.49398986
000060 06 14 b6 be 2c 75 90 be 3a 7f 55 bc 41 e4 92 be
       -0.35562152 -0.28214395 -0.013030821 -0.2868977
000070 47 b3 c2 3d 26 3a 91 be 28 ed 55 be d4 d6 2a 3e
       0.09506851 -0.28364676 -0.20891249 0.16683513
000080 d9 fc 9f be 7e 1d f1 3e 97 1b aa ba e3 78 ec bd
       -0.31247595 0.47092813 -0.0012978193 -0.11546495
000090 a0 48 64 3e 47 7a f1 3b 09 40 f9 3d ec 2a c4 3e
       0.22293329 0.007369313 0.12170417 0.38313997
0000a0 74 bc eb be 22 2f 39 be 67 7f 37 3e 06 be f6 bd
       -0.46042216 -0.18084386 0.17919694 -0.12047963
0000b0 c1 85 b0 be f1 eb a8 3e 99 2a 28 be 11 48 2c 3d
       -0.34477046 0.3299251 -0.164225 0.042060915
0000c0 f2 9b c2 be a0 fa c7 3e 9b 43 c0 3e 81 01 7a be
       -0.38009602 0.390584 0.3755158 -0.24414636
0000d0 a5 65 57 be 6c fb 83 3d 36 48 c2 bd 2f a5 eb be
       -0.21034868 0.06444439 -0.094864294 -0.46024463
0000e0 a2 54 63 3e 58 50 9e 3e 00 83 9d 3e ba e0 1e bd
       0.22200254 0.30920672 0.30764008 -0.038788535
0000f0 55 07 d9 be 3b cc 66 3e a6 cf 88 be b1 80 f2 3e
       -0.42388406 0.22538845 -0.26720923 0.4736381
000100 07 28 e9 3e f1 6d 72 3e d4 62 0b 3e bf 02 0a be
       0.4553835 0.23674752 0.13611919 -0.1347761
000110 78 f4 d8 3d 39 f7 ff 3c 66 81 56 3d 27 84 f2 3d
       0.10593504 0.031245815 0.052369498 0.11841612
000120 3b 48 80 3b 75 de 01 3f 60 70 80 3b 2e d3 3f be
       0.0039148605 0.5073007 0.003919646 -0.18732902
000130 fe 07 16 bf e0 f6 26 3d 4f 20 cb bc 7c e9 41 bc
       -0.58605945 0.040762782 -0.02479568 -0.011835452
000140 cc 6e 15 be
       -0.14593047

resblocks.1.conv2.pointwise.bias f4 [9]
000000 23 ca 9d 3d 29 2b 02 3e 5f f6 32 be 7e 08 c4 be
       0.0770457 0.12711777 -0.17476796 -0.3828773
000010 eb a6 e0 3e b3 6f b7 3e 41 43 ac bb f1 55 d4 be
       0.43877348 0.35827407 -0.0052570407 -0.41471818
000020 0a 5d 96 3e
       0.29367858

resblocks.1.in2.weight f4 [9]
000000 2d 4a 3b 3f f3 87 8c 3f 9f 32 97 3f 07 42 51 3f
       0.7316006 1.0978988 1.1812323 0.81741375
000010 3a fb 6d 3f 74 0f 83 3f 3d e7 6a 3f 4d 47 91 3f
       0.92961466 1.0239091 0.9175909 1.1349884
000020 8e 10 8f 3f
       1.1176927

resblocks.1.in2.bias f4 [9]
000000 a4 fb 0d 3f 1e b6 c2 3f 19 cc 41 3f d5 9c a6 be
       0.554621 1.5211828 0.75702053 -0.32541528
000010 ec a3 9a 3f f8 8f 89 3f da 90 42 3e b8 91 cb 3c
       1.2081275 1.0747061 0.19000569 0.024849758
000020 2d 97 36 3f
       0.71324426

resblocks.2.conv1.depthwise.weight f4 [9, 1, 3, 3]
000000 e8 6c 07 be cc 90 00 3e 46 11 c8 be 92 ad 22 be
       -0.13225138 0.12555236 -0.3907568 -0.15886524
000010 58 61 43 be eb fe c6 be 0a a4 c3 3e 6f 86 5b 3e
       -0.19080102 -0.38866362 0.3821109 0.21438001
000020 ce ac 6e 3e b0 6f 2e 3f f2 8d bc bd e6 9d 2c bf
       0.23308107 0.6813917 -0.092067614 -0.67428434
000030 a6 f1 8f 3d 64 f3 ac 3d 30 a8 5f 3d 8c 7e 03 3e
       0.07028513 0.084448606 0.054603755 0.12841243
000040 6a fe 4b bd 04 8f b2 3d 80 47 2e bd 12 fe 49 bd
       -0.049803175 0.08718684 -0.042548656 -0.049314566
000050 64 95 3d 3f 84 9c 77 bd 4f d4 02 3f e4 59 c0 3d
       0.74056077 -0.060452 0.5110521 0.09392145
000060 dd 0b be be ba 5d 13 be 20 f0 7f be c2 fd c7 3d
       -0.37118426 -0.14391223 -0.24993944 0.09765197
000070 62 7f c6 bb 68 f5 a8 3e 8e a6 e5 3c 63 7e 01 be
       -0.0060576657 0.3299973 0.028033521 -0.12645869
000080 3d b8 e2 3e 95 cd 81 be 8a 2a 6a 3d 81 b1 a2 3e
       0.44281188 -0.2535216 0.057169475 0.3177605
000090 34 fa 46 be d4 05 84 be 58 ce 74 be 6e 0e 14 be
       -0.19431382 -0.25785697 -0.23906839 -0.1445863
0000a0 d1 4a 66 3e 2d 18 11 3d 9e 29 9a be 8e a2 e5 bd
       0.22489478 0.035423446 -0.30109876 -0.112126455
0000b0 22 63 16 be 7f 27 13 bf f4 cc f2 bd 58 a6 26 be
       -0.14686254 -0.5748214 -0.11855498 -0.16274393
0000c0 56 58 8d bd 92 de 85 bd 61 95 dc bd 0c 41 71 3d
       -0.06901614 -0.065365925 -0.10770679 0.058899924
0000d0 ff 27 da 3d 21 f0 00 bd 5e ea 03 3e 33 94 f4 3d
       0.1065216 -0.031479005 0.12882373 0.11942329
0000e0 7c d0 bc 3d 6c 02 be 3d 07 ac 0e be 71 12 f1 bd
       0.09219453 0.09277806 -0.1393281 -0.117710955
0000f0 bc 5c ea 3e 49 72 ea 3d 95 35 9f 3e 02 4b 1f be
       0.45773876 0.114475794 0.31095567 -0.15555957
000100 dc a2 dc bd 15 ee f4 be 54 6b ca be 77 d2 1c bc
       -0.107732505 -0.47837892 -0.3953501 -0.009571663
000110 70 da 7c 3d 9d 9c 38 3e af 70 11 3d e1 49 98 bd
       0.061731756 0.18028493 0.035507854 -0.07435966
000120 d5 98 7a be da 22 1a 3e 7f 56 46 be a7 cd 84 3d
       -0.24472363 0.15052357 -0.19368933 0.064845376
000130 dd cd d2 bc af b4 41 3e de 06 12 be d7 c3 ea bc
       -0.025732929 0.18916582 -0.14260432 -0.028657837
000140 33 15 04 bf
       -0.5159485

resblocks.2.conv1.depthwise.bias f4 [9]
000000 1a 51 be be 37 96 79 be ea 6f a0 be 78 ef f0 3d
       -0.3717125 -0.24373709 -0.31335384 0.11764425
000010 bf 55 0e bd 5e b8 08 bf 77 cd 05 bf 3c 41 2f be
       -0.034749743 -0.5340632 -0.5226664 -0.17114729
000020 10 c5 20 3e
       0.15700173

resblocks.2.conv1.pointwise.weight f4 [9, 9, 1, 1]
000000 1d d8 b2 bb ef ae 9e 3d a2 2e 19 3e bf c6 9a be
       -0.0054578916 0.0774821 0.14959195 -0.30229756
000010 15 31 44 3e 6d de 0b 3f f4 80 b5 3d d1 f7 28 bd
       0.19159348 0.5463627 0.088624865 -0.04125196
000020 a0 d3 04 bf 7a 45 af bc 60 0c fe 3c 3f 10 a1 be
       -0.51885414 -0.021395434 0.03101176 -0.31457707
000030 80 91 54 be 03 09 82 3e b7 ca 89 3e 8d e4 a8 3e
       -0.20758629 0.253975 0.26912472 0.3298687
000040 a7 de 57 3e 73 f9 3a 3e 7e e8 14 3e 18 a5 e9 3e
       0.21081029 0.1825922 0.14541814 0.4563377
000050 fd 33 58 be 4e 6d 1e be cc ca 72 be ec bc 00 be
       -0.21113582 -0.15471384 -0.23710173 -0.12572068
000060 99 cc e1 bd fd 48 7a 3e 89 e2 85 bc 75 7e ce 3c
       -0.11025352 0.24441905 -0.016343372 0.025206784
000070 e4 69 34 3f a9 38 e9 bd b4 17 e1 be 0c 80 cd bd
       0.70474076 -0.1138776 -0.43963397 -0.10034189
000080 9e 34 3d 3d 09 5a 6f bc 5c 9e 68 3e 2a a5 87 bd
       0.046192758 -0.014608868 0.2271666 -0.066232994
000090 17 1f 3b bd 52 2b 7c 3e d7 90 5c 3d a7 31 7f be
       -0.045683946 0.246259 0.053849068 -0.24921285
0000a0 ad 20 7a 3e 02 9d fc 3e 4f b5 91 3e 77 e6 2b 3d
       0.24426527 0.49338537 0.2845864 0.041967835
0000b0 3c 52 21 bf ab f7 5f 3e 81 67 9d bb 60 16 2e 3f
       -0.63016105 0.21871822 -0.0048035984 0.6800289
0000c0 68 71 42 3d e7 c2 13 3d 57 ef f8 bb fa 84 f5 bd
       0.047471434 0.036074545 -0.007596891 -0.11988254
0000d0 01 ce 1d be 32 b7 ba 3e 6d 72 b4 be 17 e3 eb 3e
       -0.15410616 0.36467892 -0.3524355 0.46071693
0000e0 d2 00 a7 3b 5e 42 d4 bc 81 e8 a3 3e f3 91 85 3e
       0.0050965333 -0.025910553 0.32013324 0.26087913
0000f0 1e a4 65 3e f1 b2 85 3d 45 00 79 bc cb a5 7a 3e
       0.22425887 0.06528271 -0.015197818 0.24477307
000100 46 b9 76 be ab 1a c5 3e b9 a1 e4 3e eb 75 19 3e
       -0.24094114 0.3849691 0.44654635 0.14986388
000110 5f 60 c7 bc 88 bf 83 3e f3 9d 34 3e 30 7f 9d 3e
       -0.024337946 0.25732064 0.17638378 0.307611
000120 3a c2 b0 3e 59 42 19 bd 2b 23 02 3d 01 6a 97 3e
       0.34523183 -0.03741679 0.03177182 0.29573062
000130 8a f5 a8 3d 61 33 a0 be 3e ad 95 3d eb e8 bb 3e
       0.08249958 -0.312892 0.07308434 0.3670114
000140 38 f0 3f bd
       -0.04685995

resblocks.2.conv1.pointwise.bias f4 [9]
000000 0b e0 b0 be c2 b7 0d bd 1a a3 70 be 6a 50 5e 3e
       -0.3454593 -0.034599073 -0.23499718 0.21710363
000010 35 ce 9a be 4c 8b 08 be ce 9b 6b be 14 7b a8 be
       -0.30235448 -0.13334388 -0.23008654 -0.329064
000020 1a 2f b0 3d
       0.08602734

resblocks.2.in1.weight f4 [9]
000000 62 b8 56 3f a6 6e 54 3f 21 45 32 3f 2a 35 93 3f
       0.83875096 0.82981336 0.6963673 1.1500599
000010 eb f8 73 3f df 63 43 3f ba db dd 3e 40 48 50 3f
       0.95301694 0.76324266 0.433317 0.81360245
000020 1b 6f 9d 3f
       1.2299532

resblocks.2.in1.bias f4 [9]
000000 63 16 0b 3e 01 17 5c 3e 38 b4 35 3f aa 9b bc 3e
       0.13582759 0.2149315 0.70978117 0.36837512
000010 94 b6 86 bf 2f 44 c9 3e 33 df 8c 3f c3 ed ca 3d
       -1.0524468 0.39309832 1.1005615 0.09908631
000020 49 09 97 be
       -0.29499272

resblocks.2.conv2.depthwise.weight f4 [9, 1, 3, 3]
000000 89 f1 69 3e 30 06 ff bd 96 05 64 bd 9b bc be 3e
       0.22846045 -0.12452352 -0.05566939 0.3725327
000010 2a 7c 04 be 24 89 41 3e d1 73 ed bd 34 55 d3 bc
       -0.1293799 0.18899971 -0.11594356 -0.025797464
000020 fa 5e 10 3e c3 2f 9e 3e 28 7d 02 3d 31 2b 63 3e
       0.1409873 0.30895814 0.03185764 0.22184445
000030 d5 ef 13 3e 1c 81 64 be b7 02 4a 3e 90 11 57 3d
       0.14446957 -0.22314876 0.19727598 0.052506983
000040 9d 0a 4d be ba 5e 7f 3e 41 d5 e2 bd cf 4c d8 3c
       -0.2002358 0.24938479 -0.11075831 0.026403813
000050 82 ca ba 3d 9a 99 3e be 7f 45 90 3d 47 a6 7e be
       0.091206565 -0.18613282 0.07044505 -0.24868117
000060 22 44 c9 be 9f 65 b2 3c f7 26 32 be 76 ab c1 3e
       -0.39309794 0.021776972 -0.17397676 0.37826127
000070 d6 66 6f 3e 16 ad 9d 3d d3 e8 67 be 4a 20 6f be
       0.23379073 0.07699029 -0.22647409 -0.23352161
000080 50 1c e7 3d eb 46 a9 be d9 38 3c bd a2 6b 7f be
       0.11284697 -0.3306192 -0.04595265 -0.24943402
000090 76 5b 6d be 18 a6 43 bd cf 08 19 bc bd 13 c6 3e
       -0.23179421 -0.04776582 -0.009340479 0.38686934
0000a0 65 15 ca be 6b 5b 9f 3d c3 df 80 3c 48 c9 39 3e
       -0.39469448 0.077811085 0.015731698 0.18143189
0000b0 bd 00 03 bf fc 9a a3 3d ea 28 82 3e e2 0e 58 3e
       -0.51173 0.07988545 0.2542184 0.21099427
0000c0 8d ac 87 be 30 93 47 be 2a 2d 01 3e 7a 0f 9f be
       -0.26498833 -0.19489741 0.12614885 -0.31066495
0000d0 dc d7 cb bd 8a fa 8e 3c 1b 49 06 be bd 67 51 3d
       -0.09953281 0.01745345 -0.13113825 0.051124323
0000e0 ad de 8a be 5d d2 ce bc 9c b9 19 be e1 17 4d be
       -0.27123013 -0.025246793 -0.1501221 -0.2002864
0000f0 d5 8f 1b bf 34 13 d8 bd 7e 1b 98 3e 33 fa 68 3e
       -0.60766345 -0.10550538 0.29708475 0.22751693
000100 9d a4 b8 bd 01 8e 57 3e 2e ce 9c 3e a6 4f 4c be
       -0.090157725 0.21050264 0.30626053 -0.19952258
000110 e8 25 1d 3e 84 46 b6 3d 2d c9 47 bb 88 22 05 3e
       0.15346491 0.089001685 -0.00304849 0.13001454
000120 32 ec b6 3d 29 ef 0d 3e 92 25 26 be cc 74 e9 3e
       0.089317694 0.13860764 -0.1622527 0.4559692
000130 82 88 ae bd 8f 71 0a bf 7f 5d f6 be 33 cf 55 be
       -0.085221305 -0.54079527 -0.48118207 -0.20879821
000140 5c 07 55 3d
       0.05200897

resblocks.2.conv2.depthwise.bias f4 [9]
000000 e6 75 8d bc 18 a1 4d 3e 36 af f0 bd d1 e0 2d 3d
       -0.017268132 0.20080984 -0.11752169 0.04245073
000010 8f 7b 30 be 86 f3 c2 3d 00 1d 89 3e b1 79 26 3d
       -0.17234634 0.09519105 0.26779938 0.040643398
000020 c8 fb 37 be
       -0.1796714
