testapp/models/model.onnx (onnx, 39735 bytes, 74 tensors)

conv1.depthwise_separable_conv.depthwise.weight f4 [3, 1, 9, 9]
00000000: 7155 c8bd 68dd f73d e689 6bbd 9cc4 cc3d
00000010: 5f3c 65bd 247c d6bc fc3d 66bb c74b f23c
00000020: 05f4 bdbc 8215 9bbe cc83 743d 4a71 9bbd
00000030: d0d9 a93c f6eb 4cbe 4c62 babc ee19 9dbd
00000040: 1362 613c 133c 77be 31ab 3abe 724c d03a
00000050: ebf9 44be acf7 b3bd 949e 82be d45e 0bbe
00000060: 2cd6 90be d964 34be 44e0 6dbe 70ba 913e
00000070: e8a0 7e3e e98d 033d 93ca a73e 479a 133e
00000080: e78a 893e bb0e 3e3e 1c7b 363e 8da2 d13e
00000090: fc62 393e 6d24 633e e668 163e 70d1 043e
000000a0: 8cfb 1f3e 3792 a63d b050 5c3e 9564 453e
000000b0: 6999 793e 0cbf 01bf 768e 2bbe dae3 64be
000000c0: 1629 25be a216 d0be 7b22 abbe 4217 5cbe
000000d0: aaf0 9ebe 72f4 eabe 8451 86be b055 913d
000000e0: 0d82 01be 9b01 26be eb38 bebd ec83 bfbd
000000f0: af0a 4b38 e26e 35be 45ca a0be 7de7 913e
00000100: 01ec ac3e 8dcb 383e 6bd7 ca3e 6953 813e
00000110: 4876 063e a50c fe3d 56ad 953e f11a 933e
00000120: 7e86 1d3e dc04 37be 7745 f1bd 33ee e53c
00000130: 1236 0cbb 283b f2bd 166e 8ebd f0a4 ebbb
00000140: f7c0 5a3d 887c 4dbf b772 ffbc a011 67be
00000150: 13f6 3b3d c66f 173e 8ac3 74bd ac58 2abd
00000160: 7d7c 92be 79de 08bf 60aa 00be ae5d 633e
00000170: 730f 033e 5f4d 2c3e 12ff 183e 24da 0ebc
00000180: 7c5f c53e 25d4 0d3e 2fd7 efbd 1d06 b2be
00000190: 69c4 273d b1b5 95bc cd87 c2bc 7257 9fbd
000001a0: 5247 63bd 7564 473d 2824 5b3c 3621 83be
000001b0: 0a14 e5bd 9a77 e93d 6267 ff3d aeb4 363d
000001c0: 1b3b 4e3d 16f0 15be d85e c43d edcf f43d
000001d0: 034f 35bc 0f37 a7bd cf83 573e 5097 bc3a
000001e0: c2a8 563d 1126 b6bc f0c3 2dbd e578 043e
000001f0: 349d 2e3d 84d5 16be bea1 41be af5a eebb
00000200: 9cff 7cbd 0d1f 28be 7214 a43c 2bdd 06be
00000210: 464a 72bd 4136 bebd 5354 e0be bb0d 43be
00000220: e09d 6d3d 2bde eabd 4c04 c23d b6b2 ab3d
00000230: fd9d 44bc ba7b f93d 7725 593e a373 69be
00000240: b5c9 babe 852b 513e 4b9b bd3d 1a19 223e
00000250: a8ca 293e 1531 c9bd 9b2b 843e 32ae 163e
00000260: 2d35 82be 8a58 4cbf 7b70 1e3e 6292 ebbd
00000270: 7601 8f3d 6570 903d fca8 80bd d001 673c
00000280: bb34 a2bc 6f22 27bf a36f f1be 2e35 40be
00000290: 7c1f 96bd 846c debc 604a f53c f2b7 723d
000002a0: 4350 733c 3a79 75be ef7f 8cbe 8e54 92be
000002b0: 0c26 313e cf31 293d fbfc 203e 4a1e b83d
000002c0: ce11 38bd f47c cd3c 424f 4bbd dc40 c4be
000002d0: 6e2f 7abe 1ad8 193e 7815 cc3c 8567 df3d
000002e0: 11de 793d 0f8b f6bd efb2 cfbd ac76 6abe
000002f0: e9b8 dcbe 2d2d d23d 21f0 9a3e c729 f6bb
00000300: dc85 423e 0a6e 923e ebcc b33d a71a 863d
00000310: 4c46 89bd fe81 96bd c814 5e3d 86a6 823e
00000320: f6d3 67be 5616 2ebe b947 ab3d 5f90 733d
00000330: a97f da3d db42 5bbe 7b35 0dbe 7ed1 6bbe
00000340: d954 bf3d 336d fdbc a1da b33c 6eee 943c
00000350: 044a e2bd 3ec9 263e c28b f43d 5444 843e
00000360: 3dee febe 88db b7bd edff 3cbd ae3f 0cbc
00000370: 0742 fabd 6869 8ebc fc21 e53c dc11 f63c
00000380: e2a7 5cbd dc18 48be e703 433e 90e3 bc3d
00000390: 5259 d43d 3391 cb3d 6dc1 9d3d 6d5e 863e
000003a0: d586 903d 065f 6f3e 9863 1dba 43fd f73d
000003b0: 1032 3dbc 84f4 8d3d 9525 643e 90f1 fc3d
000003c0: 445e be3e 274d 8b3d 402e ac3e
-0.09781922 0.12102777 -0.057504557 0.09998438 -0.055965777 -0.026182242 -0.003513216 0.02957715
-0.023187647 -0.30289847 0.059696004 -0.075899675 0.020733744 -0.20011887 -0.02275195 -0.07670961
0.013756293 -0.2414401 -0.18229367 0.0015891923 -0.19235961 -0.08787474 -0.2551161 -0.13610393
-0.282884 -0.17616595 -0.23230082 0.28462553 0.24866068 0.032117758 0.3277174 0.14414321
0.26863787 0.18560307 0.178204 0.4094433 0.18104166 0.22181864 0.14688453 0.12970519
0.15623301 0.08133357 0.21515155 0.1927665 0.24374928 -0.5068214 -0.16753563 -0.22352543
-0.16128954 -0.40642267 -0.33424744 -0.21493247 -0.31042987 -0.45889622 -0.26234066 0.07096422
-0.12647267 -0.1621155 -0.092882 -0.09351334 4.840892e-05 -0.1771808 -0.3140432 0.28496924
0.33773807 0.18046398 0.39617476 0.2525895 0.13131058 0.124047555 0.29233807 0.28731492
0.15383336 -0.17872947 -0.117808275 0.028067684 -0.0021394533 -0.118276894 -0.06954591 -0.007191293
0.053406682 -0.80268145 -0.03118263 -0.22565317 0.04588897 0.14788732 -0.059756793 -0.04158847
-0.28610602 -0.53464466 -0.12564993 0.22203705 0.12798862 0.1682639 0.14941052 -0.008719001
0.3854941 0.13850458 -0.11710965 -0.3477029 0.040958796 -0.018275114 -0.023746395 -0.07780351
-0.05548794 0.048679788 0.01337532 -0.25611275 -0.11185463 0.11399765 0.124708906 0.044605903
0.050349336 -0.14642367 0.095884025 0.11953721 -0.011066201 -0.081647985 0.21046375 0.0014388356
0.052407034 -0.022234948 -0.04242319 0.12936743 0.04263039 -0.14729887 -0.18909356 -0.007273994
-0.061767206 -0.16418095 0.02002928 -0.13170306 -0.059152864 -0.09287692 -0.43814334 -0.19048207
0.05801189 -0.114681564 0.09473476 0.08383696 -0.012000558 0.12181802 0.21205698 -0.22798018
-0.36482015 0.20426758 0.092581354 0.15829888 0.16581213 -0.09823815 0.25814518 0.14714888
-0.25431195 -0.798226 0.15472595 -0.1150253 0.069827005 0.070526876 -0.06282231 0.014099553
-0.019800534 -0.65286916 -0.47155485 -0.18770286 -0.07330224 -0.027151354 0.029942691 0.059257455
0.014850679 -0.23972026 -0.27441356 -0.28580135 0.1729967 0.041307267 0.15721504 0.08990152
-0.044938855 0.025083996 -0.049636133 -0.38330734 -0.24432155 0.15023842 0.02491258 0.10908417
0.061002795 -0.12038242 -0.10141551 -0.22896832 -0.43109825 0.10262523 0.3026133 -0.0075123045
0.18996376 0.28599578 0.087793194 0.06548052 -0.06702861 -0.07349013 0.054219037 0.25517672
-0.2263945 -0.17000708 0.083632894 0.059463855 0.106688805 -0.21412222 -0.13789932 -0.23029134
0.09342355 -0.03093586 0.021954836 0.018180098 -0.110492736 0.16287705 0.11940719 0.2583338
-0.49791136 -0.08977419 -0.046142507 -0.008560104 -0.12219625 -0.017384246 0.027970307 0.030037813
-0.053871043 -0.19540733 0.19044457 0.092230916 0.10368599 0.09939804 0.07702909 0.26243916
0.07056967 0.23376092 -0.00060039153 0.12108853 -0.01154758 0.06931403 0.22279961 0.12350762
0.37181294 0.06801825 0.33629036

conv1.depthwise_separable_conv.depthwise.bias f4 [3]
00000000: 0e8b 8f3d 6592 c93c e37b b1bd
0.070089445 0.02460594 -0.08666208

conv1.depthwise_separable_conv.pointwise.weight f4 [9, 3, 1, 1]
00000000: 503f b1bf 3d96 40bd 89ba 653b 0241 ae3d
00000010: c11f 54bf 2c35 363e 662b 6abe 71a6 88be
00000020: a6a5 34be 50ce 4dbe f2cb 313f aabf 9abe
00000030: 91e9 623e 82ec 073f b422 703e a1f2 34bf
00000040: 88f9 823e ab09 a6be 4c24 3b3d b3cf 883f
00000050: 377a 0dbe 43a5 a9be 934f bfbe b170 c6bd
00000060: 150c 053f f95a 54be 1164 393f
-1.3847446 -0.04701828 0.003505381 0.08508493 -0.8286095 0.17793721 -0.22868118 -0.26689485
-0.17641315 -0.20098233 0.6945182 -0.30224353 0.22159411 0.5309526 0.23450738 -0.7068272
0.25581002 -0.3242925 0.045688912 1.0688385 -0.13816153 -0.33133897 -0.37365398 -0.09689463
0.5197156 -0.20737828 0.72418314

conv1.depthwise_separable_conv.pointwise.bias f4 [9]
00000000: 0647 ec3e 275d a33e 7464 0abe fc58 0ebf
00000010: 00cb 1f3e 313f 9f3e a688 d6be a1b3 0bbe
00000020: 318a c3be
0.46147937 0.31907007 -0.13514882 -0.5560453 0.15604782 0.311029 -0.4190113 -0.13642742
-0.3819137

in1.weight f4 [9]
00000000: b4b0 6d3f bb1a 803f fa26 1d3f 4fd7 593f
00000010: 0213 a13f ac54 783f a256 6a3f c1cd 613f
00000020: 5836 513f
0.9284775 1.0008157 0.613876 0.8509416 1.2583926 0.970042 0.9153844 0.8820458
0.81723547

in1.bias f4 [9]
00000000: 3375 3d3f e0a8 983d e1ec e33e ca21 efbd
00000010: 69ed 433e dfc1 30be b8e0 e33e cf52 643d
00000020: b336 c03d
0.74006957 0.07454085 0.44516662 -0.116763666 0.19133534 -0.17261456 0.44507384 0.055743035
0.09385433

conv2.depthwise_separable_conv.depthwise.weight f4 [9, 1, 3, 3]
00000000: de4b 09bf 2070 54be 933e 02bf dd9b 8d3c
00000010: e9b1 61bd 8cd8 ac3e 6e94 153f 8695 2d3e
00000020: cb53 e93d 2949 6cbe 41c0 7cbe 845f f1be
00000030: 05e5 163e 502f f73b 97ca 81be 2206 edbd
00000040: 44fb b4bd e41a a4be 07b1 bcbd 8e56 3f3e
00000050: ceac a5bd b611 f8bd 2d32 fc3d a78e b63e
00000060: cdf3 aabe 61dc 7e3e 090a 4ebe 7ba5 de3b
00000070: 0647 813e c171 b33e 1f60 85be c337 fcbb
00000080: e67a b83e 7529 97bd 858b f3bd fafc 883e
00000090: 9497 01bf eb5b 2b3d afc3 05bf 8c51 4dbe
000000a0: 02db 113f 798d fe3d 9ddb 5dbe 9e00 623e
000000b0: fa2c 30be cda4 3ebe 5953 10be 0479 6ebe
000000c0: 4446 3a3e 0dd1 223e 0966 90be 08c5 d63c
000000d0: 5c5b 313f b061 fc3c 213d 0ebe 69be 163d
000000e0: b8e7 3ebe 8c4a 5ebd b4be d5bd 5573 bfbd
000000f0: cda5 aebe bb97 c3be a217 b2be 8657 15be
00000100: fe17 603e 80c1 d7bd 4845 96bd 0141 263e
00000110: adce 813e 29d4 763e 49f1 923e 1c1c 923e
00000120: e494 aebd ebf0 a93e cf7d c93e bdd1 233e
00000130: 5e01 8abd 7327 a73e 5621 473e 2b33 d6bd
00000140: a5dc b2be
-0.5363139 -0.20745897 -0.5087673 0.017286235 -0.05510131 0.33758962 0.5842961 0.1695157
0.11392935 -0.23074783 -0.24682714 -0.47143185 0.14735802 0.007543482 -0.25349876 -0.11573435
-0.088369876 -0.32051766 -0.09213453 0.18685362 -0.080896005 -0.12112753 0.12314258 0.3565571
-0.3338913 0.24888755 -0.20121016 0.006794629 0.252495 0.35047725 -0.26049897 -0.007697077
0.36031264 -0.07380954 -0.118918456 0.26755506 -0.50621915 0.041835707 -0.52251714 -0.20050639
0.56974804 0.124293275 -0.21665807 0.22070548 -0.17204657 -0.18617554 -0.14094295 -0.23288351
0.18190867 0.15900059 -0.28202847 0.026216999 0.6928003 0.0308083 -0.13890506 0.036802683
-0.18643081 -0.054270312 -0.10436764 -0.0934817 -0.3411087 -0.382017 -0.34783655 -0.14584169
0.21884152 -0.10534954 -0.07337433 0.16235735 0.25352994 0.2410437 0.2869971 0.2853707
-0.085244924 0.33191618 0.39353797 0.15997978 -0.06738542 0.32647285 0.1944631 -0.10458978
-0.34933963

conv2.depthwise_separable_conv.depthwise.bias f4 [9]
00000000: dbbc 903e bb3a a0bd f97d 583d 42bb a53e
00000010: bdc1 ee3d 05ed 40bf b7c3 96be dd93 d3bd
00000020: d68e 95bd
0.28269085 -0.07823702 0.052854512 0.3236943 0.116580464 -0.75361663 -0.29446194 -0.10330937
-0.073026344

conv2.depthwise_separable_conv.pointwise.weight f4 [9, 9, 1, 1]
00000000: 5740 bf3c daf2 e93e 1051 603d ef58 1fbe
00000010: 621d 6e3e 3a6f c1bc 7085 ee3e 7ec2 0dbf
00000020: 7b6e 70be c030 eebd f49e c43e c651 033f
00000030: cd2e 2abe 592a b13d c075 8ebe 5d60 10bf
00000040: 1f9a 15be 3fcc 9a3e 64f7 413d baf3 06be
00000050: f591 973d 1635 353e daf3 ff3e 655f cdbd
00000060: faf9 bcbe 95e1 efbd 21d7 833c 7a78 70bf
00000070: 81bc f6bd 965d 9abc 2861 c73d effd a43e
00000080: 8f36 3fbe f700 8abd 2319 6fbe f230 1bbe
00000090: 9ca0 b23d 1cb3 da3d c2ed 07bd b175 d4be
000000a0: 5c62 b43e a8a8 c73d 2b82 143f b80f 4ebe
000000b0: f396 efbd 5c26 37be 13de 4cbe d770 16bf
000000c0: 2730 e73d 0dc7 633e 58ec 94be 00d3 a93e
000000d0: 668e c83c 3e04 b9be d39a 7dbc 753c 55bf
000000e0: 4f91 06bf eef6 ed3d 7e5d d1bc 5dd5 c8bc
000000f0: bbd4 f1bc 09ff 283f 1276 2bbe 0a93 a93e
00000100: 469d b1bd cba0 053e dd29 46be d6b8 08bf
00000110: a82f 9c3e 8605 613e 8fe7 aebd 1433 983d
00000120: 2d46 6d3f 3b82 58be d59d 1e3c 9c21 de3d
00000130: 251a 5f3e 3d27 e8be ad04 a7bd 5101 4cbe
00000140: add3 b6be
0.02334611 0.45693094 0.054764807 -0.15561269 0.23253396 -0.023612607 0.4658618 -0.55374897
-0.23479645 -0.11630392 0.38402522 0.5129665 -0.16619416 0.08650655 -0.2782421 -0.5639704
-0.14609574 0.30233952 0.04735507 -0.13178912 0.07400886 0.17696032 0.4999073 -0.10027961
-0.36909467 -0.11712948 0.016093792 -0.9393383 -0.12047673 -0.018843453 0.09735328 0.32224986
-0.18673156 -0.06738465 -0.23349433 -0.1515539 0.0872204 0.10678694 -0.033185728 -0.4149604
0.35231292 0.097489655 0.5801112 -0.20123184 -0.11698713 -0.17885727 -0.2000659 -0.5876593
0.11288481 0.222439 -0.29086566 0.33168793 0.024481963 -0.3613605 -0.0154788075 -0.83295375
-0.52565473 0.11619364 -0.025557276 -0.024515802 -0.029520383 0.6601415 -0.16744259 0.33119994
-0.08672576 0.13049619 -0.19351907 -0.5340704 0.3050511 0.21974763 -0.0854026 0.074316174
0.92685205 -0.21143429 0.009681185 0.10846254 0.21787317 -0.45342436 -0.08155189 -0.19922377
-0.3570837

conv2.depthwise_separable_conv.pointwise.bias f4 [9]
00000000: 50a1 673d 10eb 343e 6f30 b73e 6ae6 86bd
00000010: 86dc c53e c6af 113b ebc2 60be 6edc 4fbe
00000020: a85f c33e
0.056550324 0.17667794 0.3577914 -0.06586917 0.3864481 0.0022230013 -0.21949355 -0.20298931
0.38158917

in2.weight f4 [9]
00000000: 9806 403f ca49 733f 9085 293f f855 7e3f
00000010: 7ed7 1c3f 345f 3b3f c0ea 1d3f bc0e 6a3f
00000020: 3734 993f
0.7501006 0.9503447 0.66219425 0.9934993 0.61266315 0.73192143 0.61686325 0.9142873
1.196906

in2.bias f4 [9]
00000000: fde2 d33e 9614 d83d 87fc bbbd f332 40be
00000010: 5a5f 8d3f 9c91 db3e 9196 c93f f492 46bd
00000020: fca4 533e
0.41384116 0.105508015 -0.09179025 -0.18769436 1.1044724 0.4288453 1.5749074 -0.04847999
0.20668405

conv3.depthwise_separable_conv.depthwise.weight f4 [9, 1, 3, 3]
00000000: c4ae 573e c60b a8bd ab7d a33e 81a8 e3bc
00000010: ee30 0ebe 7e33 42bc 95a0 b23e 8300 963d
00000020: 3986 e83e 8e7d ea3e 6abd a03e b7b7 de3d
00000030: 72f8 afbc ef86 213e 040c bebd 2afe 113e
00000040: 6051 753e 02d7 c13d f4cf cabd 6b7d 773c
00000050: eea5 273c 4c42 adbe 9fd0 63bd 25dd 93be
00000060: 226f dcbd 10a4 93bd 1b4d a23c 551d 943e
00000070: a807 ab3d 49cd 683e a10c 9dbd 2eb1 153d
00000080: 912d f9bd 0710 a03e f070 f23d 8e23 d13e
00000090: a08e 273f b8d6 c13c 890e 0d3f fd5a 7a3d
000000a0: fb1a 37be 642f b3bc 18ff 0b3f 8ea7 443d
000000b0: 84fb 023f 8c49 e4bd eb6e b63d 2996 15be
000000c0: 901f ae3d 30d0 e6bb d4d4 4e3d bcc2 c8be
000000d0: 69b3 9abd adc0 9dbe d949 093f 7f77 4b3c
000000e0: 3150 043f 99b6 a53d e701 01be eb11 433d
000000f0: 725e e03e 91ec ed3d cff7 e43e c21f 5a3c
00000100: 1069 c73e ab15 063e ab62 0a3e 6c3f 493e
00000110: 00ce 8c3e ae24 2e3e c157 293e fee9 503d
00000120: a286 41be 73eb f33d f2f6 a8be 2fee cb3e
00000130: 73e4 55bd de22 d23e d0a6 11bf d7de 173c
00000140: 3860 b7be
0.21062762 -0.082053706 0.31931815 -0.02779031 -0.13885853 -0.011853097 0.3488814 0.07324316
0.45414904 0.45798916 0.3139451 0.108748846 -0.021480773 0.1577413 -0.092796355 0.14257112
0.23956823 0.094648376 -0.09902945 0.015105586 0.010232432 -0.33839643 -0.05561888 -0.28879657
-0.107633844 -0.07209027 0.019812157 0.2892863 0.0835107 0.2273456 -0.076684244 0.036545925
-0.12166894 0.31262228 0.11837947 0.4084744 0.65452003 0.023661956 0.55100304 0.06112193
-0.17881386 -0.021873184 0.5468612 0.048011355 0.5116503 -0.111468405 0.08907875 -0.14608063
0.08502114 -0.007043861 0.050495937 -0.3921107 -0.07553751 -0.30811062 0.5362831 0.012418627
0.5168486 0.08091468 -0.12598382 0.04762451 0.43822056 0.11617387 0.44720313 0.013313236
0.38947344 0.13094203 0.13514201 0.196531 0.27500916 0.1700618 0.16537382 0.051004402
-0.18899015 0.11910143 -0.33000904 0.39830157 -0.05221982 0.41042227 -0.5689516 0.009269438
-0.35815597

conv3.depthwise_separable_conv.depthwise.bias f4 [9]
00000000: 4659 123e 4883 073f 3ecd d33d 0e6c 1e3d
00000010: 2c07 9e3e 14c8 a23e 31e9 b5bd 23c3 403e
00000020: 29ee 083e
0.14291868 0.52934694 0.10341881 0.038677268 0.30864847 0.31793272 -0.08882368 0.18824439
0.13372101

conv3.depthwise_separable_conv.pointwise.weight f4 [9, 9, 1, 1]
00000000: e83e 8ebb f4a2 5dbc 337c 06bd f102 31bf
00000010: c0dd d43c c0b9 e63d 69d6 043d 4f53 f4bd
00000020: 2cc8 313f 7dee 5abe f325 cfbe 4675 aa3e
00000030: ef65 f73c be05 0fbf fb22 f6bd 7eda b3be
00000040: 066f 0dbe 0d72 cfbd 2fbf a2be e34a 1ebe
00000050: 6d5c 0ebe 4f08 293b 18a0 21bf 899a 9abd
00000060: e3fc cbbe 6c34 563d c6f7 61bd e0ca eebd
00000070: bf6f f3be 3b7d 4ebe b2c5 c1bc 9cfc 58be
00000080: ae82 c3bc 4a1d a7be 6739 ed3b 4ffd a73d
00000090: 9edc cebd 1eb6 65be e6a5 8e3e 3830 dcbd
000000a0: 1637 18bf dcf4 efbb 91fc a4be e476 363e
000000b0: 092f ad3c 4a7a f3be 218b 3d3e 0163 703d
000000c0: ce4f 8abd e5cd a43e 79f6 d9be 33f0 273d
000000d0: 1676 4ebe 7163 1cbd 2989 81bd 5abb 71be
000000e0: 2aeb 97be 0cdc 4bbe 9563 cabe 45a7 d03e
000000f0: 3ec4 63be a5cb 0a3e 04d3 ce3e 16c8 c03d
00000100: 83b0 f33d 63c9 3abe dd98 eeba 45ef 28bd
00000110: ef04 0dbe d462 77bd 1ca0 48bf c15b d6be
00000120: a604 d6bd 8671 52be 61b6 c13d f9f7 243d
00000130: d09c 14bf 8b20 803d 111e c3be f7ba bf3d
00000140: f396 6dbd
-0.004340995 -0.013527621 -0.03283329 -0.69145113 0.025984645 0.11265898 0.03243104 -0.11929952
0.69446063 -0.21380039 -0.4045864 0.33292598 0.030199973 -0.55868137 -0.12018391 -0.35127634
-0.13811883 -0.10129175 -0.31786487 -0.15458255 -0.13902445 0.0025792306 -0.6313491 -0.075490065
-0.39841375 0.052296087 -0.055167936 -0.11659789 -0.47546193 -0.20164959 -0.023653839 -0.21190113
-0.023866024 -0.32639533 0.007239509 0.08202612 -0.10100673 -0.22432753 0.27860945 -0.107513845
-0.59459054 -0.0073228907 -0.32223943 0.1781879 0.021140592 -0.47554237 0.18510105 0.058688167
-0.06753503 0.32188335 -0.42570856 0.041000556 -0.20162234 -0.038180772 -0.06324989 -0.23606625
-0.29671603 -0.1990816 -0.395291 0.40752617 -0.22242829 0.13554247 0.40395367 0.09413163
0.11898901 -0.18240885 -0.0018203516 -0.04124381 -0.13771413 -0.060396984 -0.7836931 -0.41866878
-0.10450105 -0.20551118 0.09458614 0.040275548 -0.58051777 0.06256207 -0.38108876 0.093618326
-0.058005285

conv3.depthwise_separable_conv.pointwise.bias f4 [9]
00000000: 3cf7 1d3f 4d25 8ebe 4a20 8dbe 2074 9ebe
00000010: 6f7b 5dbe b756 72be 5769 01be 11f8 ca3d
00000020: 5ee0 bdbe
0.61705375 -0.27762833 -0.27563697 -0.3094797 -0.21629117 -0.23665892 -0.1263784 0.09910596
-0.3708524

in3.weight f4 [9]
00000000: d4eb 2b3e fd7a 4a3e 2856 8c3e 51ff ba3e
00000010: ac14 873e 9768 143e 09ed 753e 7ddc 933d
00000020: 8ca9 5e3e
0.1678918 0.19773479 0.27409482 0.36522916 0.2638296 0.14493023 0.24016203 0.07219789
0.21744365

in3.bias f4 [9]
00000000: 7eac 0cbd 9403 8fbd fc65 5f3e 4f28 e0be
00000010: 7f63 1f3e 2923 febc 2621 48be 619d 583c
00000020: 7fed 5b3e
-0.03434419 -0.06983104 0.21816248 -0.43780753 0.15565298 -0.031022625 -0.19543895 0.013221116
0.21477316

resblocks.0.conv1.depthwise.weight f4 [9, 1, 3, 3]
00000000: 7e57 173f 0e60 b53a 9a70 03bf f413 e83c
00000010: e93e a13c 538b 42be df5e e0be 7e2e 213d
00000020: fcb8 013f 301e a13c 347c 953e 09d6 ab3e
00000030: 2e36 3cbd 5351 673d 5280 3dbe 49f5 34be
00000040: 9aae c83c 3336 9e3e 873a 44be c69b 10be
00000050: 6ebf 87be 00a8 993d c22e c93c 9b58 0f3e
00000060: a066 8d3e 7fa7 713d f5c7 e53e 8400 11bf
00000070: ed3b d536 c9d7 d63e 0d85 843e d43d 013e
00000080: 5ae4 183e c62d 62be 9147 8bbe b876 973e
00000090: bd28 ffbe 543f d63d 7941 9b3e 5cc0 593d
000000a0: a285 25be b3da c8bc c555 dfbe f61d 313e
000000b0: 1cda 0b3e 4009 bf3d f0a9 55bc fba3 293e
000000c0: 8d83 d9bd 495b bb3d 2136 173d 2d7c 4e3e
000000d0: db5a db3d f70f ce3e 3f62 8c3e f65e a03e
000000e0: e916 163e f42d ae3e df32 103e 34ce 81bd
000000f0: 6f46 f9be 5ffd 49be 18e0 ec3c 8fd8 d0be
00000100: 21a6 dc3c dd70 703e f448 babe 6058 46be
00000110: 23e1 933e 0cce 763e 918b 79be 65a8 1abf
00000120: ffc1 d33e 871f 543e bdc2 ae3e d1a8 8dbe
00000130: 8c67 9fbe 230b cabe 6bb4 803e cf51 073e
00000140: f6a1 2a3e
0.5911788 0.0013837831 -0.5134369 0.028329827 0.019683318 -0.1899846 -0.4382238 0.03935098
0.5067289 0.019667715 0.29196322 0.33561733 -0.045950107 0.05647404 -0.18505982 -0.17671694
0.024497319 0.30900726 -0.19162951 -0.14121923 -0.26513237 0.075027466 0.024558429 0.13998644
0.2761736 0.058997627 0.44879118 -0.5664141 6.354871e-06 0.41961506 0.2588276 0.12621242
0.14930859 -0.22087774 -0.27203038 0.29582763 -0.49835768 0.10461298 0.3032339 0.053161964
-0.16164258 -0.024518346 -0.43620124 0.17296585 0.13657421 0.09327936 -0.013041005 0.1656646
-0.106207944 0.09148271 0.036916856 0.20164557 0.10710689 0.40246555 0.27418706 0.3132245
0.14657177 0.34019434 0.14081906 -0.06338158 -0.4868655 -0.1972556 0.02891545 -0.4079022
0.026934685 0.23480554 -0.36383784 -0.1936965 0.28882703 0.24102038 -0.24369647 -0.604132
0.41358945 0.20715152 0.3413295 -0.2766786 -0.31133687 -0.39461622 0.25137648 0.13214801
0.16663346

resblocks.0.conv1.depthwise.bias f4 [9]
00000000: 56d4 aa3e 76f4 b6be f2b8 7c3e 1dad c43d
00000010: cb62 a8be e028 7abe f719 87bd 94b2 96be
00000020: 8929 bebe
0.33365124 -0.35733384 0.24679926 0.09603331 -0.32887873 -0.24429655 -0.06596749 -0.2943312
-0.37141064

resblocks.0.conv1.pointwise.weight f4 [9, 9, 1, 1]
00000000: 9550 bc3d 0932 fe3e 1d48 4b3e 91e4 a73e
00000010: 7063 6a3e ae6e 22bc d277 21be 9668 093e
00000020: 344e fc3e 1f5d 41be f44a cb3d cf29 573e
00000030: e365 e2be a9c3 04bf 2fc6 f63d b0d3 8abe
00000040: a507 5b3d 127c 793e f97b 343d d255 e63d
00000050: 267c 98be 7adb 5e3e 0f56 173f 029a 0dbe
00000060: 2737 743e 4c42 3c3f fada 4c3d 03c2 30bb
00000070: d71e f03d bf1b 6ebe ea01 df3e 103f 413e
00000080: 62e4 003e 77bb e73d 01de 8dbe d522 2bbf
00000090: 5468 b53e 1239 43be f2ac 7b3e d5ab 1f3f
000000a0: da5d 72bb c933 5abe 860c e43d e3fc 253f
000000b0: 1408 0cbe 71f5 09be 8eb2 32be 45cf 3abd
000000c0: 8e34 c23d d234 65be bd22 193e 2a44 3bbc
000000d0: d643 0fbe 20a0 0ebf 3e8e c23c df69 ddbd
000000e0: 9bd2 8abe 32a8 833d d01a efbd 41c4 8f3e
000000f0: a915 103f 8d9e 733b 6258 c43e 4751 debf
00000100: c8de d6bd 8a06 9bbd 3f39 c2bd 2bf5 eb3b
00000110: f5e1 a53d 7455 ab3c 4e6d 05bf 29c6 393d
00000120: 56c6 ed3d 8fa4 ab3d 7d0e dc3e b3fe 0b3d
00000130: ae36 a13e 893f b3be 5a21 0bbe aaf7 a63d
00000140: a567 f6bc
0.09195057 0.4964755 0.19851728 0.3279157 0.22889495 -0.009914083 -0.15768364 0.13418803
0.49278414 -0.18883179 0.099264055 0.21012042 -0.44218358 -0.51861054 0.12049519 -0.2711463
0.053474087 0.24363735 0.044063542 0.11246838 -0.29782218 0.21763411 0.5911569 -0.1382828
0.23849164 0.7353866 0.05001352 -0.0026971109 0.11724632 -0.23252772 0.43556148 0.18871713
0.12587121 0.11315053 -0.27708438 -0.66850024 0.3543116 -0.1906474 0.24577692 0.6237157
-0.003698221 -0.21308817 0.11135201 0.64839 -0.13674957 -0.13472535 -0.17450926 -0.045607824
0.0948268 -0.2238343 0.14954658 -0.011429826 -0.13990721 -0.5571308 0.023749467 -0.10811209
-0.27113804 0.06428565 -0.11675036 0.28079417 0.5628305 0.003717336 0.3834868 -1.7368554
-0.10491711 -0.075696066 -0.09483575 0.007200857 0.080997385 0.02091477 -0.5211991 0.045354996
0.11610095 0.083809964 0.42979804 0.034178447 0.3148703 -0.3500941 -0.13586941 0.08152707
-0.030078718

resblocks.0.conv1.pointwise.bias f4 [9]
00000000: e495 453e f976 083f c3b8 93be 2303 953e
00000010: c328 133e 223c 71be 6193 bf3d 6768 b43e
00000020: 81d9 063f
0.1929546 0.5330654 -0.288519 0.29103956 0.14371018 -0.23558095 0.09354282 0.35235903
0.52675635

resblocks.0.in1.weight f4 [9]
00000000: 2f4d 733f 330a 733f fcb9 7b3f 2246 8b3f
00000010: 114d 253f c222 7f3f 0b17 7f3f 5b4e 623f
00000020: df5d 003f
0.9503965 0.9493744 0.98330665 1.0880778 0.6457072 0.9966241 0.99644536 0.8840081
0.50143236

resblocks.0.in1.bias f4 [9]
00000000: 5b96 bf3d 5360 84be e29e 123e 04a6 a83e
00000010: 00c5 873f 5c48 8f3e 957e e53e 0b61 f93e
00000020: 853d 953f
0.0935485 -0.2585474 0.14318421 0.3293916 1.0606995 0.27984893 0.44823137 0.4870685
1.1659399

resblocks.0.conv2.depthwise.weight f4 [9, 1, 3, 3]
00000000: 3f9f 15bb cef1 bdbc 4785 adbe efd5 9cbe
00000010: 261b 133c 44c6 bfbe 514e a5bd 8de3 a7bc
00000020: 212a 33be e608 4fbe 459d 1a3d 6f15 813d
00000030: 0969 b9be ba39 c83d 2ecf 0dbe d666 f6be
00000040: 5320 c33c 1667 a23d 9444 8bbe 1ea1 5abd
00000050: 857b 55be 3081 b4be a3ec 83bd 4574 82be
00000060: 3e02 d63e 1fcc 25bc acaa 09be 8dff 833e
00000070: a000 d3bd 3d70 9f3d 8dad 0ebe 7791 90bc
00000080: 9a83 46be a213 413f 2aca b23d 7064 c63e
00000090: d877 ed3e 6c30 053f 9c5f 353d 0687 9ebc
000000a0: 87ab 4c3e deeb 8ebe 874e b8bd 6fe7 55be
000000b0: 0ec4 a6be 5f35 823e 2397 debb 2e3a cebe
000000c0: a4b4 2b3e ba56 03bc 77d8 8bbe 14ed 843e
000000d0: 49d8 fbbc 8c58 89be daec 2f3f f8fe b1bd
000000e0: 3bfb d03e 9f9c 6dbc 0a1c 17be 683c 1a3e
000000f0: cbd9 d53b 1247 efba dc20 523e 3546 063f
00000100: a7ec 2b3e b94a d13e 0c1e 553e 7394 a03d
00000110: 477c 323e 5319 04be 15f1 a5bd 7377 42be
00000120: 415c 243f 7d25 403e f5ef 9cbc 19e4 b63d
00000130: 0479 36be 47b3 29be e540 bd3e 277b 0abd
00000140: 1d3d 233e
-0.0022830514 -0.02318659 -0.33890745 -0.30631968 0.008978641 -0.37455952 -0.08071578 -0.020494247
-0.1749654 -0.20218238 0.03774764 0.06302916 -0.36212948 0.097766355 -0.13848564 -0.48125333
0.023819124 0.07929818 -0.27200758 -0.05337631 -0.208479 -0.35254812 -0.06441619 -0.25479332
0.41798586 -0.010119467 -0.13444012 0.25780907 -0.103028536 0.0778508 -0.13933392 -0.017647488
-0.1938614 0.7542058 0.08729966 0.38748503 0.46380496 0.5202701 0.044280633 -0.019351494
0.19987307 -0.27914327 -0.08999353 -0.20889066 -0.32571453 0.25431344 -0.0067929192 -0.40278763
0.16768128 -0.008016283 -0.27313587 0.25962126 -0.030742781 -0.26825368 0.6872078 -0.086912096
0.40816674 -0.014502673 -0.1475679 0.15062106 0.006526207 -0.0018255434 0.20520347 0.5245088
0.16789494 0.4087732 0.20812243 0.078408144 0.1743022 -0.12900285 -0.081026234 -0.18990879
0.6420327 0.187643 -0.01915739 0.08930225 -0.17819601 -0.16572295 0.36963573 -0.033808853
0.15941282

resblocks.0.conv2.depthwise.bias f4 [9]
00000000: e4da babd eceb 023e 7a2b d9bd e9d6 bcbe
00000010: a660 a33e 860a 8c3d c2a8 b6bb 5108 0abf
00000020: fe45 d53e
-0.09123781 0.1278531 -0.106039956 -0.36882713 0.31909674 0.06837945 -0.0055743167 -0.5391894
0.41654962

resblocks.0.conv2.pointwise.weight f4 [9, 9, 1, 1]
00000000: 67c1 3b3e d09a 29be 5b9a 24be a12f a7be
00000010: 4786 8cbd 66d2 8cbe cde1 0dbe 2c98 bdbd
00000020: e989 f1be f258 5dbe 89fc c5be 70f7 5e3d
00000030: 67a7 4d3e 6462 b6be 225f a2be 9e7e 62be
00000040: fe62 8bbe f2c0 0dbe 6092 873e 324a 8c3e
00000050: e15f f2be dd38 acbe 370c 4fbe d03b 17be
00000060: d77f 93be 0660 2a3c c902 743d e4db 3b3e
00000070: b507 13be ce36 33be 8f2c dcbd ee77 c9be
00000080: f9be e5bd 2ef9 f2ba c8a5 47bf 2c88 253e
00000090: 9094 88be 30cb 75be 8ca1 31be b256 d5be
000000a0: 022a a8bc 695c f53e 684c 43be c0b0 89bd
000000b0: e7b5 f4be 5b0f a93e 60f3 8d3d e6f4 6fbe
000000c0: 7f1c f7bd b7a9 a53e c229 85be 14a2 ebbe
000000d0: 8dda 563e aac1 853d c3ef 1e3e d0a8 df3d
000000e0: 8d1f 1ebe 6f27 04bf 3793 1ebe 1577 083f
000000f0: 0a2c 07be e71f 0ebd acc2 88bb 6b2a ff3e
00000100: df35 b13e 3c1e 16be cb4b ef3d 036b 7cbe
00000110: de95 dabd 2d43 27be 3df8 50bd 15d9 d33e
00000120: f2d4 2dbe 4abf 63be 270b 93be 12c3 b9be
00000130: 3a27 f5bd 4c3a 9b3d 86dc 5cbe a77d bdbc
00000140: 68b8 93be
0.18335496 -0.16562963 -0.16074507 -0.32653525 -0.06861549 -0.2750427 -0.13855667 -0.0925754
-0.4717553 -0.21615961 -0.38669232 0.054435194 0.2008339 -0.3562194 -0.31713206 -0.22118613
-0.27223963 -0.13843134 0.26478863 0.27400357 -0.47338775 -0.33637133 -0.20219503 -0.1476891
-0.28808472 0.01039887 0.05957297 0.183456 -0.14358409 -0.17501375 -0.107506864 -0.39349312
-0.11218066 -0.0018537396 -0.7798734 0.16165227 -0.26675844 -0.24003291 -0.17346781 -0.41667706
-0.020527843 0.47922066 -0.19072115 -0.067231655 -0.4779503 0.33019528 0.06931186 -0.23433265
-0.12065982 0.32356045 -0.2600842 -0.46022093 0.20981808 0.06531079 0.1552115 0.1092087
-0.15441723 -0.5162267 -0.15485846 0.53306705 -0.13200393 -0.034698393 -0.0041735973 0.4983705
0.34611413 -0.14659971 0.11684378 -0.24650197 -0.10673116 -0.1633422 -0.05101799 0.41376558
-0.16975763 -0.2224094 -0.28719446 -0.3628164 -0.119703725 0.075794786 -0.21568498 -0.023131205
-0.28851628

resblocks.0.conv2.pointwise.bias f4 [9]
00000000: cfb4 8dbe 2236 293e 2124 61bd 3546 b13e
00000010: 717f abbd c383 9b3d ffc6 0cbf 4dd8 ce3c
00000020: 5eb8 4abc
-0.27677009 0.16524556 -0.054966096 0.34623876 -0.08373917 0.07593491 -0.54991144 0.025249625
-0.012373058

resblocks.0.in2.weight f4 [9]
00000000: 1bf4 433f e3b3 243f bf47 c03e 4969 a73e
00000010: 81af 123f 6534 5f3e 5f99 e13e 492d b43e
00000020: 54b1 eb3e
0.7654435 0.64336985 0.37554738 0.32697514 0.5729905 0.2179733 0.44062325 0.351908
0.46033728

resblocks.0.in2.bias f4 [9]
00000000: 3712 c73d c728 a13c 351a 02be ff7a 90bb
00000010: 33e0 f83e 78e5 5ebd b885 3dbe 5d42 243e
00000020: 8301 663d
0.09720271 0.019672764 -0.1270531 -0.0044091935 0.4860855 -0.054418057 -0.18508041 0.1604094
0.056153785

resblocks.1.conv1.depthwise.weight f4 [9, 1, 3, 3]
00000000: 77b3 9bbe ed30 bf3e 1b77 833d 1de7 09bd
00000010: 5d25 f33c 3249 3abe 414d 6cbe 0ef4 adbb
00000020: a7f1 94bd 1538 78be c37a b6be c7b8 89be
00000030: 0eab abbb 9dec 933d 99d1 ed3d ac53 c63e
00000040: 95e9 d73e 2c6e 9d3e c6de 11bf 9dcc 99bd
00000050: d788 99be 958a 013e 10dc 9a3d a8ba e33d
00000060: 7959 cdbe a0f8 8abe 21a0 64be 669f ebbe
00000070: 72db c03d 2684 083f 36de 99be 45b2 75be
00000080: e021 34be 8259 383e 8dae 9ebc 16f0 cbbe
00000090: bfc2 3a3a 4d87 98bb bddd edbe 7234 6a3d
000000a0: 9bc0 52bd b7e0 c23d 8f0f 5abd f96c 99bd
000000b0: 9dd0 5ebe b554 f43e 66ea b33e 04c3 af3d
000000c0: cdb9 2d3d 952d b0be 6049 bfbe 8b60 b13c
000000d0: 6821 9f3d a336 9d3e e800 733e dc5d 06bd
000000e0: 7cc2 183d ea6a 90be 823f 573d 5de2 c93e
000000f0: 04bf fe3e 81e1 a83e e6e2 f73e cc2d 033f
00000100: 4acf d63d a012 b73e 95cc 1a3e c987 013e
00000110: b83f 8d3c 2cd3 b1bd 9bd8 02be 873c 88bd
00000120: baf0 e1be 68f2 153e a5c8 5abe b754 263e
00000130: 0e4e ccbc 6b86 603c 6343 87be 008a 71bd
00000140: 7130 95be
-0.30410358 0.37342015 0.06419202 -0.033667672 0.029680902 -0.18191984 -0.23076345 -0.0053086346
-0.07272654 -0.24240144 -0.35640535 -0.26898786 -0.005238897 0.07222865 0.11612243 0.38735712
0.42170396 0.30748117 -0.5698055 -0.0750973 -0.29987213 0.12650521 0.07561505 0.11119586
-0.40107325 -0.2714281 -0.2232671 -0.4602005 0.09416856 0.5332664 -0.30052346 -0.23993786
-0.17591047 0.18002895 -0.019370342 -0.3983161 0.00071243563 -0.004654801 -0.46458235 0.057178922
-0.051453214 0.09515517 -0.053237494 -0.07491488 -0.21759267 0.47720876 0.3513977 0.08582118
0.04241352 -0.34409776 -0.37360668 0.02165248 0.077700436 0.30705747 0.23730814 -0.032804355
0.03729485 -0.2820657 0.0525508 0.39430514 0.49755108 0.32984546 0.48415297 0.51241755
0.10488756 0.35756397 0.15117104 0.12649454 0.017242298 -0.08682856 -0.12777941 -0.0665217
-0.44128972 0.14643252 -0.21365602 0.16243254 -0.024939563 0.013703923 -0.264186 -0.058969498
-0.2913852

resblocks.1.conv1.depthwise.bias f4 [9]
00000000: eae7 21bf c622 a7be bd5d c63e 2691 5f3e
00000010: 6c19 863d d746 ebbe 7b05 fdbe 0380 1e3d
00000020: 48f5 043e
-0.632445 -0.32643718 0.38743392 0.21832713 0.065478176 -0.45952484 -0.49418244 0.0386963
0.12984192

resblocks.1.conv1.pointwise.weight f4 [9, 9, 1, 1]
00000000: 5959 bdbd ba1a 873d ef88 ee3e d181 a8bc
00000010: 5279 4abd 8c2f 4cbe 6889 00be f2dc d33e
00000020: 7e1e fcbe d628 603e c7e6 52be 7a6f 083f
00000030: b5fd 4f3b a8fd b03e 838a 0bbd d407 953e
00000040: d075 473d 276d 743c 512a 903b d6ac 093e
00000050: 0f7f 89be 3080 213f 7c0c 053b f5a1 75be
00000060: 3d6e 9f3d 6892 0a3e 19b4 6f3e 2826 9e3d
00000070: 58c6 a5bd 31b0 94be 8287 5fbe 4a37 193e
00000080: 07e3 183f 2e09 d2be 2332 8b3e 5fa8 8bbc
00000090: a77f ff3d a9cd 013e ca2d 1cbe 4afc 863f
000000a0: 3370 d93c 0bdf b33c 76cc 103e db55 463b
000000b0: 6548 613e eceb 01be 8daf 18bf 4c88 053e
000000c0: 6559 213d 865b 40bd b2c4 373e ba6b 9cbe
000000d0: 14e8 a2be 2708 2bbe 13b5 613e cc20 09bf
000000e0: 551d c43e 97d0 8a3d 19c5 15be 9fb2 01bf
000000f0: d549 a5be 10d6 bbbe d689 203e 5224 bd3e
00000100: 5380 373f 6f57 e23d 6b6d ea3d 6e78 af3e
00000110: 2747 05bc 5e9d c73e cd6f 043d e378 693e
00000120: f39a e5be f86c 63bd 03d2 d8be 1eab d939
00000130: dc87 76be 6b7a 39be 5a30 cebb 264b 11be
00000140: da05 f73d
-0.09245557 0.065968946 0.46588847 -0.020569714 -0.049432106 -0.19940013 -0.12552416 0.41379505
-0.49242014 0.21890578 -0.20595847 0.532951 0.0031736915 0.34568524 -0.034067642 0.29107535
0.04869634 0.014918602 0.0043995758 0.13444838 -0.2685475 0.63086224 0.002030163 -0.23987563
0.07784698 0.13532412 0.23408546 0.077221215 -0.08094472 -0.29040673 -0.21829036 0.14962497
0.59721416 -0.4102263 0.2718669 -0.017048059 0.124755196 0.1267611 -0.15251842 1.0545743
0.026542759 0.021956941 0.14140496 0.0030263576 0.22000273 -0.12687653 -0.5964287 0.13040274
0.039391894 -0.046962284 0.17946127 -0.3055094 -0.31817687 -0.16702329 0.2204173 -0.5356567
0.3830363 0.067780666 -0.14625968 -0.5066318 -0.32282892 -0.36686754 0.1567758 0.36941773
0.7168018 0.11051833 0.11446651 0.34271568 -0.00813464 0.3898725 0.032333184 0.22800021
-0.4484478 -0.055523843 -0.42347726 0.00041516958 -0.24075264 -0.18113105 -0.006292385 -0.14188823
0.12061663

resblocks.1.conv1.pointwise.bias f4 [9]
00000000: b562 a43e 0ced c23e 9ab3 ae3e 7e80 2e3e
00000010: 1af2 60be 835d b93e b947 4cbd c61a 49be
00000020: 4015 0c3f
0.32106557 0.38071477 0.341214 0.17041203 -0.21967354 0.36204156 -0.049873088 -0.1963912
0.54719925

resblocks.1.in1.weight f4 [9]
00000000: 489e 863f a8b7 893f 3ab2 6f3f 824f 313f
00000010: 3215 703f b544 913f 2390 883f e379 333f
00000020: 1ea6 3a3f
1.0517054 1.0759172 0.9363133 0.69261944 0.9378234 1.1349093 1.0668987 0.7010786
0.72909725

resblocks.1.in1.bias f4 [9]
00000000: bc25 8f3e 5e6c 9abe f25b c73e be55 0a3f
00000010: 410b a5be 822c 8f3e 6943 1d3e b32c 963f
00000020: 50fd 2b3f
0.27958477 -0.30160803 0.38937336 0.5403708 -0.3223515 0.27963644 0.15357746 1.1732391
0.671834

resblocks.1.conv2.depthwise.weight f4 [9, 1, 3, 3]
00000000: d0f4 3fbe 03fd 9abd 9fec 39bd ad7b 6fbe
00000010: bf18 95bd ca58 28be 0fd4 efbe 12de 27bd
00000020: 3bd6 ccbe 167e cebd dc9c 643d c929 b6be
00000030: fcca 21bf 1e1e 8f3b b3ca 1abf 5f66 7dbe
00000040: 88c2 14be 4f9d b1be 2263 21be 743f 73bd
00000050: 39f9 21bc 83d5 743e 894d e33d 6477 2a3e
00000060: ae5f c83e 8e47 673e 689a f43e 6f00 933e
00000070: ed97 f03d 49a2 263e d652 8b3e fbf9 323d
00000080: c208 223e 881e 473d 5609 043e 28bf e33e
00000090: b67f 5f3e a4c2 213e 25d8 2c3e bc3b 943d
000000a0: d051 48be 6e53 81be 3988 fbbe f018 b3be
000000b0: 73d7 72be 6380 173f 8d40 41bc 2267 b23e
000000c0: e2fc 093e 3cf0 92be 25fb b23e a2ec 0c3e
000000d0: 19cf 883d 8fb4 7a3d 1ed6 90bd b44f c4bd
000000e0: 50f2 95bc 3060 ab3d aa6b fabd d1a1 103f
000000f0: 5a78 9e3e e217 18be e384 1c3d 6660 19bf
00000100: 0c3e 1abd e63f 83be 6e07 7abe a779 ac3e
00000110: b34b 2ebe c1ff f8be 15f3 623d 7d1d 0fbe
00000120: 4171 b63e f758 033c 234f 223d d104 943e
00000130: 6a24 b2b9 65a8 ad3d 320d 043f 8e49 31bd
00000140: 37f4 6b3c
-0.18745732 -0.075677894 -0.045391675 -0.23387022 -0.072801106 -0.1644012 -0.46841475 -0.040983267
-0.40007195 -0.10082643 0.055813655 -0.35578755 -0.63200355 0.004367604 -0.60465544 -0.24746083
-0.14527333 -0.3469033 -0.15760472 -0.059386685 -0.0098860795 0.23909573 0.11098773 0.16647106
0.39135498 0.2258589 0.47774053 0.28711268 0.117477275 0.16272844 0.27211636 0.04369543
0.15823653 0.0486131 0.12894186 0.44481778 0.21826062 0.15796906 0.16879328 0.07237956
-0.19562459 -0.25258964 -0.49127367 -0.34979963 -0.23715 0.5918028 -0.011795175 0.3484431
0.13475373 -0.2869891 0.34957233 0.13762143 0.06680126 0.06120735 -0.070720896 -0.09585515
-0.01830402 0.08367956 -0.122275665 0.5649691 0.30951196 -0.1485286 0.03821267 -0.5991272
-0.03765683 -0.25634688 -0.24416897 0.33686563 -0.17021064 -0.48632625 0.055407602 -0.13976093
0.3563328 0.008016816 0.039626252 0.28909925 -0.00033977936 0.08479384 0.51582634 -0.043283038
0.014401487

resblocks.1.conv2.depthwise.bias f4 [9]
00000000: 6545 5fbe 60b3 643e 1415 043f c820 d3be
00000010: a781 263d 8e19 c5bb b9a5 bbbe 843d 8b3e
00000020: e9f6 29be
-0.21803816 0.22334051 0.5159466 -0.41235948 0.04065099 -0.0060150092 -0.36649874 0.2719537
-0.16598095

resblocks.1.conv2.pointwise.weight f4 [9, 9, 1, 1]
00000000: 4fe2 5bbd 3f0e 83be 2f04 323d f0fc 2cbd
00000010: e79d de3d 6688 623b 9018 8bbe 4508 bc3e
00000020: 3134 00bf 2903 673e 3b1c 8c3e 36cc 7cbd
00000030: a163 1cbd dec7 b3be f07e 303f 78cb 30bd
00000040: 6aea 443e fd68 86be bd62 963e c77e e83e
00000050: b68a b9be 1fe4 b6be dc06 4dbe f035 37be
00000060: 9670 04bf 1089 89be 8251 2e3e 94e0 90bc
00000070: af30 2cbe 33c7 e23d e641 48bd 102c bd3e
00000080: 1399 77be 143f d13e 04d2 d13e bb7d 74be
00000090: d815 b93e 902f 5ebe 8e05 f5bc 4da9 873e
000000a0: fbf0 80bd e4ed 7a3b 0792 13be 684b 76be
000000b0: c33e 8fbe d36e 6f3d dfed b53e adbf 12be
000000c0: 7e68 cb3e d952 03be 4bdb 67bd c4d6 be3e
000000d0: 5652 bd3d 8f3e 15be 4ea4 923e 17c3 e93e
000000e0: 6420 f3be 3764 193e 22ca 92be a469 bfbe
000000f0: 25b3 003d 5d52 903e b28d 163b d313 083e
00000100: 8b2e 633e 0e50 c73b cd6f 0cbb fbe7 cf3c
00000110: f1c4 c0be 4374 d3bd 0cdd 003f 5fd2 e5bd
00000120: 69b4 18be 469a 71be 0213 c7bd 79eb a4be
00000130: 5030 85bc 8b43 66bd 0449 1e3f 5331 793d
00000140: d2d5 a6be
-0.05368262 -0.25596806 0.04346102 -0.042233407 0.10869961 0.0034566163 -0.27167177 0.3672506
-0.5007964 0.22559799 0.27365288 -0.06171819 -0.03818095 -0.35113424 0.6894369 -0.043162793
0.19230047 -0.26251975 0.29372206 0.45409223 -0.3623864 -0.35720918 -0.20022148 -0.1789167
-0.5173429 -0.26862383 0.1702328 -0.017685212 -0.16815446 0.110731505 -0.04889097 0.3694768
-0.24179487 0.40868437 0.40980542 -0.23876087 0.36149478 -0.21697831 -0.029909875 0.26496354
-0.062959634 0.0038288767 -0.14411174 -0.24052203 -0.2797757 0.0584553 0.35533044 -0.14330931
0.3972816 -0.12824573 -0.05660562 0.37273228 0.0924422 -0.14574645 0.2864098 0.45656654
-0.4748565 0.14979635 -0.2866984 -0.37385285 0.031420846 0.28187838 0.002297264 0.13288812
0.22185723 0.0060825413 -0.0021428943 0.025379172 -0.37650254 -0.103249095 0.5033729 -0.11221766
-0.14912571 -0.23594007 -0.09720422 -0.322109 -0.016258389 -0.056216758 0.61830163 0.060838055
-0.32585007

resblocks.1.conv2.pointwise.bias f4 [9]
00000000: d516 1dbe 22af c73e 8417 a5be c74a 81bd
00000010: 31a2 fd3e 921d fc3e 83da 8bbe d5dd c13e
00000020: 3623 9dbb
-0.15340741 0.39000803 -0.32244503 -0.06313091 0.49537805 0.4924131 -0.2731515 0.37864557
-0.0047954572

resblocks.1.in2.weight f4 [9]
00000000: 9d71 963f b38a 773f 512f 623f 31d4 c33f
00000010: 4466 7a3f b774 3b3f 7a0d b83f 5e36 3d3f
00000020: f14f a13f
1.1753422 0.96696013 0.8835345 1.5299131 0.97812295 0.7322497 1.4379113 0.7391108
1.2602521

resblocks.1.in2.bias f4 [9]
00000000: 00cc a1be ef4d 22bf a791 9cbe b935 19bf
00000010: a8f2 8d3d d4d6 04bf d38f 45bf debf 963e
00000020: 0cb3 abbf
-0.31600952 -0.6340017 -0.30579874 -0.598476 0.06931049 -0.518903 -0.77172583 0.29443258
-1.3414016

resblocks.2.conv1.depthwise.weight f4 [9, 1, 3, 3]
00000000: a187 00bf f946 633e 3302 dbbd 1a6f b2bd
00000010: fa5c 203d 63eb 0ebd 561a b43e 536e 093e
00000020: cc90 143e 6588 ca3d a0bb 3ebe 951d 87bd
00000030: ead5 b3be 8310 943e 764d 383e 70f1 833e
00000040: 4184 dd3e e238 be3d e0bf 62bc 437a e8bd
00000050: 0b13 37be 8286 d2be dfcf b63e 93da 83be
00000060: dcab 7abe 1f5e 1cbc eb7b 9bbe 74ad a2be
00000070: 1825 30be 5381 033f 0e47 173e 1320 063e
00000080: 980f fd3d 5da2 e33e baeb 0ebe 676d 99be
00000090: 382a c4be 095e 10be 7fb1 d9be ba75 38be
000000a0: 55cb 0d3d dc40 e9bc 16ba 04bf 0169 87bd
000000b0: 339d f1bd 3fa1 b0be bad7 3a3d cbfa 6fbe
000000c0: 89ee c83b f7fa 54bc 9277 febe 42a1 59be
000000d0: e842 d63d 1572 12be 911d ea3e efb2 76bd
000000e0: 73c8 83be 9faf 173d 49bc 8c3e 059b a2bd
000000f0: 737f 89be 7c2d f13b 69c0 e03e 4e63 9abe
00000100: 2d61 843b 8e64 adbe 8856 173e b0e7 2dbe
00000110: bdb3 c0bd d368 7f3e 3c4d 7abe b34a 173d
00000120: ffb7 2bbf f66e ccbd 8a88 3c3e c74c 523e
00000130: 3c84 4dbe 7a78 72bc f77d 4bbe b82b 1c3e
00000140: 8e57 1abe
-0.50206953 0.22195043 -0.10693779 -0.08712597 0.03915117 -0.03489245 0.35176343 0.13420992
0.1450836 0.098892964 -0.18626261 -0.06597439 -0.3512414 0.28918847 0.17998299 0.2577014
0.43264964 0.09288193 -0.013839692 -0.113514446 -0.17878358 -0.41118246 0.35705468 -0.25752696
-0.24479622 -0.009543925 -0.3036798 -0.3177296 -0.1720165 0.5136921 0.14773199 0.13098173
0.1235649 0.4445981 -0.1395711 -0.2996628 -0.3831346 -0.14098372 -0.4251823 -0.18013659
0.03461774 -0.02847331 -0.51846445 -0.06611825 -0.117975615 -0.3449802 0.04561589 -0.23435514
0.006131951 -0.012999288 -0.497006 -0.21252921 0.1046198 -0.14301331 0.45725682 -0.060229238
-0.25738868 0.03703272 0.274874 -0.07939724 -0.2685505 0.0073601585 0.43896797 -0.30153888
0.0040399046 -0.3386578 0.14779103 -0.16982913 -0.09409282 0.24942331 -0.24443525 0.036936473
-0.6707763 -0.099821016 0.1841146 0.205371 -0.20069975 -0.014799232 -0.1987227 0.15251052
-0.15072462

resblocks.2.conv1.depthwise.bias f4 [9]
00000000: 70cd 1bbf 0abb efbe 7e79 07bf d175 e33e
00000010: 40f0 8abe 767b babe 6856 523e abb3 fb3d
00000020: 2723 4abf
-0.6086035 -0.46822387 -0.5291976 0.44425824 -0.2713642 -0.36422318 0.20540774 0.12290128
-0.7895989

resblocks.2.conv1.pointwise.weight f4 [9, 9, 1, 1]
00000000: 792a 283e 8ba0 6e3e 990a 8a3e 64b8 c9be
00000010: dc9d 013f b016 fdbc 8e47 7ebe ac21 02be
00000020: 5003 b03e e0b6 d5bb fde6 4cbd bb8a 6e3d
00000030: dcc9 7dbf d0d4 25be 4689 423e ecfe de3d
00000040: 85f8 b73d 268d b6bd cebe 43bd 31db dcbd
00000050: 241e 173e f6b4 55bd 2aee 62be 8b17 f4be
00000060: 6148 573e 53e0 ac3e a365 0a3d 2978 763e
00000070: d169 d5bd 0626 683e d4cb 633e bf40 92be
00000080: e92e 853e f9a6 aabd b49a 0f3e 5d4e cf3d
00000090: 9aa0 5bbe 2eed 88be d720 8abd cc35 f6bd
000000a0: efd7 b13e 1f67 acbc a78c 01bd fd58 b1bd
000000b0: 48d1 31bf d220 863d 6608 a53e dc95 eb3d
000000c0: 68b0 f33e 0d28 69bd eb50 e93c a64c 5dbd
000000d0: 2c7b eb3e 2541 1d3e 0991 403e 2183 283e
000000e0: 47d6 c53d cb82 7c3d 370e 2cbe 3c1e 323f
000000f0: 9881 8abd 2021 01be ab1a e9be f35f 6b3e
00000100: 90e5 c83e c6d8 a03e 594a 623e 9954 043e
00000110: 3e23 b53e 47c5 ddbc 301f 67be 0431 88bd
00000120: 4c48 2d3d 2e07 363d 7483 edbd a949 8ebc
00000130: 82bc 283e 7694 54be 6f88 2b3f c556 083e
00000140: d54f 7f3d
0.16422452 0.2330343 0.2696121 -0.3939849 0.506315 -0.030894607 -0.24831983 -0.12708157
0.34377527 -0.0065220445 -0.050024975 0.058237772 -0.9913614 -0.16194463 0.18997678 0.10888466
0.08982948 -0.08913641 -0.047789387 -0.10783995 0.14757591 -0.05217453 -0.22161165 -0.47674212
0.21023704 0.33764896 0.033788335 0.24069275 -0.104205735 0.22670755 0.22245723 -0.28565022
0.26012352 -0.08332629 0.14023858 0.101223685 -0.21447983 -0.26743454 -0.06744545 -0.1202198
0.34735057 -0.021045266 -0.031628277 -0.08659551 -0.6945996 0.06549229 0.3223297 0.11503193
0.47595525 -0.05692296 0.028480968 -0.054028176 0.4599241 0.15356882 0.18805327 0.16456272
0.09660011 0.06164817 -0.16802298 0.69577384 -0.06762999 -0.12610292 -0.4552816 0.2298582
0.39237642 0.31415385 0.22098674 0.12922896 0.3537845 -0.027071608 -0.22570491 -0.06649974
0.042305276 0.04444044 -0.11597338 -0.017369108 0.1647816 -0.20759758 0.67005056 0.1331435
0.062331993

resblocks.2.conv1.pointwise.bias f4 [9]
00000000: a1c0 07bf 77f8 4fbd d98a 6ebc 1f9b 13bd
00000010: 8f54 cebd 3c6a 0ebf e88e 443c 053b edbd
00000020: 2bfb 143e
-0.53028303 -0.050774064 -0.014559471 -0.036036607 -0.10074722 -0.5563085 0.011996962 -0.11583523
0.14548938

resblocks.2.in1.weight f4 [9]
00000000: 6a96 6f3f 45a9 803f 73d5 4c3f e4ec 853f
00000010: 9e7b 6e3f 283d 883f 1d9a 6d3f 4988 713f
00000020: a9e4 7a3f
0.9358889 1.0051657 0.800132 1.0462918 0.93157375 1.0643663 0.92813283 0.9434858
0.9800516

resblocks.2.in1.bias f4 [9]
00000000: ad5c 36bf ef9d 123e 7240 473f faa4 a8be
00000010: a18d 1bbf 27cb 6ebd 9e44 1cbe 3603 d73c
00000020: 7a19 0ebf
-0.7123516 0.1431806 0.7783271 -0.32938367 -0.60762984 -0.05829921 -0.1526055 0.026246648
-0.55507624

resblocks.2.conv2.depthwise.weight f4 [9, 1, 3, 3]
00000000: ff3b 343f 0e35 2c3f 37b1 683e 217b a33e
00000010: f7ab 36bc a265 043e 6afd 843e 2fd0 a23e
00000020: 3dd7 aa3d cf92 0b3d 2c5d 9a3b 65e1 133f
00000030: 87ef b73e 6d0b e33e 1702 9abd 982e 1abe
00000040: d96c c4bc 2b83 3fba 08e5 983e cc2d 4b3e
00000050: f647 bb3d 715a 06be f1e7 05be 8ec1 0fbe
00000060: efbb e33d bf40 ac3e 43fb 943e 9f4c 663e
00000070: 2e26 763e efbb a03e 2dcc 5a3e 118e f63d
00000080: e142 c33d 9aad 9e3e 01bf 5f3d b49e 133e
00000090: d06b 763e a2f2 d33c 85e2 a23e ed2a e2bc
000000a0: e4fa a1bc be58 35bd f62d f73e f0df df3d
000000b0: a1b8 9d3e cd8e 01bd eef3 9abe c54e 5f3e
000000c0: 57f4 5fbe c952 30bd a232 023e ac48 fabe
000000d0: ae9a e33d 54d2 d5bc 186e adbe 3adf dcbd
000000e0: 7506 17be ed44 79be b1d2 b4be a06b b7bc
000000f0: 8d2a 9d3e 9e77 47be 6fa0 60be 8932 353e
00000100: 3290 863d 4e0b 313e 5083 da3e d3ba 883d
00000110: 4562 583e ee0c 773c a917 4bbd e9e5 08be
00000120: da3d 003f b23c 293e c542 26bd abe0 003e
00000130: a320 613e fc85 ad3e 593e bc3d 3e82 ea3d
00000140: 4d52 d43e
0.70404047 0.67268455 0.22723852 0.31929877 -0.011149398 0.12929395 0.2597459 0.31799456
0.08341835 0.034075554 0.004710814 0.577658 0.35924932 0.44344655 -0.0751993 -0.15056837
-0.023977684 -0.00073056173 0.29862237 0.19841689 0.09144585 -0.13120438 -0.1307676 -0.14038679
0.1111983 0.33643147 0.29097947 0.22490166 0.24038002 0.31393382 0.2136695 0.12038816
0.095342405 0.30991822 0.054625515 0.14416009 0.24064565 0.025872532 0.31813446 -0.02760836
-0.019772954 -0.044274084 0.48277253 0.109313846 0.30804923 -0.031630326 -0.3026423 0.21807392
-0.21870552 -0.0430477 0.12714627 -0.4888357 0.11113487 -0.026101269 -0.33873057 -0.107847646
-0.14748557 -0.243427 -0.35316995 -0.022390187 0.30696526 -0.19479224 -0.219362 0.17695059
0.06570472 0.17289469 0.42678308 0.06676259 0.21131237 0.015078766 -0.04958311 -0.13368954
0.5009438 0.1652706 -0.04059102 0.12585704 0.21985106 0.33891284 0.09191579 0.11450623
0.4146904

resblocks.2.conv2.depthwise.bias f4 [9]
00000000: 1828 aa3e bb66 263d d1ef 8e3e 5581 dd3e
00000010: e1c5 1ebe a9fe 883e 5a6c 023e d338 d93e
00000020: 2fb0 9dbe
0.33233714 0.040625315 0.2791734 0.43262735 -0.15505172 0.2675679 0.12736645 0.42426166
-0.3079848

resblocks.2.conv2.pointwise.weight f4 [9, 9, 1, 1]
00000000: 8dc4 ffbd eda0 7cbd b2d3 1d3e e38d 7bbe
00000010: 6eeb d93d 43ea 2b3e 459a 5c3e 3b84 f43c
00000020: 7301 0f3f 41ab 853e 6e81 3a3d d314 31be
00000030: 1f97 edbd 6096 483f 6454 cd3d 95ae d23d
00000040: b0fc d13d e900 95bd 69da d13d 0b05 84bd
00000050: 198e 89be c295 dbbd ee46 2c3e da68 03bf
00000060: b7ee a93e f2b8 86be 59a5 383e 0b97 8abe
00000070: 9e85 08bd a37a f4be fde7 983c a6ee dcbd
00000080: abfc e5bb 4ed7 183d f1f7 44bd 5507 753e
00000090: cfd2 ff3d e209 14bc 4352 f33c 77cb 893e
000000a0: 29c4 32be 49ec 923e b8ee a5bc a597 c53e
000000b0: a413 0f3d d1d0 5fbf 46a8 743e db8c 173d
000000c0: 96b9 edbd 9bc9 b4be 3f24 4abd 8ba0 6a3d
000000d0: 7f2e 353d 7ac5 853b 1fca b83e aa33 863e
000000e0: 21f4 51be 79e5 833e 078c a9be 21bb 5c3f
000000f0: ef8f 963e c6b2 5cbd c0f6 afbe 3cca eebe
00000100: 08b6 e0bc 5598 483e 5857 0dbd 18ac 35be
00000110: 686c a1bd f8fd 263d 57f7 82bb 26ca c1be
00000120: 87d6 01be bdb7 10bf d830 d6bc 31dd bc3e
00000130: 1cba 203e 3cce 8c3e 3441 ba3e 3d8c e63e
00000140: e84d b63c
-0.12488661 -0.06167691 0.15412787 -0.24565844 0.10640608 0.16788583 0.21543224 0.029848209
0.55861586 0.2610722 0.04553359 -0.172931 -0.1160109 0.78354454 0.10025862 0.10287205
0.102532744 -0.07275564 0.102467366 -0.06446274 -0.26866224 -0.107219234 0.16823933 -0.51331866
0.33189937 -0.26312977 0.18031825 -0.27068362 -0.033330552 -0.47749814 0.018665308 -0.10787706
-0.0070186458 0.037314706 -0.048088018 0.23928578 0.124913804 -0.009035559 0.029702311 0.26913044
-0.17457642 0.28695896 -0.020255432 0.38592258 0.03493084 -0.87428004 0.23892316 0.036999565
-0.11607663 -0.35310063 -0.049350973 0.057282012 0.044233795 0.004082379 0.36091706 0.26211292
-0.20503284 0.2576101 -0.33114645 0.86223036 0.29406688 -0.05388143 -0.34367943 -0.46638668
-0.02743055 0.1958936 -0.034507126 -0.1774143 -0.07882005 0.040769547 -0.0039967704 -0.3784954
-0.12679492 -0.5653036 -0.026146337 0.36887506 0.15695995 0.27501094 0.3637787 0.45028868
0.022253945

resblocks.2.conv2.pointwise.bias f4 [9]
00000000: b20c 2b3e 31a5 a33b f878 cebe eed7 66be
00000010: d5db 88be b8eb ae3d 26cf 6cbd 95aa a23d
00000020: 29f5 e63e
0.16704062 0.0049940576 -0.40326667 -0.22543308 -0.2673022 0.085410535 -0.05781474 0.07942692
0.45108917

resblocks.2.in2.weight f4 [9]
00000000: 50ed c73f 2ccf d13f 2b9d 0840 ebb9 e13f
00000010: 0583 de3f 4149 1840 e62d b73f d64d 3840
00000020: 1b32 0340
1.5619297 1.6391349 2.1345928 1.7634863 1.7383734 2.379471 1.4310882 2.8797507
2.0499332

resblocks.2.in2.bias f4 [9]
00000000: 229c 75bf 5110 463f 952a 8ebe 3d44 4abe
00000010: fb32 8fbf a4f1 8b3f 4373 d33d 79a5 d43e
00000020: e8a1 f5bf
-0.95941365 0.77368647 -0.27766863 -0.19752593 -1.1187433 1.0933118 0.10324719 0.41532496
-1.9190035
