testapp/models/modelfast.onnx (onnx, 539927 bytes, 30 tensors)

conv1.conv2d.weight f4 [16, 3, 9, 9]
0.039641123 0.09281966 0.0052491506 0.12043502 0.086842105 -0.00014698924 -0.08212643 0.10750728
0.23284073 0.042189904 0.1935292 0.14633776 0.15016076 0.057601262 -0.04927966 -0.14865814
-0.061638683 -0.16677138 0.25150535 0.25115508 0.16302186 0.1547546 0.09031261 0.063950084
-0.12082874 -0.15794387 -0.30387357 0.18202747 0.15377797 0.015482943 0.18537505 0.035039112
-0.0326058 -0.21469054 -0.27217227 -0.29545426 0.2058576 0.16159596 0.068963066 0.12874596
0.054970622 -0.12799084 -0.18680216 -0.070286825 -0.17610592 -0.021742245 0.081545606 0.00056768773
0.08336287 -0.076289885 -0.08336932 0.013499886 0.084919676 0.15398407 -0.18345527 0.011724488
-0.058343377 -0.057648577 -0.109488636 -0.008424075 0.1864844 0.13985027 0.16525193 -0.4187146
0.06079657 -0.012784062 0.06955372 -0.083332434 0.16567539 0.2302527 0.17892449 0.06427291
-0.86793137 -0.29826704 -0.1646679 -0.12128863 -0.21208227 0.12857234 0.14863297 -0.034999844
-0.1972423 -0.38280478 -0.12161153 -0.06628799 0.08400629 0.08062712 0.09390696 0.03873644
0.16210894 0.27583528 -0.2923408 -0.12560734 0.07681592 0.086081535 -0.052524753 -0.1058584
-0.03719321 -0.1417629 -0.24960504 -0.15291488 -0.03093767 0.10796786 0.10771461 0.017196927
0.023179732 -0.1000348 -0.20979469 -0.38097697 -0.15965645 -0.04828275 0.10681612 0.17027348
0.13400449 -0.102558754 -0.23976536 -0.22422835 -0.2520163 -0.14834672 -0.033137295 0.03499187
0.20842747 0.075257555 -0.07548932 -0.20073694 -0.04242904 -0.057524335 -0.30892384 -0.11040583
-0.003274274 -0.015682006 0.018304545 -0.009555289 0.017196182 0.28316474 0.25708386 -0.5410263
-0.19274753 -0.2445818 -0.1449403 -0.21001732 0.048931137 0.1437826 0.30338567 0.21718451
-0.7540801 -0.05954517 -0.06044048 0.0070611956 0.05753787 0.20698556 0.32696208 0.14787981
0.112301864 -1.5234619 -0.36221868 -0.30837324 -0.07880097 -0.13019216 0.19707265 0.13795619
0.032602545 -0.069554925 0.040811647 0.018392222 0.14096294 0.15650925 0.17241332 0.13146804
0.04788981 0.12169708 0.2039155 0.0048007253 0.113468274 0.113117814 0.08122165 0.07265407
-0.0708695 -0.07245432 -0.059649516 -0.25234756 0.1977038 0.18883395 0.14588465 0.10055076
0.1238623 0.084735215 -0.018966185 -0.1476426 -0.33618444 0.13694884 0.07842674 0.0135544585
0.11757662 0.09581401 -0.072410434 -0.20747004 -0.24558777 -0.38258776 0.11135415 0.10630376
0.010076192 0.10836364 0.07213217 -0.067927904 -0.19793358 -0.19751242 -0.34314752 -0.11811289
0.04163537 0.07649815 0.0945992 -0.02056847 -0.10001653 -0.04692995 0.03769843 0.014702185
-0.17119901 0.036360722 0.067596726 -0.021225872 -0.1570766 0.06602614 0.09058133 0.09069588
-0.021431824 -0.27199703 0.1563817 0.15456182 0.07930336 -0.019197412 0.16291687 0.26188034
0.11676592 0.05787509 -0.6322721 -0.032808255 0.08892802 0.06443178 -0.05455224 0.17891696
0.23564029 -0.0029380976 -0.058137633 -0.40361091 0.045650516 -0.002641058 0.0069078943 -0.037541557
-0.032603797 -0.019138025 -0.041001435 -0.2547048 -0.14088637 0.11373563 0.09942801 0.0536349
00000000: bb5e 223d 3c18 be3d 1101 ac3b a3a6 f63d
00000010: 46da b13d 2021 1ab9 e731 a8bd c72c dc3d
00000020: cd6d 6e3e 52cf 2c3d 852c 463e 91d9 153e
00000030: bec3 193e 4def 6b3d 78d9 49bd d739 18be
00000040: d878 7cbd 1ec6 2abe 4fc5 803e 6697 803e
00000050: 34ef 263e fd77 1e3e d1f5 b83d 43f8 823d
00000060: 0f75 f7bd 0abc 21be 5195 9bbe 6965 3a3e
00000070: f977 1d3e 2bac 7d3c f5d2 3d3e 2c85 0f3d
00000080: a98d 05bd d6d7 5bbe 2a5a 8bbe c845 97be
00000090: 56cc 523e 6979 253e 823c 8d3d fbd5 033e
000000a0: e028 613d 0810 03be 1149 3fbe 8af2 8fbd
000000b0: 1c55 34be cb1c b2bc 6201 a73d e1d0 143a
000000c0: 27ba aa3d df3d 9cbd 89bd aabd a02e 5d3c
000000d0: 5eea ad3d 00ae 1d3e b3db 3bbe 1118 403c
000000e0: 77f9 6ebd ea20 6cbd 943b e0bd 2205 0abc
000000f0: c4f5 3e3e e934 0f3e cd37 293e c361 d6be
00000100: d305 793d 3e74 51bc 2e72 8e3d 32aa aabd
00000110: cfa6 293e 5dc7 6b3e fb37 373e 84a1 833d
00000120: c030 5ebf 75b6 98be b49e 28be 2c66 f8bd
00000130: 182c 59be 78a8 033e 3e33 183e ff5b 0fbd
00000140: e3f9 49be fdfe c3be 770f f9bd ffc1 87bd
00000150: 7d0b ac3d d51f a53d 4b52 c03d 1aaa 1e3d
00000160: e3ff 253e 483a 8d3e b1ad 95be 369f 00be
00000170: aa51 9d3d 844b b03d 3224 57bd 4acc d8bd
00000180: e857 18bd 4b2a 11be 7798 7fbe b895 1cbe
00000190: ff70 fdbc 411e dd3d 7a99 dc3d 92e0 8c3c
000001a0: 6ce3 bd3c 0cdf ccbd 6bd4 56be 6a0f c3be
000001b0: fb7c 23be 22c4 45bd 69c2 da3d 2c5c 2e3e
000001c0: 7938 093e 530a d2bd 0d85 75be 1e9c 65be
000001d0: 4808 81be 34e8 17be f9ba 07bd a353 0f3d
000001e0: 036e 553e a220 9a3d 259a 9abd fc8d 4dbe
000001f0: 13ca 2dbd a39e 6bbd 442b 9ebe 741c e2bd
00000200: 3495 56bb 8d77 80bc 6af3 953c c98d 1cbc
00000210: 02df 8c3c f8fa 903e 7fa0 833e b380 0abf
00000220: 9c5f 45be a773 7abe 3b6b 14be c80e 57be
00000230: 046c 483d bf3b 133e 5e55 9b3e 9e65 5e3e
00000240: 650b 41bf a3e5 73bd 7090 77bd 9a61 e73b
00000250: d4ac 6b3d 06f4 533e 9367 a73e ce6d 173e
00000260: 85fe e53d cd00 c3bf ba74 b9be 19e3 9dbe
00000270: 6762 a1bd 1851 05be 6acd 493e 6344 0d3e
00000280: 3f8a 053d d072 8ebd 1d2a 273d 49ab 963c
00000290: 9758 103e f643 203e 1e8d 303e 8f9f 063e
000002a0: 1b28 443d 523c f93d 3acf 503e 674f 9d3b
000002b0: 0e62 e83d 50aa e73d 8957 a63d a8cb 943d
000002c0: 0724 91bd ee62 94bd 0d53 74bd b333 81be
000002d0: dd72 4a3e b05d 413e c962 153e 8fed cd3d
000002e0: 84ab fd3d a889 ad3d f95e 9bbc 9f2f 17be
000002f0: 5e20 acbe 513c 0c3e 339e a03d 8513 5e3c
00000300: 03cc f03d 233a c43d ec4b 94bd 0773 54be
00000310: 5c7b 7bbe 8be2 c3be a50d e43d c9b5 d93d
00000320: 9d16 253c c2ed dd3d 08ba 933d c91d 8bbd
00000330: 1aaf 4abe b240 4abe 08b1 afbe 2ce5 f1bd
00000340: da89 2a3d 10ab 9c3d 3abd c13d 357f a8bc
00000350: 77d5 ccbd 9f39 40bd ab69 1a3d 6fe1 703c
00000360: cb4e 2fbe fbee 143d 2770 8a3d e1e1 adbc
00000370: b0d8 20be b638 873d b482 b93d c3be b93d
00000380: cb91 afbc 3243 8bbe 8622 203e 7445 1e3e
00000390: cd69 a23d e443 9dbc aed3 263e 2e15 863e
000003a0: f822 ef3d 6e0e 6d3d 96dc 21bf f361 06bd
000003b0: e51f b63d cff4 833d 2b72 5fbd 0236 373e
000003c0: b04b 713e 198d 40bb ba21 6ebd 17a6 cebe
000003d0: 09fc 3a3d 9a15 2dbb 9e5b e23b 2dc5 19bd
000003e0: 8f8b 05bd 59c7 9cbc 1ff1 27bd ab68 82be
000003f0: 8444 10be 3aee e83d eaa0 cb3d 45b0 5b3d

conv1.conv2d.bias f4 [16]
0.14779948 -0.062276185 -0.12632097 0.12907834 -0.011653212 0.1848528 0.07850555 0.0152745405
-0.105629705 0.068415776 -0.012987282 0.07019961 0.12979311 0.15483359 -0.111691624 0.12821576
00000000: bf58 173e 5015 7fbd 495a 01be 1d2d 043e
00000010: 1ded 3ebc 0d4a 3d3e 85c7 a03d 1142 7a3c
00000020: 6354 d8bd 921d 8c3d 9cc8 54bc d0c4 8f3d
00000030: 7ce8 043e b28c 1e3e 94be e4bd fe4a 033e

in1.weight f4 [16]
0.41860148 0.82669383 0.78497785 1.131051 0.6165678 1.1037482 1.2604002 1.238563
0.92591345 0.577023 1.0850748 0.91707015 1.2221124 1.090359 0.7410087 0.72428304
00000000: ef52 d63e 35a2 533f 4ff4 483f 47c6 903f
00000010: 63d7 1d3f 9f47 8d3f cb54 a13f 3b89 9e3f
00000020: aa08 6d3f c8b7 133f bbe3 8a3f 1cc5 6a3f
00000030: 2e6e 9c3f e290 8b3f bfb2 3d3f 9d6a 393f

in1.bias f4 [16]
0.2190598 0.5609985 -0.17091963 -0.35204345 0.32621124 0.1459277 0.2745709 0.48938403
0.48097447 0.69245523 0.5006723 -0.22260024 -0.22914793 0.2899851 0.31270683 0.20796773
00000000: 3651 603e 999d 0f3f 8e05 2fbe 0a3f b4be
00000010: 2905 a73e 126e 153e 8f94 8c3e 8b90 fa3e
00000020: 4942 f63e bf44 313f 0f2c 003f 51f1 63be
00000030: c1a5 6abe ed78 943e 1c1b a03e 7ef5 543e

conv2.conv2d.weight f4 [32, 16, 3, 3]
-0.16097456 -0.40979153 -0.50872964 -0.17021912 -0.16239765 -0.06735339 -0.059049647 0.068921305
0.2683774 0.3326351 0.12128482 -0.035658676 0.24928428 -0.21568827 -0.19245735 0.16887602
-0.16981673 -0.072882265 0.0012238631 -0.093555294 -0.114569284 0.16532357 -0.13476674 -0.40151006
0.33591244 0.06301825 -0.27572465 -0.023142537 0.005324245 0.18965957 -0.12895878 0.010294061
0.16373391 -0.14346187 0.033757888 0.10014875 0.25495765 0.20360537 0.20615153 0.23858167
0.025325768 -0.22351791 0.2935627 -0.19917914 -0.6849209 0.04607838 0.001077106 -0.0889634
0.24684326 0.13060138 0.23133473 0.32799906 0.22654687 0.25313613 0.2654345 0.04922851
0.08084728 -0.1269491 -0.22418942 -0.25422907 -0.051338732 -0.13487302 -0.2221734 -0.048261162
0.094535485 0.5379117 0.013857427 0.0055823945 0.09274008 0.14427643 -0.20001023 -0.12122188
-0.2471577 -0.13768321 0.3251648 0.1230818 0.04353502 0.10936648 0.42721835 0.03553602
-0.15052739 -0.059465766 -0.12812924 -0.2140854 -0.02311296 -0.10056095 -0.16625585 0.1416502
0.15336382 0.035735045 -0.07790399 -0.14765815 -0.24869385 0.00039120443 0.053572387 -0.030726986
0.15392165 0.23168653 0.14306109 -0.11589746 -0.09437869 -0.06080606 0.07078594 0.086535804
0.04232257 0.09337888 0.103236355 0.021301357 -0.22983634 -0.09955377 0.021836648 -0.04765298
0.08681591 -0.044497482 -0.043539662 -0.029418664 -0.00093382405 0.31692356 -0.002694243 0.0650544
0.12307307 0.14893422 0.13323711 0.2238597 0.17338666 0.3571946 0.127978 0.03191437
0.011925137 -0.17743276 -0.14404935 0.036762252 -0.30370012 -0.1580259 0.2113645 0.260745
0.20941526 0.35066858 0.18090242 0.11147301 0.21210855 0.17024326 -0.030722873 0.17590302
0.096410885 0.17626683 0.0984499 0.10382765 -0.04177908 -0.047722172 -0.12955545 -0.0057946965
-0.10148407 -0.38107055 -0.20770472 -0.123193175 -0.120159 0.04370311 0.040621135 -0.046649743
0.1436377 0.014256647 -0.044480916 -0.16571893 -0.011383483 0.17362428 -0.12661186 0.0075014294
0.40920892 0.17565867 0.2529419 -0.16318427 -0.088555895 -0.14261249 -0.30016696 -0.14621906
-0.06034042 -0.3916794 -0.22790803 -0.16166218 -0.05530802 -0.21819589 -0.3201658 -0.14123513
-0.07913356 -0.071856186 -0.1244106 0.2809843 0.27486214 -0.045646004 -0.0391922 0.19116832
-0.2574943 -0.0527321 0.18692823 -0.20838413 -0.16956295 0.22447881 -0.5196208 -0.42973074
-0.33094445 -0.2080527 -0.19929612 -0.051624224 0.15343466 0.07070238 0.19307545 -0.06906275
-0.053251002 0.0806688 -0.10328095 0.020634243 0.08273394 0.030923162 0.074624926 0.19823739
0.3196766 0.11719946 0.06724957 0.124489196 -0.13054337 -0.16651608 -0.0928368 -0.27503228
-0.130047 0.08407513 0.16942915 0.08568235 0.19816701 0.24550016 -0.06247201 0.15179123
0.07228649 -0.059410047 0.4631728 0.13083333 0.02919733 0.12694961 0.08055074 -0.11138057
-0.02140014 -0.20154737 -0.22394475 0.5542822 0.2623849 0.10141626 0.41194665 0.09687148
-0.100414485 0.23914622 -0.07894278 -0.2157159 0.25114673 0.11066777 0.117938414 0.09547812
00000000: 84d6 24be 32d0 d1be 1b3c 02bf ec4d 2ebe
00000010: 924b 26be 93f0 89bd 0bde 71bd 9d26 8d3d
00000020: c368 893e 264f aa3e 2d64 f83d d50e 12bd
00000030: 6144 7f3e 63dd 5cbe 8a13 45be d6ed 2c3e
00000040: 70e4 2dbe 4c43 95bd 086a a03a eb99 bfbd
00000050: 4da3 eabd 954a 293e 4b00 0abe ba92 cdbe
00000060: b7fc ab3e b60f 813d c82b 8dbe 6b95 bdbc
00000070: 0177 ae3b 1e36 423e c50d 04be 6ca8 283c
00000080: dda9 273e abe7 12be b645 0a3d ca1a cd3d
00000090: cf89 823e ed7d 503e 6319 533e c14e 743e
000000a0: fc77 cf3c e1e1 64be da4d 963e 9ef5 4bbe
000000b0: fa56 2fbf afbc 3c3d ae2d 8d3a 7132 b6bd
000000c0: 7bc4 7c3e 5ebc 053e 03e3 6c3e 7eef a73e
000000d0: e7fb 673e 0f9b 813e 08e7 873e d6a3 493d
000000e0: 4293 a53d f2fe 01be e991 65be 502a 82be
000000f0: 9048 52bd 271c 0abe 6c81 63be 7fad 45bd
00000100: d29b c13d 95b4 093f 430a 633c 85ec b63b
00000110: 83ee bd3d 33bd 133e 7bcf 4cbe 2d43 f8bd
00000120: e816 7dbe d4fc 0cbe 007c a63e 5012 fc3d
00000130: c751 323d 88fb df3d 5dbc da3e 388e 113d
00000140: da23 1abe 6092 73bd 5034 03be 3439 5bbe
00000150: 6457 bdbc e6f2 cdbd f93e 2abe c00c 113e
00000160: 680b 1d3e e95e 123d 218c 9fbd b333 17be
00000170: 9aa9 7ebe 921a cd39 b86e 5b3d 29b7 fbbc
00000180: a39d 1d3e 3c3f 6d3e 9b7e 123e a65b edbd
00000190: 9d49 c1bd c60f 79bd 38f8 903d af39 b13d
000001a0: 6e5a 2d3d 6d3d bf3d 956d d33d 2f80 ae3c
000001b0: 385a 6bbe d9e2 cbbd c5e2 b23c c52f 43bd
000001c0: 8acc b13d fe42 36bd a556 32bd 69ff f0bc
000001d0: dfcb 74ba ce43 a23e e691 30bb 3e3b 853d
000001e0: bc0d fc3d 3682 183e 4f6f 083e 7a3b 653e
000001f0: 468c 313e 36e2 b63e aa0c 033e a4b8 023d
00000200: a661 433c efb0 35be ac81 13be 0494 163d
00000210: 957e 9bbe 8bd1 21be ef6f 583e 5e80 853e
00000220: f470 563e d58a b33e 7c3e 393e f64b e43d
00000230: fc32 593e 4054 2e3e 89ae fbbc ec1f 343e
00000240: 1273 c53d 4b7f 343e 1aa0 c93d 97a3 d43d
00000250: 8a20 2bbd 5378 43bd 2faa 04be 70e1 bdbb
00000260: e1d6 cfbd ae1b c3be 8cb0 54be b44c fcbd
00000270: ec15 f6bd 0802 333d 5962 263d cd13 3fbd
00000280: c315 133e b694 693c 9f31 36bd 39b2 29be
00000290: ca81 3abc 90ca 313e 8aa6 01be 8dce f53b
000002a0: d583 d13e dedf 333e 9a81 813e c719 27be
000002b0: cb5c b5bd 0209 12be 7caf 99be 73ba 15be
000002c0: 8427 77bd 348a c8be b960 69be c58a 25be
000002d0: aa8a 62bd be6e 5fbe c6ec a3be f19f 10be
000002e0: c710 a2bd 5629 93bd fcca febd 2ddd 8f3e
000002f0: bbba 8c3e 4ef7 3abd 0088 20bd a1c1 433e
00000300: 4bd6 83be 9dfd 57bd 1d6a 3f3e a662 55be
00000310: e9a1 2dbe c6dd 653e de05 05bf ab05 dcbe
00000320: 8d71 a9be c40b 55be 4814 4cbe ec73 53bd
00000330: fa1d 1d3e 69cc 903d 92b5 453e c570 8dbd
00000340: b91d 5abd af35 a53d f684 d3bd 2509 a93c
00000350: 6970 a93d 9252 fd3c f4d4 983d befe 4a3e
00000360: a7ac a33e 4506 f03d 24ba 893d 31f4 fe3d
00000370: 29ad 05be 3183 2abe 3821 bebd 08d1 8cbe
00000380: 0a2b 05be 952f ac3d d67e 2d3e 3a7a af3d
00000390: 4bec 4a3e 6564 7b3e a6e2 7fbd 296f 1b3e
000003a0: f00a 943d f357 73bd fc24 ed3e 2cf9 053e
000003b0: 3d2f ef3c 14ff 013e c9f7 a43d 7f1b e4bd
000003c0: 594f afbc 6f62 4ebe c651 65be 70e5 0d3f
000003d0: 5057 863e 54b3 cf3d acea d23e 8e64 c63d
000003e0: 1ca6 cdbd bfe2 743e c1ac a1bd a1e4 5cbe
000003f0: 4e96 803e c9a5 e23d b289 f13d 088a c33d

conv2.conv2d.bias f4 [32]
-0.14250438 0.1693537 -0.27210307 -0.1694801 -0.53568465 0.5405298 0.018983211 -0.11376772
0.3328637 -0.124676876 -0.12855585 -0.21679692 0.13797487 -0.24675617 -0.14383037 -0.1669685
0.14399746 -0.03647932 -0.15336466 0.1160543 -0.122458175 -0.383707 0.30893424 -0.20604913
-0.12863865 -0.20743066 0.024672095 0.041707695 0.16479939 -0.11074956 -0.04380063 -0.3054809
00000000: abec 11be 0e6b 2d3e 1851 8bbe 318c 2dbe
00000010: a122 09bf 2960 0a3f ae82 9b3c 0dff e8bd
00000020: 1c6d aa3e 9756 ffbd 25a4 03be 0300 5ebe
00000030: 4949 0d3e a6ad 7cbe 4548 13be caf9 2abe
00000040: 1274 133e 576b 15bd a00b 1dbe e0ad ed3d
00000050: 5acb fabd 3e75 c4be a12c 9e3e 8bfe 52be
00000060: dab9 03be b468 54be 221d ca3c b0d5 2a3d
00000070: 2cc1 283e aad0 e2bd 4a68 33bd fe67 9cbe

in2.weight f4 [32]
0.55272543 0.7036956 0.58445024 0.45130873 1.253327 0.6523425 1.3958819 1.2224038
0.4857643 1.080699 0.923753 0.89884096 0.9577732 1.3945183 1.1760384 0.84167606
0.8806657 1.3137774 0.7781067 0.7532201 0.8522465 0.7735095 1.1787605 0.8891747
1.0785105 0.7960719 0.8866978 0.69007236 0.92026603 0.5743821 1.4126042 0.7583408
00000000: 6a7f 0d3f 6525 343f 889e 153f f011 e73e
00000010: 056d a03f ebff 263f 42ac b23f ba77 9c3f
00000020: 19b6 f83e 5854 8a3f 147b 6c3f 711a 663f
00000030: a030 753f 937f b23f 6d88 963f 1578 573f
00000040: 4f73 613f dc29 a83f 0032 473f 08d3 403f
00000050: d42c 5a3f b804 463f a0e1 963f f4a0 633f
00000060: a20c 8a3f 5ecb 4b3f a1fe 623f 95a8 303f
00000070: 8e96 6b3f b50a 133f 37d0 b43f 9f22 423f

in2.bias f4 [32]
-0.9659296 -0.1422195 0.010199761 0.29769292 -0.17019908 -0.09132456 -0.08011191 -0.36929426
0.4029491 -1.2796683 -0.039572705 -0.2497085 -0.22548315 -0.2958264 -0.33552247 -0.3065933
-0.16480999 -0.056292098 0.06180797 -0.5383083 -0.11591041 0.05618479 -0.18226181 -0.028127184
-0.00552404 -2.2699032 -0.43693945 -0.015303438 0.02381979 0.38287133 -0.6470393 0.31712598
00000000: 2a47 77bf fda1 11be e61c 273c 356b 983e
00000010: ab48 2ebe 5f08 bbbd b711 a4bd 2314 bdbe
00000020: 584f ce3e 2ccc a3bf fd16 22bd 96b3 7fbe
00000030: 0ee5 66be 8f76 97be 9ac9 abbe ccf9 9cbe
00000040: f3c3 28be 8b92 66bd 5b2a 7d3d 93ce 09bf
00000050: 7062 edbd 0622 663d d7a2 3abe fb6a e6bc
00000060: 0203 b5bb 1846 11c0 87b6 dfbe 45bb 7abc
00000070: b821 c33c b607 c43e 5ea4 25bf 565e a23e

conv3.conv2d.weight f4 [64, 32, 3, 3]
-0.26284495 -0.087726325 -0.21916243 -0.4267059 -0.3456548 -0.32843643 -0.20080376 -0.13538156
-0.34596834 -0.2335696 -0.1337073 -0.267186 -0.29780382 0.1187527 0.024937337 -0.37282968
-0.1820835 -0.06767386 0.02520079 -0.10309592 -0.14313886 0.085386746 0.09370618 -0.06144371
-0.015875066 0.14640756 0.23240171 0.09768821 -0.118501805 0.15691689 0.08745507 -0.024923423
-0.19032645 0.047575727 -0.05965093 0.27481183 0.26997292 0.38109487 0.13050805 -0.02572579
0.16609682 0.17955151 -0.4359498 -0.15254135 0.27946258 0.10534451 0.09129039 0.17302988
0.17955852 -0.1612123 0.024559751 0.18971947 0.020899275 0.021653984 -0.1288086 0.1005434
-0.09513673 0.022411216 0.022542113 0.0029937201 -0.13408518 0.054780208 0.047308393 0.3227293
0.040660575 -0.04663729 -0.026102282 -0.0534536 0.034837347 -0.023638453 -0.078138284 0.20803623
0.24562928 0.111537255 0.14637157 0.028362554 0.15069963 0.04517484 0.24063906 0.09798635
0.11412741 -0.25234255 0.050268166 -0.024889236 -0.17630796 0.1955297 0.011799388 -0.24938875
-0.16654801 -0.21522926 -0.29700443 -0.053483583 -0.37728587 -0.19119965 0.10671149 -0.15919442
-0.055679742 -0.06836065 -0.3268549 -0.58750206 -0.35953575 -0.45382208 -0.38240618 -0.50374156
-0.6155303 0.21582937 -0.18774588 -0.83207124 0.17144382 0.09439516 -0.0067162807 -0.008826781
0.10028214 -0.09204396 -0.15628606 -0.13200857 -0.2708117 -0.19050297 0.062851384 -0.034811676
-0.03167304 -0.02077695 0.111230604 -0.2071887 -0.122573845 0.1962587 0.2623161 0.17008138
0.43882537 0.15797198 0.2693415 0.19155705 -0.038652617 0.07807378 -0.04156301 -0.2013815
-0.044324882 0.26277658 -0.27670577 -0.037199337 0.020945203 -0.20131132 -0.08348471 -0.2551082
-0.35937464 -0.06988927 0.02649458 0.0116534615 -0.06129103 -0.10433984 0.11994326 -0.044096358
-0.23807015 0.70291865 0.42002255 0.2762166 -0.06502642 0.17156227 0.30436867 -0.37421668
0.04475475 0.18833883 0.5088345 0.028382203 -0.1433111 0.101254426 0.13331412 -0.025455426
-0.051982146 0.11699966 0.11577213 0.027843067 -0.15585122 -0.14408833 -0.112824745 0.11053643
-0.08480733 0.028221248 -0.013773147 -0.10194061 0.074422084 0.13917704 0.05031735 -0.011418328
-0.0060132584 0.13790224 -0.14188729 -0.35177425 -0.03352487 0.014753122 0.034382492 0.30191213
-0.07953247 -0.12829119 -0.15901878 -0.2871187 0.06388196 0.055199787 -0.42516455 0.06803558
0.112778254 -0.07242702 -0.19106793 -0.055119194 -0.055370692 -0.2895223 -0.22846694 -0.32518718
-0.024896506 -0.100581184 -0.04155579 -0.08927078 0.024689242 0.2421504 -0.005406758 0.065376684
-0.0942531 0.009984014 0.019502996 0.13379896 -0.029706849 -0.054221626 0.07055404 0.17772561
-0.114591666 -0.22121392 -0.1824913 -0.21977778 0.12732066 0.055676855 -0.058986593 0.036593176
0.103645526 -0.12407696 0.119545236 -0.08392155 0.2233398 0.08986106 0.18512562 -0.060473043
-0.0013803436 0.1702087 0.24251033 -0.07525603 -0.115582414 -0.35589704 0.099860765 -0.050772082
-0.08722297 0.031365015 -0.0067278505 -0.1777338 -0.1699467 0.26760918 0.15793058 -0.19173305
00000000: 9d93 86be dca9 b3bd 1e6c 60be 3279 dabe
00000010: aaf9 b0be d228 a8be 809f 4dbe 77a1 0abe
00000020: c322 b1be df2c 6fbe 91ea 08be 9acc 88be
00000030: be79 98be 9e34 f33d 6349 cc3c 88e3 bebe
00000040: 1974 3abe 9898 8abd e371 ce3c f423 d3bd
00000050: fe92 12be 3fdf ae3d 07e9 bf3d 66ac 7bbd
00000060: 6d0c 82bc ddeb 153e b7fa 6d3e c210 c83d
00000070: 13b1 f2bd d2ae 203e a51b b33d 352c ccbc
00000080: f0e4 42be c4de 423d 8954 74bd 23b4 8c3e
00000090: e439 8a3e de1e c33e e7a3 053e e4be d2bc
000000a0: 4915 2a3e 5adc 373e d034 dfbe cd33 1cbe
000000b0: b815 8f3e ddbe d73d 75f6 ba3d bf2e 313e
000000c0: 30de 373e d614 25be 8831 c93c d245 423e
000000d0: f534 ab3c b263 b13c 67e6 03be b3e9 cd3d
000000e0: 0cd7 c2bd ba97 b73c 3daa b83c 4a32 443b
000000f0: a04d 09be 3661 603d 72c6 413d c63c a53e
00000100: b48b 263d be06 3fbd 74d4 d5bc 29f2 5abd
00000110: 9bb1 0e3d 6ea5 c1bc f706 a0bd 7307 553e
00000120: 3e86 7b3e a56d e43d 6ee2 153e 9658 e83c
00000130: 0151 1a3e 4109 393d 166a 763e 11ad c83d
00000140: a2bb e93d 0b33 81be fee5 4d3d 83e4 cbbc
00000150: 138a 34be f038 483e 3852 413c c45f 7fbe
00000160: 908b 2abe 0f65 5cbe f710 98be 9a11 5bbd
00000170: 9d2b c1be d7c9 43be 8e8b da3d dd03 23be
00000180: 7110 64bd ab00 8cbd 8759 a7be 8966 16bf
00000190: 1215 b8be 5e5b e8be beca c3be 35f5 00bf
000001a0: 6593 1dbf 6002 5d3e 7540 40be 9f02 55bf
000001b0: f88e 2f3e 4052 c13d 3f14 dcbb 349e 10bc
000001c0: b960 cd3d 8b81 bcbd 7409 20be 412d 07be
000001d0: d5a7 8abe 3613 43be 3ab8 803d b096 0ebd
000001e0: 97bb 01bd 6c34 aabc dfcc e33d 4629 54be
000001f0: ff07 fbbd 0af8 483e 4c4e 863e d029 2e3e
00000200: b8ad e03e 68c3 213e 21e7 893e 8827 443e
00000210: 3552 1ebd 25e5 9f3d fa3d 2abd f436 4ebe
00000220: 028e 35bd a78a 863e 61ac 8dbe 555e 18bd
00000230: 4695 ab3c 8e24 4ebe 08fa aabd 8b9d 82be
00000240: f4ff b7be 1b22 8fbd 290b d93c 29ee 3e3c
00000250: 4e0c 7bbd 20b0 d5bd d0a4 f53d 629e 34bd
00000260: a9c8 73be 7af2 333f 320d d73e 436c 8d3e
00000270: 922c 85bd 05ae 2f3e 36d6 9b3e 5499 bfbe
00000280: c250 373d e5db 403e fa42 023f cb81 e83c
00000290: 25c0 12be 7b5e cf3d 7f83 083e e687 d0bc
000002a0: 3beb 54bd 859d ef3d f019 ed3d 2517 e43c
000002b0: 7697 1fbe e48b 13be a910 e7bd ec60 e23d
000002c0: 77af adbd 3f30 e73c c4a8 61bc 3dc6 d0bd
000002d0: 9b6a 983d 6d84 0e3e 9119 4e3d f013 3bbc
000002e0: de0a c5bb 3f36 0d3e e74a 11be c11b b4be
000002f0: 6051 09bd 14b7 713c a8d4 0c3d 3a94 9a3e
00000300: ebe1 a2bd c45e 03be d2d5 22be 3901 93be
00000310: 8cd4 823d 2c19 623d 2baf d9be 3d56 8b3d
00000320: 49f8 e63d 9e54 94bd 50a7 43be aac4 61bd
00000330: 61cc 62bd 443c 94be 3df3 69be ef7e a6be
00000340: c2f3 cbbc 82fd cdbd 6736 2abd 99d3 b6bd
00000350: 1841 ca3c 46f6 773e 2c2b b1bb 36e4 853d
00000360: c507 c1bd fd93 233c bfc4 9f3c 9802 093e
00000370: c75b f3bc 7f17 5ebd a37e 903d b4fd 353e
00000380: 09af eabd e785 62be 00df 3abe 6d0d 61be
00000390: 5960 023e 6a0d 643d ed9b 71bd bae2 153d
000003a0: 1b44 d43d 101c febd 22d4 f43d 10df abbd
000003b0: 30b3 643e 1309 b83d 9291 3d3e 95b2 77bd
000003c0: a5ec b4ba 304b 2e3e a154 783e d51f 9abd
000003d0: 79b6 ecbd 2338 b6be cd83 cc3d 63f6 4fbd
000003e0: f5a1 b2bd 9a78 003d 4d75 dcbb d9ff 35be
000003f0: 8206 2ebe 1204 893e 8eb8 213e ab55 44be

conv3.conv2d.bias f4 [64]
-0.103493094 0.17689477 0.05038396 0.08830855 0.057637434 -0.17947853 -0.13885984 0.012267765
-0.15875323 -0.00437085 -0.06708463 -0.030581094 -0.01353699 0.11736136 -0.14304194 -0.12853658
0.31823495 -0.06795645 -0.003176161 -0.19030382 -0.14023754 -0.06548643 0.06847541 0.32461214
-0.037014302 0.011934473 -0.14388844 0.3583796 -0.060784467 0.31404418 0.3207144 0.000469004
-0.021402618 0.31575662 0.06979745 -0.021699263 0.11476269 0.007539213 0.2042143 -0.3482569
-0.31023866 0.0021944349 -0.22069328 0.37812445 -0.088691965 0.27191997 -0.36915335 -0.0064495383
-0.072942115 -0.25821266 0.26307786 -0.003706075 0.06381188 -0.1150606 0.06276376 -0.16408628
-0.21332286 0.11335362 0.083066195 0.12725367 0.0009930201 0.21216741 0.0461491 -0.01534462
00000000: 30f4 d3bd e723 353e 695f 4e3d 1ddb b43d
00000010: 3b15 6c3d 38c9 37be 4631 0ebe bcfe 483c
00000020: 3590 22be 5939 8fbb ab63 89bd 3485 fabc
00000030: 40ca 5dbc 275b f03d 9679 12be 189f 03be
00000040: b1ef a23e c02c 8bbd 2427 50bb 01df 42be
00000050: 6e9a 0fbe c01d 86bd d63c 8c3d 9033 a63e
00000060: 4f9c 17bd cf88 433c 7e57 13be 887d b73e
00000070: 22f9 78bd 66ca a03e ae34 a43e a7e4 f539
00000080: 8b54 afbc daaa a13e f7f1 8e3d a7c2 b1bc
00000090: b408 eb3d 810b f73b 8e1d 513e ba4e b2be
000000a0: 9ad7 9ebe 82d0 0f3b 6bfd 61be 8799 c13e
000000b0: 22a4 b5bd 1839 8b3e ab01 bdbe a656 d3bb
000000c0: ad62 95bd 7334 84be 24b2 863e 9fe1 72bb
000000d0: ceaf 823d e4a4 ebbd 498a 803d 3c06 28be
000000e0: 4f71 5abe f125 e83d 9c1e aa3d c94e 023e
000000f0: 3a28 823a 6a42 593e d706 3d3d 0068 7bbc

in3.weight f4 [64]
0.5322048 0.3363581 0.21063013 0.336447 0.30326754 0.35029405 0.3933189 0.2029968
0.49954653 0.27579176 0.45940238 0.6341301 0.42838615 0.47861388 0.3355929 0.44340175
0.70098346 0.59423673 0.31661257 0.28833622 0.20355183 0.4380646 0.53963363 0.69992375
0.42003372 0.26208758 0.39413533 0.3794695 0.27802783 0.27384254 0.3016683 0.48679057
0.4837224 0.20822145 0.37411085 0.7700268 0.30313724 0.39679977 0.4435085 0.3488606
0.471005 0.6958199 0.76335204 0.3743247 0.37179756 0.45637825 0.41587886 0.24047208
0.61065406 0.25672567 0.66074306 0.18315355 0.5692534 0.16423418 0.574343 0.2778592
0.748517 0.25749755 0.2229017 0.33616742 0.2343255 0.55379766 0.40430114 0.5068333
00000000: 933e 083f 2137 ac3e 6daf 573e c842 ac3e
00000010: e245 9b3e be59 b33e 1861 c93e 65de 4f3e
00000020: 90c4 ff3e 9434 8d3e ca36 eb3e 5a56 223f
00000030: 6e55 db3e e10c f53e d5d2 ab3e 8e05 e33e
00000040: a773 333f e61f 183f 0b1b a23e cea0 933e
00000050: e46f 503e 014a e03e 6e25 0a3f 342e 333f
00000060: a90e d73e 5830 863e 1bcc c93e d449 c23e
00000070: aa59 8e3e 1735 8c3e 4474 9a3e 9d3c f93e
00000080: 76aa f73e 0138 553e 758b bf3e 7a20 453f
00000090: ce34 9b3e 5729 cb3e 8c13 e33e db9d b23e
000000a0: 9127 f13e 4121 323f 0a6b 433f 7da7 bf3e
000000b0: 405c be3e 69aa e93e 13ee d43e 503e 763e
000000c0: d353 1c3f 8c71 833e 7526 293f 9b8c 3b3e
000000d0: 97ba 113f 012d 283e 2508 133f 9043 8e3e
000000e0: cf9e 3f3f b8d6 833e 5840 643e 231e ac3e
000000f0: 06f3 6f3e afc5 0d3f 8f00 cf3e d4bf 013f

in3.bias f4 [64]
-0.8841012 0.09027319 -0.054926556 -0.18157461 -0.0989287 -0.30404365 -0.06804802 0.015737167
-0.2504402 -0.13121307 -0.3304678 -0.14115971 -0.20469706 -0.3483282 -0.2547901 -0.8926677
-0.32894936 -0.41519225 -0.6433858 -0.07677818 -0.094503224 -0.21049869 -0.16778444 -0.33939156
-0.20528936 -0.16791992 -0.09471334 -1.4279275 -0.0738995 -0.18916942 -0.2812688 -0.3607628
-1.1871899 0.0604792 -0.08345411 -0.56175673 -0.08868478 -0.20624241 -0.306061 -0.15107216
-2.2913089 -1.6922972 -0.13944975 -0.16484584 -0.23727363 -0.0761226 -0.00056765135 -0.2049036
-0.39140838 -0.010148379 -0.3310415 -0.027863186 -0.4578782 -0.06245904 -0.26032317 -0.10333282
-3.0039444 0.116914526 -0.025718037 0.054018002 0.009746819 -1.2982515 -1.1299908 -0.24371213
00000000: 7554 62bf 26e1 b83d abfa 60bd b2ee 39be
00000010: 219b cabd 9cab 9bbe c35c 8bbd 3beb 803c
00000020: b339 80be b85c 06be 1333 a9be 2c8c 10be
00000030: 1b9c 51be 1358 b2be d973 82be df85 64bf
00000040: 0d6c a8be 1494 d4be efb4 24bf e13d 9dbd
00000050: e88a c1bd f88c 57be afcf 2bbe bbc4 adbe
00000060: 6037 52be 33f3 2bbe 11f9 c1bd 54c6 b6bf
00000070: 9f58 97bd a1b5 41be 7702 90be e7b5 b8be
00000080: d7f5 97bf 0ab9 773d fde9 aabd 4acf 0fbf
00000090: 5ea0 b5bd 3631 53be 07b4 9cbe a9b2 1abe
000000a0: cea4 12c0 329d d8bf eacb 0ebe 59cd 28be
000000b0: dcf7 72be 2ae6 9bbd 70ce 14ba 40d2 51be
000000c0: ae66 c8be 6345 26bc 467e a9be 5641 e4bc
000000d0: 036f eabe 0dd5 7fbd 1449 85be 28a0 d3bd
000000e0: a040 40c0 e270 ef3d a2ae d2bc fb41 5d3d
000000f0: 1fb1 1f3c 1b2d a6bf 8aa3 90bf ac8f 79be

resblock.conv1.conv2d.weight f4 [64, 64, 3, 3]
-0.08795385 0.009036612 -0.06018622 0.07988194 0.079768874 -0.054016452 -0.10895601 0.030484075
-0.04443513 0.05496659 0.010777107 -0.13022986 0.0707251 0.04727676 0.069812864 0.08823574
0.07172971 0.12809753 0.27107322 0.2602865 0.17941155 0.048637975 0.06748502 0.09409923
-0.27425486 -0.17894924 -0.08882372 0.15974027 -0.1232274 -0.27640036 0.203533 -0.11473895
0.034642626 -0.119648784 -0.2255297 0.1849749 -0.077666566 -0.09798657 0.0761797 -0.09400921
-0.094317526 -0.06504841 0.107050955 0.0456539 0.15162393 -0.033672642 0.01177802 -0.20009838
0.17183326 0.19760284 0.04023164 0.11091176 0.035592794 0.17502376 0.123803735 0.04288809
0.0798933 0.0023680392 0.00059955096 -0.005318366 -0.2448464 -0.22473209 -0.2192974 -0.114927195
-0.11178878 -0.07496213 -0.18931425 -0.053703267 -0.015115356 0.18798545 0.15173253 -0.026506998
0.34769866 0.1050806 0.39131886 -0.18638307 0.05778252 -0.05151788 -0.5859034 -0.35203424
-0.62762576 0.12909368 0.1132035 0.04865509 0.070016176 0.04080192 0.045440167 -0.08592834
0.011014255 -0.06649678 -0.18284003 -0.060081344 0.13339971 -0.093341336 -0.077241786 -0.106871955
0.3018633 0.1428257 0.19329122 0.18193202 -0.052440196 0.36924595 0.11914074 0.0046223137
0.074117094 -0.10019735 0.09312355 -0.36114416 0.09805135 0.012269685 -0.033493035 -0.11785959
0.012951053 -0.0119846305 -0.13871178 0.0033603527 0.06574289 -0.26617745 -0.17848258 -0.4666169
0.1143583 0.008773096 -0.026244149 0.34264913 0.04007258 0.57672995 0.02718122 0.11910811
0.27720407 -0.056844622 0.060866356 0.06766721 -0.28397533 -0.30112907 -0.33159378 -0.04491472
-0.007787773 0.114732794 0.035362992 0.03631387 0.01895982 0.017245578 -0.07228894 -0.01693154
-0.030126661 0.07400676 0.07571829 -0.022775086 0.020504553 0.020339862 0.0059133475 -0.04360783
-0.12868007 -0.0747204 -0.039675225 0.12058441 -0.1842972 0.038197212 -0.19656433 0.21743289
-0.16370632 -0.07615118 0.15429737 0.16237265 0.24058354 -0.14367887 0.08951637 0.026879186
-0.34127426 0.0102656055 -0.18601684 -0.37986097 -0.053638265 -0.15039001 -0.1772468 -0.16965275
-0.17610824 0.50052 0.17883727 0.2802413 0.19897965 0.061060734 -0.16534418 -0.10710584
-0.024586981 0.084214605 -0.2226293 0.033750374 -0.062478703 -0.11722012 -0.18056515 -0.20685703
0.3058404 0.17597066 0.13175026 0.1109515 0.023506759 0.09921409 0.27616206 -0.037568063
0.2931052 -0.005600033 -0.053552456 0.24870446 -0.48564777 -0.13742125 -0.2723017 -0.08984343
-0.074815676 -0.04865776 0.040863972 0.0011422375 0.017689109 -0.08304053 -0.097003445 -0.20582867
-0.031452056 -0.026946133 -0.10847424 -0.13413006 -0.15130758 -0.17797035 0.19922966 0.05394897
0.093747936 -0.3373681 -0.19872667 -0.27087274 0.19458641 0.23103271 0.04719354 0.03138789
0.08631768 0.27125776 0.2986158 0.16594905 0.43391702 0.027687674 -0.053303614 -0.2537933
-0.18196172 -0.07162908 -0.29329646 -0.30259043 -0.34186235 -0.26766595 -0.12138823 -0.09541135
-0.10506971 -0.038268916 -0.29786906 -0.21640165 -0.0078045377 0.076803796 0.13643141 -0.054696478
00000000: 2621 b4bd 4c0e 143c d385 76bd 2499 a33d
00000010: dd5d a33d 5b40 5dbd 5424 dfbd bdb9 f93c
00000020: 9c01 36bd a624 613d 7792 303c fa5a 05be
00000030: 52d8 903d 47a5 413d 0cfa 8e3d f1b4 b43d
00000040: 07e7 923d 002c 033e 1cca 8a3e 4644 853e
00000050: a9b7 373e 9d38 473d 9635 8a3d 19b7 c03d
00000060: 226b 8cbe 783e 37be 36e9 b5bd f492 233e
00000070: a65e fcbd 5984 8dbe f46a 503e 41fc eabd
00000080: 6de5 0d3d 6c0a f5bd 42f1 66be 0f6a 3d3e
00000090: a60f 9fbd 2fad c8bd 1a04 9c3d e787 c0bd
000000a0: 8c29 c1bd 1a38 85bd 883d db3d 95ff 3a3d
000000b0: 4e43 1b3e 53ec 09bd 99f8 403c 97e6 4cbe
000000c0: 0ff5 2f3e 6658 4a3e efc9 243d b425 e33d
000000d0: c0c9 113d 6e39 333e d08c fd3d 6cab 2f3d
000000e0: 199f a33d 1b31 1b3b 2f2b 1d3a b045 aebb
000000f0: 04b9 7abe 2b20 66be 7f8f 60be f35e ebbd
00000100: 84f1 e4bd bf85 99bd 98db 41be f5f7 5bbd
00000110: 66a6 77bc 427f 403e c65f 1b3e 3425 d9bc
00000120: 8f05 b23e 7f34 d73d f25a c83e 34db 3ebe
00000130: 5dad 6c3d 6a04 53bd c4fd 15bf d53d b4be
00000140: 15ac 20bf 2231 043e 3dd7 e73d 8f4a 473d
00000150: a464 8f3d ea1f 273d 781f 3a3d 33fb afbd
00000160: 2275 343c 772f 88bd 6b3a 3bbe db17 76bd
00000170: ef99 083e be29 bfbd f130 9ebd afdf dabd
00000180: d48d 9a3e e640 123e 22ee 453e 634c 3a3e
00000190: 88cb 56bd ce0d bd3e 0f00 f43d c776 973b
000001a0: b4ca 973d 4534 cdbd 8fb7 be3d e3e7 b8be
000001b0: 25cf c83d ca06 493c fe2f 09bd 5e60 f1bd
000001c0: a730 543c 2f5b 44bc 760a 0ebe 5d39 5c3b
000001d0: 35a4 863d 6948 88be 23c4 36be 69e8 eebe
000001e0: af34 ea3d 08bd 0f3c f8fd d6bc b56f af3e
000001f0: 2523 243d 93a4 133f 26ab de3c f4ee f33d
00000200: b1ed 8d3e e8d5 68bd 004f 793d 1b95 8a3d
00000210: 3765 91be 972d 9abe a9c6 a9be 7ff8 37bd
00000220: 9330 ffbb 07f9 ea3d c9d8 103d dabd 143d
00000230: a051 9b3c 9946 8d3c 390c 94bd 03b4 8abc
00000240: 30cc f6bc db90 973d 3112 9b3d d192 babc
00000250: 2af9 a73c c89f a63c c1c4 c13b 209e 32bd
00000260: b5c4 03be 0207 99bd 7d82 22bd f6f4 f63d
00000270: 68b8 3cbe ae74 1c3d 2948 49be baa6 5e3e
00000280: a1a2 27be 26f5 9bbd 2100 1e3e 0445 263e
00000290: 885b 763e 8e20 13be 5c54 b73d bd31 dc3c
000002a0: 80bb aebe 1231 283c 337b 3ebe 237d c2be
000002b0: ccb3 5bbd d7ff 19be 2f80 35be 73b9 2dbe
000002c0: b855 34be 1422 003f 1e21 373e ca7b 8f3e
000002d0: 52c1 4b3e d21a 7a3d fc4f 29be 4f5a dbbd
000002e0: a36a c9bc b578 ac3d eff8 63be d53d 0a3d
000002f0: abe9 7fbd 1a11 f0bd 12e6 38be 54d2 53be
00000300: 1d97 9c3e a731 343e 8ae9 063e 8a3a e33d
00000310: 3f91 c03c c230 cb3d 1d65 8d3e f8e0 19bd
00000320: e311 963e 7b80 b7bb d259 5bbd 62ac 7e3e
00000330: d3a6 f8be 28b8 0cbe 216b 8bbe d5ff b7bd
00000340: f638 99bd 5c4d 47bd fb60 273d 21b7 953a
00000350: c0e8 903c 2711 aabd bea9 c6bd c0c4 52be
00000360: dfd3 00bd 23be dcbc be27 debd 6459 09be
00000370: 60f0 1abe dc3d 36be dc02 4c3e 98f9 5c3d
00000380: ebfe bf3d 83bb acbe 017f 4bbe d5af 8abe
00000390: a941 473e d793 6c3e 034e 413d 9790 003d
000003a0: 53c7 b03d 4ce2 8a3e 2ce4 983e 8cee 293e
000003b0: 5f2a de3e 43d1 e23c e454 5abd 32f1 81be
000003c0: 2c54 3abe 44b2 92bd f42a 96be 22ed 9abe
000003d0: 9508 afbe 830b 89be 649a f8bd 0767 c3bd
000003e0: ca2e d7bd debf 1cbd 4b82 98be 6598 5dbe
000003f0: 35bd ffbb 4f4b 9d3d adb4 0b3e 6a09 60bd

resblock.conv1.conv2d.bias f4 [64]
0.04251501 0.035561766 0.0063958922 0.14597563 -0.0635807 -0.22969078 0.09882335 0.013476759
-0.045641594 -0.13568446 0.11824979 0.12298776 0.04120611 0.09258463 -0.21823478 0.09668907
0.13310595 0.09271943 -0.0077346168 0.10346917 0.26090193 -0.25993755 0.3525753 -0.0024974176
-0.05072083 0.052394383 0.20031577 -0.017044757 -0.06373169 0.17920633 -0.07283218 -0.27808443
-0.11610586 0.29157397 -0.2990595 0.20491567 -0.113123104 0.07722261 0.10564126 0.008836014
-0.23191193 0.2318838 -0.14162992 -0.235037 0.16869271 0.09642184 0.21342702 -0.09232227
-0.24946988 0.1079154 0.064985976 0.3197993 -0.27238998 -0.17202969 0.22692928 0.34077626
0.17738143 -0.005762026 -0.5918682 0.12422381 0.083605 0.21594413 0.022145461 0.16805646
00000000: 3824 2e3d 37a9 113d a294 d13b a37a 153e
00000010: 9936 82bd 0f34 6bbe e663 ca3d a0cd 5c3c
00000020: aef2 3abd def0 0abe f22c f23d 02e1 fb3d
00000030: bdc7 283d 039d bd3d f078 5fbe eb04 c63d
00000040: ed4c 083e afe3 bd3d ab72 fdbb a5e7 d33d
00000050: f094 853e 8916 85be c084 b43e b7ab 23bb
00000060: a5c0 4fbd 7e9b 563d 941f 4d3e 72a1 8bbc
00000070: c385 82bd dd81 373e 0a29 95bd 1561 8ebe
00000080: e9c8 edbd 2f49 953e 541e 99be 6ad5 513e
00000090: 16ad e7bd e326 9e3d 725a d83d eec4 103c
000000a0: 527a 6dbe f272 6d3e 6f07 11be 8aad 70be
000000b0: c8bd 2c3e d078 c53d 9d8c 5a3e 7513 bdbd
000000c0: 0875 7fbe c002 dd3d 5e17 853d bcbc a33e
000000d0: b376 8bbe 8d28 30be 2660 683e 3a7a ae3e
000000e0: 7aa3 353e 61cf bcbb ad84 17bf 0e69 fe3d
000000f0: 1939 ab3d 7520 5d3e 666a b53c fe16 2c3e

resblock.in1.weight f4 [64]
0.8820454 1.0239844 0.8144689 0.684426 0.5708766 0.82733357 0.7476783 0.9285227
0.63773006 0.63749075 0.80446154 0.80183846 0.70326036 0.81023943 0.63899297 0.94422644
0.4267237 0.87246805 1.0495881 0.61192137 0.73645705 1.285989 0.8312252 0.7960623
0.52467114 0.9032106 0.4723585 0.9644377 0.8005209 1.0893463 0.6328138 0.70129347
0.6546671 1.1996965 0.5214366 0.74724746 0.8523408 0.6459413 0.7440856 0.80565447
1.3354261 0.85632616 0.73161167 0.97137797 0.88000023 0.5608678 0.7319054 0.63473254
0.6304599 1.1485889 0.9811062 0.5678039 0.58449185 1.0808417 0.8738043 1.1073086
0.9472254 1.0487611 0.9618816 0.6399201 0.9442878 0.73977596 1.0058982 0.5377417
00000000: bacd 613f ec11 833f 0981 503f 8b36 2f3f
00000010: f824 123f 22cc 533f d867 3f3f aab3 6d3f
00000020: 4742 233f 9832 233f 31f1 4d3f 4945 4d3f
00000030: df08 343f da6b 4f3f 0b95 233f d3b8 713f
00000040: 877b da3e 115a 5f3f e758 863f e1a6 1c3f
00000050: 7388 3c3f 4a9b a43f 2dcb 543f bdca 4b3f
00000060: d950 063f cf38 673f f9d8 f13e 64e5 763f
00000070: f0ee 4c3f b36f 8b3f 1600 223f f887 333f
00000080: 4398 273f a88f 993f de7c 053f 9c4b 3f3f
00000090: 0233 5a3f 695c 253f 657c 3e3f 5f3f 4e3f
000000a0: 3eef aa3f 3138 5b3f e74a 3b3f 3aac 783f
000000b0: b247 613f 0895 0f3f 275e 3b3f d57d 223f
000000c0: d265 213f f604 933f c729 7b3f 995b 113f
000000d0: 42a1 153f 0559 8a3f a3b1 5f3f 4abc 8d3f
000000e0: 5d7d 723f ce3d 863f df3d 763f ced1 233f
000000f0: d8bc 713f f561 3d3f 46c1 803f 71a9 093f

resblock.in1.bias f4 [64]
-0.35392913 -0.8606528 -0.3879927 0.109457 -0.12211037 -0.29968464 -0.32516152 -0.006232512
0.23153612 -0.26923156 -0.9538994 -0.06560965 -0.11463302 -0.5333378 -0.07247205 -1.3429992
0.29599836 -0.7048023 -1.992451 0.11776795 0.03794676 -1.2277181 -0.333549 0.1703184
0.36720625 -0.6996789 0.1633252 -0.79552567 -0.27761424 -1.5850786 -0.28098977 -0.07115657
-0.14773485 -0.105580635 0.1957158 -0.027922615 -0.4305888 -0.5080198 -0.2078524 -0.70481706
-1.7789577 -0.88795555 -0.3332091 -0.7850362 -0.51890844 0.07197097 -0.030144464 0.06211283
-0.2254483 -0.7719283 -2.1227117 0.0050926167 0.015663614 -0.5416468 -0.1333022 -0.19702035
-0.6884226 -1.2202877 -0.48826885 0.12210598 -0.25165594 -0.23680225 -0.68501633 0.018756108
00000000: 3336 b5be be53 5cbf fba6 c6be fe2a e03d
00000010: 0015 fabd 4470 99be 927b a6be 1a3a ccbb
00000020: ce17 6d3e b8d8 89be c032 74bf 5a5e 86bd
00000030: b7c4 eabd d388 08bf 3a6c 94bd 66e7 abbf
00000040: 198d 973e ec6d 34bf a208 ffbf 5330 f13d
00000050: 106e 1b3d de25 9dbf efc6 aabe f267 2e3e
00000060: 7502 bc3e 281e 33bf b93e 273e 92a7 4bbf
00000070: 7423 8ebe dbe3 cabf e4dd 8fbe 89ba 91bd
00000080: ce47 17be a93a d8bd b969 483e f8bd e4bc
00000090: 2376 dcbe 960d 02bf 42d7 54be e46e 34bf
000000a0: e3b4 e3bf 0e51 63bf 629a aabe 22f8 48bf
000000b0: 2fd7 04bf 8465 933d 86f1 f6bc 066a 7e3d
000000c0: ebdb 66be 189d 45bf 82da 07c0 f7df a63b
000000d0: fb50 803c 5da9 0abf 5f80 08be b4bf 49be
000000e0: 773c 30bf 6332 9cbf 60fe f9be b312 fa3d
000000f0: 0cd9 80be 4a7c 72be 3b5d 2fbf 69a6 993c

resblock.conv2.conv2d.weight f4 [64, 64, 3, 3]
0.12664801 0.0729991 0.11150104 -0.28725767 -0.046395432 -0.045254275 -0.4605166 -0.29822585
-0.6027763 -0.4023233 0.15322547 -0.09761686 0.011041496 -0.011832705 -0.111191496 -0.3056247
0.17613374 0.12900615 0.055553563 -0.057215482 -0.08532175 -0.09538869 0.014371078 -0.5649641
-0.118445225 -0.11941208 -0.23640478 -0.32622328 -0.18111342 -0.20642473 -0.14257835 0.16674702
0.058911096 -0.14989641 -0.20154105 -0.060166147 -0.021119865 0.1082268 -0.028616078 -0.025381682
0.10932561 0.26820526 0.13869016 0.13695535 0.06046789 -0.23772775 -0.044297773 -0.27763444
0.21926187 0.14247064 0.13319746 0.033231363 0.048527006 0.08066203 0.19163285 -0.12324914
-0.234821 0.029189888 0.16885698 0.3566284 -0.1409239 0.18420309 0.064008735 -0.27448854
-0.06434877 -0.080889344 0.1297463 0.292956 -0.08114827 -0.30991024 -0.022237753 0.061102197
-0.0501709 0.08306321 -0.012469767 0.04176829 -0.15756556 -0.21337853 -0.07062717 -0.17153056
-0.11178756 0.10882346 -0.085612305 0.10943016 0.029576039 -0.08723096 0.018211506 0.07850814
-0.0015656649 -0.007913297 -0.077361785 -0.089820705 -0.11887968 -0.15165576 0.20043263 -0.043027967
0.20137456 0.1432948 0.122588985 0.11611036 -0.06184731 0.119633876 0.13439892 0.011856022
-0.101082236 0.04226562 0.06066164 0.0675019 -0.09250157 -0.21042846 -0.11556142 0.1001394
0.0040202825 0.09642944 0.12363233 -0.06680211 -0.253298 -0.23059016 -0.09601569 -0.18859047
-0.026691895 0.2680441 0.2064207 -0.04869204 0.06655169 0.23281802 -0.07837229 0.0729088
0.0087260455 0.06661399 0.012136796 0.106765226 -0.07774378 -0.0028533973 -0.13256335 -0.27633554
-0.0964285 -0.50657606 -0.19150674 0.002860578 0.06735555 -0.06374189 0.005467902 -0.33817005
0.047711108 0.010113061 0.23162809 -0.25197008 0.032801185 0.03691314 0.21724463 -0.03550388
-0.18641014 0.24186042 0.07827497 -0.06681488 0.19201449 0.13605249 0.15300462 0.0582383
0.14352553 0.14479958 -0.21297394 -0.29480577 0.57873046 -0.045512058 -0.265646 -0.030459577
-0.18219215 -0.07981789 -0.16939312 -0.15633455 -0.11382304 -0.0032637732 -0.09407738 -0.038623523
-0.20898563 0.059879836 0.12399023 -0.036861714 -0.07514464 -0.21357165 -0.105373174 0.11606993
0.035240296 0.054949746 0.35742268 0.03955574 -0.17447758 -0.30995563 -0.22425719 -0.37418664
-0.27839616 -0.093506575 -0.0885512 -0.31118885 0.07445883 -0.21405007 0.11512802 0.12162854
0.16184452 -0.19515365 0.04756921 -0.00396787 -0.24082942 -0.11115692 -0.03999105 0.06497024
0.09206822 0.11992088 -0.15391913 -0.07946303 0.20859765 0.04113621 0.0050968914 0.0804858
-0.13629472 0.034501538 0.1922878 0.056471817 0.007280601 0.08316818 0.16689093 0.0544336
0.0050414833 -0.14859158 -0.16452822 -0.2607805 -0.045729186 0.0040002833 -0.14641495 0.01101089
0.25529066 0.0030276834 0.13983992 0.027823959 0.0061288197 0.08149517 0.022548655 -0.03485009
0.35906878 -0.07982591 -0.22428973 -0.39433864 -0.14407557 0.026584836 -0.44182378 -0.07803563
-0.010026543 -0.14326404 -0.04203032 -0.16020401 0.05445171 -0.17158948 -0.09613856 0.05089541
00000000: 04b0 013e 8d80 953d a85a e43d 7013 93be
00000010: 2309 3ebd 8c5c 39bd d5c8 ebbe 0fb1 98be
00000020: 8c4f 1abf 52fd cdbe 23e7 1c3e 59eb c7bd
00000030: 64e7 343c f6dd 41bc 5eb8 e3bd d77a 9cbe
00000040: 675c 343e 301a 043e 228c 633d c85a 6abd
00000050: 2bbd aebd 255b c3bd ac74 6b3c 7da1 10bf
00000060: 6993 f2bd 528e f4bd 1814 72be bd06 a7be
00000070: cc75 39be 0161 53be 0f00 12be bbbf 2a3e
00000080: c34c 713d 727e 19be c760 4ebe c770 76bd
00000090: 9103 adbc 03a6 dd3d 446c eabc 3fed cfbc
000000a0: 1be6 df3d 3352 893e cb04 0e3e 063e 0c3e
000000b0: 2ead 773d e76e 73be 9571 35bd 1a26 8ebe
000000c0: 2f86 603e d3e3 113e ea64 083e 9c1d 083d
000000d0: 41c4 463d 2232 a53d 673b 443e 0c6a fcbd
000000e0: eb74 70be a21f ef3c d8e8 2c3e ff97 b63e
000000f0: 5b4e 10be bc9f 3c3e 0317 833d c389 8cbe
00000100: 4ac9 83bd 50a9 a5bd 37dc 043e 54fe 953e
00000110: 1031 a6bd 8eac 9ebe f32b b6bc 4c46 7a3d
00000120: 0080 4dbd 0b1d aa3d fe4d 4cbc 3a15 2b3d
00000130: de58 21be e77f 5abe faa4 90bd b5a5 2fbe
00000140: e0f0 e4bd d6de de3d 8155 afbd eb1c e03d
00000150: 7349 f23c 25a6 b2bd 4c30 953c e0c8 a03d
00000160: ff36 cdba c6a6 01bc db6f 9ebd ebf3 b7bd
00000170: 3177 f3bd a64b 1bbe 363e 4d3e 183e 30bd
00000180: 2235 4e3e dfbb 123e ef0f fb3d 45cb ed3d
00000190: 9b53 7dbd 9b02 f53d df9f 093e c33f 423c
000001a0: 3404 cfbd b71e 2d3d 5778 783d 703e 8a3d
000001b0: 7771 bdbd 8f7a 57be 77ab ecbd e315 cd3d
000001c0: 93bc 833b cc7c c53d f232 fd3d 8bcf 88bd
000001d0: 47b0 81be d41f 6cbe e0a3 c4bd dc1d 41be
000001e0: f6a8 dabc 143d 893e f35f 533e 4e71 47bd
000001f0: 414c 883d d967 6e3e a781 a0bd 3551 953d
00000200: b0f7 0e3c ea6c 883d 69d9 463c baa7 da3d
00000210: 2238 9fbd 1000 3bbb b0be 07be da7b 8dbe
00000220: 4e7c c5bd f8ae 01bf 581a 44be 8978 3b3b
00000230: b5f1 893d 1c8b 82bd 162c b33b a024 adbe
00000240: b96c 433d 41b1 253c ea2f 6d3e 3902 81be
00000250: 895a 063d 3c32 173d 6075 5e3e 846c 11bd
00000260: 4de2 3ebe 42aa 773e a14e a03d 3dd6 88bd
00000270: 729f 443e 5851 0b3e 3ead 1c3e 498b 6e3d
00000280: 5bf8 123e 5746 143e d715 5abe c8f0 96be
00000290: ae27 143f da6a 3abd c102 88be 5d86 f9bc
000002a0: 9490 3abe 9077 a3bd 6475 2dbe 2a16 20be
000002b0: 0e1c e9bd 07e5 55bb a4ab c0bd b333 1ebd
000002c0: 5400 56be 8f44 753d 97ee fd3d 4ffc 16bd
000002d0: 6fe5 99bd 87b2 5abe e4cd d7bd 12b6 ed3d
000002e0: 2158 103d fc12 613d 1b00 b73e 3305 223d
000002f0: 40aa 32be 81b2 9ebe ada3 65be 6495 bfbe
00000300: f189 8ebe 6080 bfbd 555a b5bd 2554 9fbe
00000310: df7d 983d f12f 5bbe 3dc8 eb3d 6218 f93d
00000320: 92ba 253e 5cd6 47be efd7 423d e804 82bb
00000330: fd9b 76be 3da6 e3bd a8cd 23bd 1e0f 853d
00000340: 438e bc3d 1499 f53d fa9c 1dbe 83bd a2bd
00000350: 9f9a 553e 717e 283d d303 a73b bdd5 a43d
00000360: d890 0bbe 7c51 0d3d 18e7 443e fe4e 673d
00000370: 1c92 ee3b 1454 aa3d 75e5 2a3e c4f5 5e3d
00000380: 0733 a53b 6428 18be 167a 28be 0685 85be
00000390: 874e 3bbd cf14 833b cded 15be 0567 343c
000003a0: 75b5 823e 196c 463b 3232 0f3e 12ef e33c
000003b0: 44d4 c83b f1e6 a63d f5b7 b83c f8be 0ebd
000003c0: ddd7 b73e c47b a3bd 35ac 65be c1e6 c9be
000003d0: 8c88 13be 71c8 d93c ba36 e2be 25d1 9fbd
000003e0: 5f46 24bc cfb3 12be fc27 2cbd 850c 24be
000003f0: c208 5f3d 27b5 2fbe 4be4 c4bd b577 503d

resblock.conv2.conv2d.bias f4 [64]
-0.110953026 0.32081637 0.2708761 0.16296668 -0.24380521 0.073141515 0.13331144 0.26287216
-0.0007495057 -0.27369514 -0.05067566 0.073260665 -0.5115485 0.063120656 0.00266153 0.06382269
-0.2877204 -0.0076032868 -0.049987223 0.104623884 0.42216238 0.0932242 0.33323914 0.466449
-0.26886207 0.14490902 0.27830967 0.2642766 0.010488041 0.11405234 -0.15989314 0.3229369
-0.33378008 0.21192734 -0.68228644 -0.035688855 0.39134908 -0.0347755 0.07713013 -0.026119621
-0.048565812 -0.18186973 -0.081047006 0.047667693 -0.060805157 -0.0524726 0.28354707 0.017510984
0.16979335 0.30111203 -0.1735055 0.15545866 0.18733048 -0.09780506 0.0495552 0.07937331
0.1419065 -0.08673205 0.14292961 0.09590301 -0.15682124 -0.05719496 0.18625829 -0.16811825
00000000: 573b e3bd 0b42 a43e 46b0 8a3e bde0 263e
00000010: 13a8 79be 38cb 953d cb82 083e 2e97 863e
00000020: 7a7a 44ba c521 8cbe 4891 4fbd b009 963d
00000030: d8f4 02bf 6745 813d 106d 2e3b 78b5 823d
00000040: 1750 93be fe24 f9bb 67bf 4cbd 0c45 d63d
00000050: ab25 d83e 54ec be3d 529e aa3e 67d2 ee3e
00000060: 4aa8 89be 0863 143e 9b7e 8e3e 434f 873e
00000070: 08d6 2b3c 4694 e93d 07bb 23be fc57 a53e
00000080: 39e5 aabe 7b03 593e 53aa 2ebf 7a2e 12bd
00000090: e85e c83e c170 0ebd 67f6 9d3d d1f8 d5bc
000000a0: f2ec 46bd 0f3c 3abe f9fb a5bd 333f 433d
000000b0: d40e 79bd 82ed 56bd 152d 913e 3273 8f3c
000000c0: 4fde 2d3e 5b2b 9a3e 6dab 31be 8e30 1f3e
000000d0: 90d3 3f3e 054e c8bd 65fa 4a3d 798e a23d
000000e0: f04f 113e 93a0 b1bd 245c 123e cc68 c43d
000000f0: bf95 20be 4345 6abd 7eba 3e3e 3127 2cbe

resblock.in2.weight f4 [64]
1.2237535 1.2185057 1.1041471 1.1841402 1.3697488 1.2349619 0.937889 1.0617423
1.0768735 1.021396 1.0832314 1.2776989 1.1461121 1.1662936 1.1433083 1.1303898
1.2321332 1.2730936 1.1297929 1.0789819 1.2892417 1.3641803 1.1862631 1.1896874
0.9973399 1.5397996 1.340418 1.517165 1.065357 1.1912448 1.0739981 1.148956
1.1947662 1.0633497 0.93513423 1.1281416 1.4456496 1.2552052 0.9477166 1.045673
1.2704465 1.3852259 1.1984874 1.1205258 1.0709159 1.1937364 1.0923207 1.2115842
1.2182909 1.1158093 1.3291388 1.5697724 1.2069465 1.1146568 1.6079134 1.1030885
1.2427577 0.94304633 0.9094852 0.984165 1.4064091 1.3494604 1.2377177 1.0359414
00000000: f4a3 9c3f fff7 9b3f b154 8d3f e891 973f
00000010: ee53 af3f 3b13 9e3f 7e19 703f 2ce7 873f
00000020: fed6 893f 1bbd 823f 54a7 8a3f a38b a33f
00000030: cdb3 923f 1c49 953f ed57 923f 9db0 903f
00000040: 8ab6 9d3f bbf4 a23f 0e9d 903f 141c 8a3f
00000050: df05 a53f 769d ae3f 78d7 973f ad47 983f
00000060: ab51 7f3f 2718 c53f d192 ab3f 7632 c23f
00000070: 9e5d 883f b67a 983f c578 893f fd10 933f
00000080: 19ee 983f d81b 883f f564 6f3f f266 903f
00000090: 0c0b b93f 90aa a03f 8e9d 723f 9dd8 853f
000000a0: fe9d a23f 154f b13f 0968 993f 646d 8f3f
000000b0: c613 893f 5bcc 983f 2ad1 8b3f 3115 9b3f
000000c0: f5f0 9b3f d7d2 8e3f 3821 aa3f 4dee c83f
000000d0: 397d 9a3f 13ad 8e3f 1bd0 cd3f 0132 8d3f
000000e0: af12 9f3f 7c6b 713f 06d4 683f 3df2 7b3f
000000f0: 3705 b43f 1ebb ac3f 896d 9e3f ba99 843f

resblock.in2.bias f4 [64]
-0.35795426 -1.2643968 -0.002813661 0.10818385 -0.33420417 -1.1802735 0.2541339 -0.18920779
0.58401346 0.2155009 -0.23780568 -0.3333613 0.043074697 -0.20160496 -0.40455723 -0.6208865
-1.1400594 -0.6573073 -0.096354336 0.30792528 -0.032880817 -1.3473936 -0.8339158 0.038517263
-0.48885244 -0.34608236 -0.36254027 -1.7111256 -0.2795415 -0.7519675 -0.07590434 -0.010270066
-0.5540119 -0.5921548 -0.20779903 -0.17336988 -0.88274944 -1.1941291 -0.55050015 -0.43998674
0.25361308 -0.5327618 -0.02267375 -0.078104794 -0.3892482 -0.30848634 -0.6891468 -0.5400642
0.11655942 -0.16530086 -1.103563 0.59736633 -0.06292412 -0.25809464 -0.66723174 -0.37145033
0.10901004 -0.36588576 -0.10378921 0.114075 -0.8478362 0.14868781 0.028052913 0.14507547
00000000: c845 b7be c1d7 a1bf 6665 38bb 7f8f dd3d
00000010: cf1c abbe 3413 97bf d71d 823e b0bf 41be
00000020: e881 153f 45ac 5c3e 5583 73be 55ae aabe
00000030: 186f 303d 8871 4ebe 2022 cfbe 6bf2 1ebf
00000040: 77ed 91bf 4b45 28bf 6c55 c5bd 62a8 9d3e
00000050: 09ae 06bd 6577 acbf 827b 55bf 47c4 1d3d
00000060: de4a fabe b531 b1be e19e b9be 2a06 dbbf
00000070: 1020 8fbe f180 40bf bc73 9bbd c743 28bc
00000080: b9d3 0dbf 7597 17bf 45c9 54be e087 31be
00000090: defb 61bf 39d9 98bf 94ed 0cbf f145 e1be
000000a0: 93d9 813e 1463 08bf 4dbe b9bc 68f5 9fbd
000000b0: 8a4b c7be ecf1 9dbe ed6b 30bf a641 0abf
000000c0: b5b6 ee3d a144 29be 8d41 8dbf 00ed 183f
000000d0: 5cde 80bd fb24 84be b3cf 2abf bd2e bebe
000000e0: a840 df3d 6155 bbbe 708f d4bd 27a0 e93d
000000f0: cb0b 59bf 9e41 183e 39cf e53c aa8e 143e
